trials/model_FD004.pkl (torch, 22020 bytes, 23 tensors)

weight_ih_l0 f4 [32, 14]
0	0x3df0d650	0.11759627
1	0x3dbb25dd	0.09138081
2	0xbe1f93f2	-0.1558378
3	0x3c9a41fb	0.01883029
4	0xbe10dd4b	-0.14146917
5	0x3e8f8e9c	0.2803849
6	0x3cf03f3a	0.029327024
7	0xbbbc3920	-0.0057441145
8	0xbeb46a39	-0.3523729
9	0x3ce8dddd	0.028426105
10	0xbe86c657	-0.26323196
11	0xbd6242aa	-0.055239357
12	0xba6cad48	-0.00090285065
13	0xbeb77794	-0.35833418
14	0xbeb20db0	-0.34776068
15	0xbe33895c	-0.17532867
16	0x3de3dd6e	0.11126219
17	0xbe7b60b2	-0.24548605
18	0xbe77a7c8	-0.24185097
19	0xbe568a35	-0.2095116
20	0x3e866110	0.26245928
21	0x3e09ff4e	0.13476297
22	0x3ed55ebb	0.41673836
23	0x3debd904	0.11516002
24	0xbe86cc20	-0.2632761
25	0xbd86cb0c	-0.06581697
26	0x3e55069e	0.20803306
27	0x3e607358	0.21919
28	0xbd9b8ae5	-0.075948514
29	0x3dcb02fa	0.09912677
30	0xbe3a7e35	-0.18212207
31	0x3e879e1b	0.26487812
32	0xbd944391	-0.0723945
33	0x3eef9d42	0.46799666
34	0xbf1df499	-0.6170135
35	0xbdc366c8	-0.09541088
36	0xbe674701	-0.2258568
37	0x3f3a2af2	0.7272178
38	0x3e58bc3a	0.21165553
39	0xbe904ad1	-0.2818208
40	0xbd9a17cf	-0.075240724
41	0x3deff63d	0.11716888
42	0x3e1fde14	0.1561206
43	0xbe3322f5	-0.17493804
44	0xbdcb087e	-0.09913729
45	0xbc076b0a	-0.008265266
46	0x3d2f8824	0.042854443
47	0x3e951fb7	0.2912576
48	0xbd7374d6	-0.059437595
49	0xbe79afca	-0.24383464
50	0x3e7c7817	0.24655186
51	0xbe9d209b	-0.30688938
52	0xbe9b6cd3	-0.30356464
53	0xbe05c6ed	-0.13064165
54	0xbdb72025	-0.08941678
55	0xbe8be0a6	-0.2731983
56	0xbd9c0701	-0.076185234
57	0xbc86f01e	-0.016471919
58	0xbdf88efd	-0.12136648
59	0xbe269a16	-0.16269717
60	0x3e978a8d	0.29597893
61	0x3e2900e7	0.1650425
62	0xbdf202b8	-0.11816925
63	0x3e4c7d35	0.19969638
64	0xbe45832f	-0.19288324
65	0x3e533da9	0.2062899
66	0xbe8d8c04	-0.27645886
67	0xbe3c3230	-0.1837852
68	0x3e3d4e68	0.18486941
69	0xbd99b6db	-0.0750558
70	0x3e5646dc	0.20925468
71	0x3c980071	0.018554898
72	0x3ed36cba	0.4129389
73	0x3df1d459	0.1180808
74	0x3e4268a3	0.18985228
75	0xbe817370	-0.25283384
76	0xbda91e05	-0.08257679
77	0xbe0c67f8	-0.13711536
78	0x3e3b2ae6	0.18278083
79	0xbe0fd722	-0.1404691
80	0x3e86aa19	0.2630165
81	0x3e583015	0.21112092
82	0xbe8e8515	-0.2783591
83	0x3d3c6902	0.04599858
84	0x3f18eed3	0.59739417
85	0xbe1d21fc	-0.15344995
86	0xbec093eb	-0.37612852
87	0xbd74b4da	-0.059742786
88	0xbe111681	-0.14168741
89	0x3ef0ff23	0.47069654
90	0xbe8f8cd7	-0.2803714
91	0x3e64d0f4	0.22345334
92	0x3cd5cf20	0.026099741
93	0xbdf7be28	-0.12096816
94	0x3e9c9812	0.3058477
95	0xbde7cc8a	-0.113183096
96	0xbeaa3f29	-0.33251312
97	0x3de65d35	0.112482466
98	0xbcc57506	-0.024103653
99	0x3e8f125a	0.2794369
100	0x3f0254e6	0.50910795
101	0x3df88be4	0.12136057
102	0xbd7175ce	-0.058950238
103	0xbe8b9662	-0.2726317
104	0x3f00f5af	0.50374883
105	0x3db45ce6	0.088067815
106	0x3e01341d	0.12617536
107	0xbeb453d4	-0.35220206
108	0x3f069811	0.52575785
109	0x3d89a0be	0.06720112
110	0xbe4166a1	-0.18886806
111	0xbe2a38a2	-0.16623166
112	0x3ebc6915	0.3679892
113	0xbe29f056	-0.16595587
114	0x3d859465	0.06522445
115	0xbe933fa9	-0.28759506
116	0x3e20316a	0.1564385
117	0x3e5e171d	0.21688505
118	0xbe123cce	-0.14281008
119	0x3e2c1ea8	0.1680857
120	0xbec5591f	-0.38544556
121	0xbd09c8f8	-0.033638924
122	0xbec81cbe	-0.3908443
123	0x3d9b80f7	0.075929575
124	0xbed894a1	-0.42300895
125	0xbe5db055	-0.21649297
126	0xbd893bf2	-0.06700887
127	0xbde4a144	-0.111635715
128	0x3eafa42b	0.34304938
129	0x3e99d4c9	0.30045155
130	0x3dc2c608	0.09510428
131	0xbf0e076d	-0.5548008
132	0x3dced2da	0.100988105
133	0x3e8eb5c1	0.27873042
134	0x3dabcc54	0.08388582
135	0xbde9abf6	-0.11409752
136	0xbd7e4c9e	-0.062084787
137	0xbeceb051	-0.40368894
138	0x3e782024	0.2423101
139	0x3e961f04	0.29320538
140	0x3f06341e	0.52423275
141	0xbe9beda2	-0.30454737
142	0xbef83b0f	-0.48482558
143	0x3e91fc64	0.2851287
144	0x3e80b8c3	0.25140962
145	0x3e776d17	0.24162708
146	0xbea67576	-0.3251149
147	0xbe9197ef	-0.2843623
148	0x3e676c8d	0.22600003
149	0x3db65132	0.089022055
150	0x3eb5bfb3	0.35497817
151	0xbdda3ba2	-0.10655905
152	0x3d37dac7	0.044886377
153	0x3e7f8064	0.24951321
154	0x3ece16d5	0.40251794
155	0x3a92d452	0.0011202192
156	0x3e3bf7cd	0.18356247
157	0xbdbc76ae	-0.09202324
158	0x3eba67df	0.36407372
159	0x3e7b5896	0.24545512
160	0xbeb86c48	-0.36020112
161	0xbe4abf15	-0.19799455
162	0xbe2fd919	-0.1717266
163	0xbd828a84	-0.06374076
164	0xbeb5050e	-0.3535542
165	0xbeb38998	-0.35065913
166	0xbd3288fd	-0.043587673
167	0xbd6566d5	-0.05600627
168	0x3eb2dce9	0.34934166
169	0x3d6df10b	0.058091205
170	0x3f12ac86	0.572945
171	0xbc2d6619	-0.010583424
172	0x3c42310c	0.011852514
173	0xbd27352e	-0.0408222
174	0x3df4fe39	0.119625516
175	0xbd36f375	-0.044665772
176	0xbe583a57	-0.21116005
177	0xbed7bfd9	-0.42138556
178	0xbd723a15	-0.059137423
179	0xbefcc336	-0.49367684
180	0xbe88f8b3	-0.26752242
181	0xbe2859cb	-0.16440503
182	0x3e1bcfa5	0.15215929
183	0x3e50b90b	0.20383088
184	0x3ec17701	0.37786105
185	0x3dbfd151	0.09366096
186	0xbd9a521b	-0.075351916
187	0x3e19d1a6	0.15021381
188	0xbe4a697e	-0.19766805
189	0xbedc1927	-0.4298794
190	0x3e070411	0.13185145
191	0xbed49f78	-0.41527915
192	0xbe1222f4	-0.14271146
193	0xbe86fca8	-0.26364636
194	0xbd272881	-0.040810112
195	0xbe181696	-0.14852366
196	0x3ea03d21	0.31296638
197	0xbe597c34	-0.21238786
198	0xbd7cf520	-0.061757207
199	0x3dbee728	0.09321433
200	0x3ed2a7e0	0.41143703
201	0xbd22cf79	-0.039748643
202	0x3d1434ab	0.03618304
203	0x3e1adab8	0.15122497
204	0xbe4f9737	-0.20272528
205	0x3eaa7292	0.33290535
206	0x3e6d99d1	0.23203208
207	0x3ea796d6	0.32732266
208	0xbeb9eb9c	-0.36312568
209	0xbd6ed22c	-0.058305904
210	0xbe4f7405	-0.20259102
211	0xbe77ee71	-0.24212052
212	0x3e430bb3	0.19047432
213	0xbe213359	-0.15742244
214	0xbd48825f	-0.048952457
215	0x3dfc6724	0.1232436
216	0x3d071067	0.032974627
217	0x3ec0361f	0.3754129
218	0x3eacd948	0.33759522
219	0x3d80c982	0.062884346
220	0x3eccd537	0.4000642
221	0xbdda7fa7	-0.10668879
222	0xbcb2ac38	-0.021810636
223	0x3cf4abdb	0.029867103
224	0x3e2d42e2	0.16920045
225	0xbd626483	-0.055271637
226	0xbe1e1a0e	-0.15439627
227	0xbe24cb16	-0.16093096
228	0x3dae4ddc	0.08510944
229	0x3ea5bc41	0.3237019
230	0xbe0fd017	-0.14044224
231	0xbe8bbb2b	-0.27291235
232	0xbdd05415	-0.101722874
233	0xbf008c1d	-0.50213796
234	0xbf0c6209	-0.5483709
235	0x3bf7d70d	0.007563478
236	0x3c7c1cc6	0.0153877195
237	0x3d069735	0.032859046
238	0x3e99ac97	0.30014488
239	0x3eed8f52	0.46398407
240	0xbb02ea0e	-0.0019975933
241	0xbdcf600d	-0.10125742
242	0x3e3557a3	0.17709212
243	0xbd09d1e0	-0.033647418
244	0xbe620672	-0.22072771
245	0xbe8aca97	-0.2710769
246	0xbeb5018b	-0.3535274
247	0xbc55e30c	-0.0130546205
248	0xbde3b707	-0.11118894
249	0xbcac0a12	-0.021000896
250	0xbe2b2816	-0.1671451
251	0x3b88f05d	0.004179044
252	0x3dc1af80	0.09457302
253	0x3e81989a	0.25311738
254	0xbec8a784	-0.39190304
255	0xbde78c10	-0.11306012

weight_hh_l0 f4 [32, 8]
0	0x3d387fe5	0.045043845
1	0x3e86edfb	0.2635344
2	0x3eb6b9f2	0.3568874
3	0x3c413b1d	0.011793879
4	0x3e879873	0.26483497
5	0xbe28c251	-0.16480376
6	0x3ea25af4	0.31710017
7	0xbdcd4f02	-0.10024835
8	0xbdc3820d	-0.095462896
9	0xbdcc871e	-0.09986709
10	0xbea84044	-0.3286153
11	0x3cfd9ed4	0.030959524
12	0xbe25c6ad	-0.1618907
13	0xbe30c285	-0.17261703
14	0x3ed815fb	0.4220427
15	0x3d29ff7d	0.04150342
16	0x3e6a7b78	0.22898662
17	0xbedab088	-0.42712808
18	0x3e97ac3c	0.29623592
19	0x3f3d656c	0.7398288
20	0xb9bd127d	-0.00036062664
21	0x3f2f0f36	0.68382585
22	0xbc896ec7	-0.016776456
23	0xbf46139b	-0.77373666
24	0xbd76b06b	-0.06022684
25	0x3e747303	0.23871998
26	0x3e5e4991	0.21707751
27	0x3eadb856	0.339297
28	0x3e034b95	0.12821801
29	0x3e396ede	0.18108699
30	0xbea3e18d	-0.3200802
31	0xbd986bb7	-0.0744242
32	0x3eb6ca6b	0.35701308
33	0xbe7a0e07	-0.24419414
34	0xbe11eaac	-0.14249676
35	0x3f06b03e	0.52612674
36	0x3e28030c	0.16407412
37	0x3ec12e97	0.37730858
38	0x3c592084	0.013252381
39	0xbf55caa8	-0.83512354
40	0x3d64d27d	0.0558648
41	0xbe0d9577	-0.13826548
42	0xbe967e2e	-0.29393142
43	0x3ed2233f	0.41042516
44	0x3ecdd5cd	0.4020218
45	0x3e3140fb	0.17309944
46	0x3e8cf4ab	0.27530417
47	0x3dfb8188	0.122805655
48	0xbd223c63	-0.03960837
49	0xbcd3d4f1	-0.025858374
50	0x3e3138e9	0.17306866
51	0x3ce5579f	0.027995883
52	0xbbd7eae5	-0.006589281
53	0xbe5de88a	-0.21670738
54	0x3ed93413	0.42422542
55	0x3cd62010	0.026138335
56	0x3e85a114	0.26099455
57	0x3db346a8	0.08753711
58	0xbe0da7f1	-0.13833596
59	0x3ed03d54	0.4067179
60	0x3ef510d1	0.47864392
61	0x3dcee10b	0.10101517
62	0xbe3f29bf	-0.18668269
63	0x3dff2375	0.12457935
64	0xbcae8f1d	-0.021308476
65	0x3e366807	0.17813121
66	0xbe6b6a39	-0.2298974
67	0x3e2ae6e1	0.16689636
68	0x3e24ee85	0.16106613
69	0x3d0a5348	0.03377083
70	0x3dbeb5ff	0.09312057
71	0xbea33e4a	-0.3188346
72	0xbdf2bab3	-0.11852016
73	0x3d882be8	0.066489995
74	0xbe065191	-0.13117053
75	0x3e6c2bef	0.23063634
76	0xbe8f0dc3	-0.27940187
77	0x3e52ede9	0.20598568
78	0xbdc65bc6	-0.09685473
79	0xbe1a9dd6	-0.15099272
80	0x3f022fbf	0.50854105
81	0xbc9fb532	-0.01949558
82	0xbe9fa66c	-0.31181657
83	0x3e3336af	0.17501329
84	0x3eb58f00	0.35460663
85	0x3efa04dd	0.48831835
86	0xbea70c71	-0.3262668
87	0xbdf3a9bc	-0.11897609
88	0x3e846b2d	0.2586302
89	0xbd8c5ebd	-0.068540074
90	0x3d23bfce	0.03997784
91	0xbb5646f3	-0.0032696098
92	0xbe5d4451	-0.21608092
93	0x3db35812	0.087570325
94	0xbdd27169	-0.102755375
95	0xbf098911	-0.5372477
96	0xbab66a53	-0.0013917185
97	0xbe41a201	-0.18909456
98	0xbc663a0f	-0.014051928
99	0x3cea8197	0.028626246
100	0x3e7c569c	0.24642414
101	0x3d5c819b	0.05383454
102	0x3ea552d5	0.32289758
103	0xbd456045	-0.048187513
104	0xbe7f4d58	-0.24931848
105	0x3d00689d	0.031349767
106	0xbf3014dc	-0.6878183
107	0x3e6a49ad	0.22879668
108	0x3e842d19	0.25815657
109	0x3da4710b	0.08029374
110	0xbe756bf8	-0.23966968
111	0xbe435c85	-0.19078262
112	0x3ee1f38f	0.44131133
113	0xbebb041c	-0.36526573
114	0x3da45719	0.08024425
115	0x3e3c1cde	0.18370387
116	0x3f01101f	0.50415224
117	0x3ebe5e33	0.37181243
118	0xbd9b3599	-0.07578582
119	0xbeabd790	-0.335629
120	0x3e822313	0.25417385
121	0x3e9deea6	0.30846137
122	0xbebcc21e	-0.3686685
123	0x3e9aa50a	0.3020404
124	0xbe643170	-0.22284484
125	0xbdb1d8e6	-0.08683948
126	0xbe3ab8e0	-0.18234587
127	0xbdda6a63	-0.10664823
128	0x3def8ceb	0.116968
129	0x3cbfa2b0	0.023393005
130	0xbe6bec91	-0.23039462
131	0x3df49753	0.11942925
132	0x3db57e82	0.0886202
133	0xbdf0d9b8	-0.117602766
134	0x3e27f1b0	0.1640079
135	0xbedf7799	-0.43645933
136	0xbed005b3	-0.40629348
137	0x3d726628	0.059179455
138	0x3e8f33a3	0.27969083
139	0xbed53e72	-0.41649204
140	0x3ddb6f66	0.10714607
141	0xbeb47a70	-0.35249662
142	0xbe9808ec	-0.29694307
143	0x3e8461dd	0.25855914
144	0xbd098ec4	-0.033583418
145	0xbe204d36	-0.15654454
146	0xbe5516ce	-0.2080948
147	0x3d846d43	0.064661525
148	0xbe84e7de	-0.2595815
149	0x3cffd05e	0.031227287
150	0x3d338f0c	0.043837592
151	0x3e7ecf8d	0.24883862
152	0x3e91339b	0.28359684
153	0x3eea8163	0.4580184
154	0x3e8e56f6	0.2780072
155	0xbe4d9444	-0.2007609
156	0xbe355189	-0.17706884
157	0x3e865c37	0.2624223
158	0x3e471485	0.19441421
159	0xbf04bbc9	-0.5184904
160	0xbe8ff1ce	-0.2811417
161	0xbe62f058	-0.22161996
162	0x3e5d2898	0.21597517
163	0x3e875b12	0.2643667
164	0x3d792d98	0.060834497
165	0xbede23c8	-0.43386674
166	0x3ee79183	0.45228204
167	0xbd9ef6ee	-0.07761942
168	0x3eb349dd	0.3501729
169	0x3ef97a86	0.4872629
170	0x3ee4cd46	0.4468786
171	0x3d47875c	0.048713073
172	0x3eb3f9bf	0.3515148
173	0xbdb699f2	-0.089160815
174	0x3e184cbe	0.14873025
175	0xbf577f30	-0.8417845
176	0xbee994b0	-0.45621252
177	0x3de017f6	0.1094207
178	0x3e97c557	0.29642746
179	0xbe98b9a1	-0.29829124
180	0x3e27737f	0.16352652
181	0xbd2dc130	-0.042420566
182	0x3f00783b	0.5018346
183	0x3e924ef3	0.28575858
184	0xbe0f2a9a	-0.13981095
185	0xbe7b1572	-0.245199
186	0x3d3f630a	0.04672531
187	0xbaa38c73	-0.001247777
188	0x3e9e0edb	0.3087071
189	0x3e55c217	0.2087482
190	0x3d8155da	0.06315203
191	0x3eba66b1	0.36406472
192	0x3e8318f8	0.25604987
193	0xbeb1b792	-0.34710366
194	0x3dc34a07	0.09535604
195	0x3e860e3e	0.2618274
196	0x3e8de619	0.27714613
197	0x3ea92fc7	0.33044264
198	0x3ed977b2	0.42474133
199	0xbf1277f9	-0.57214314
200	0x3e438c07	0.19096385
201	0xbde8bf1c	-0.11364576
202	0xbf1e1ffc	-0.61767554
203	0xbe370114	-0.17871505
204	0xbdf45c4a	-0.11931665
205	0x3de8cfc0	0.1136775
206	0x3d5854e0	0.052815318
207	0xbe56d02c	-0.20977849
208	0x3f05100b	0.51977605
209	0xbec5dac6	-0.38643473
210	0xbde09fc7	-0.10967975
211	0x3f53bb5a	0.8270775
212	0x3e8ee166	0.2790634
213	0x3f1a3147	0.6023144
214	0xbe7b8148	-0.24561036
215	0xbefd015b	-0.49415097
216	0xbe0357e1	-0.12826492
217	0xbda88a76	-0.08229534
218	0xbf03d91b	-0.5150315
219	0x3d9704cc	0.07373962
220	0x3c95bdd1	0.018278988
221	0x3d9eff5a	0.07763548
222	0x3d2245ff	0.039617535
223	0xbead86e6	-0.33891982
224	0xbd96d6c0	-0.07365179
225	0xbea95385	-0.33071533
226	0xbe48bf5e	-0.19604251
227	0x3e240606	0.16017923
228	0x3eb97b95	0.36227098
229	0x3ea0611c	0.3132409
230	0x3ebb740a	0.36611968
231	0xbeb3b803	-0.35101327
232	0x3d6f5634	0.05843182
233	0xbd00d08e	-0.031448893
234	0xbf5401b9	-0.8281513
235	0x3e194ab8	0.14969909
236	0x3f673bc6	0.9032558
237	0xbe217da4	-0.15770584
238	0x3e8c501b	0.27404866
239	0x3e899591	0.26871923
240	0x3dd0d103	0.10196116
241	0xbe103d09	-0.14085783
242	0x3e5580b4	0.20849878
243	0xbe086f05	-0.133236
244	0x3e61fa15	0.22068055
245	0x3ec36c1b	0.38168415
246	0xbe3191a2	-0.17340711
247	0xbe10ae7c	-0.1412906
248	0x3e2b1faa	0.16711298
249	0xbe5bbe8b	-0.21459405
250	0xbf06ff96	-0.52733743
251	0xbc5792d1	-0.013157562
252	0x3e350072	0.17675951
253	0xbe530665	-0.20607908
254	0xbd821ed4	-0.06353536
255	0x3ebed830	0.37274313

bias_ih_l0 f4 [32]
0	0x3cb1b0b3	0.021690702
1	0xbe10f542	-0.14156058
2	0x3e04bbfc	0.12962335
3	0x3ed95a7e	0.42451853
4	0x3edad956	0.4274394
5	0x3ebacdf4	0.36485255
6	0xbe2f73b7	-0.17133985
7	0x3f2559b0	0.6458998
8	0x3e2cc368	0.16871417
9	0x3e6035b0	0.2189548
10	0xbe0e0c69	-0.13871922
11	0x3ca54823	0.020175999
12	0xbd82ef8b	-0.063933454
13	0x3e9cbe09	0.30613735
14	0x3f15afd0	0.58471394
15	0xbe3521fe	-0.17688748
16	0x3d756cc6	0.059918188
17	0xbeb60505	-0.35550705
18	0x3e602360	0.21888494
19	0x3eadd4e9	0.339515
20	0x3e9264f2	0.2859264
21	0xbcd59d3d	-0.026075954
22	0x3e975292	0.29555184
23	0xbe531c1d	-0.20616193
24	0x3ee71120	0.45130253
25	0x3ddf3b39	0.10899968
26	0x3f17d0e5	0.5930312
27	0x3ee55f31	0.44799188
28	0x3f13ccde	0.5773448
29	0x3ef93fe3	0.48681554
30	0xbd93a7db	-0.0720975
31	0x3e31fb30	0.17380977

bias_hh_l0 f4 [32]
0	0x3f03ff9a	0.5156189
1	0x3e3bcd97	0.18340145
2	0x3ed353b9	0.41274813
3	0x3efc5ebb	0.49291024
4	0x3f064d78	0.5246196
5	0x3f0de455	0.5542653
6	0xbcb1d0b9	-0.021705972
7	0x3ecefdb9	0.4042795
8	0xbe82e4b5	-0.25565115
9	0xbe9fefe9	-0.31237724
10	0x3e035951	0.1282704
11	0x3c66c719	0.0140855545
12	0x3d165b5d	0.036708225
13	0xbe4bd2e1	-0.19904663
14	0x3f29c744	0.6631968
15	0xbe5b91d6	-0.21442351
16	0x3e851bd9	0.2599781
17	0x3dd8d6f4	0.10587874
18	0xbd3ea3e9	-0.046543036
19	0x3dfc9d7a	0.12334724
20	0x3e2dbfba	0.16967669
21	0x3e4a7d4a	0.19774356
22	0xbd23f6d2	-0.040030308
23	0xbdd5b47f	-0.104348175
24	0x3dd28335	0.10278932
25	0x3e0d1153	0.1377614
26	0x3ebbe803	0.36700448
27	0x3e99d5a3	0.30045804
28	0x3da997ee	0.082809314
29	0x3eb6ac6e	0.35678428
30	0x3dd40fc1	0.10354567
31	0x3f0b0b2b	0.54313916

weight_ih_l1 f4 [32, 8]
0	0x3ec76e89	0.3895152
1	0xbea993d8	-0.33120608
2	0xbed16961	-0.4090071
3	0x3e9ea996	0.3098876
4	0x3e340167	0.1757866
5	0x3ee53019	0.44763258
6	0xbd4f0fd7	-0.050552215
7	0xbe5d321f	-0.21601151
8	0xbba9c589	-0.0051810187
9	0xbd96053e	-0.073252186
10	0x3e38b2d7	0.18036972
11	0x3c4338ff	0.011915444
12	0x3e55d416	0.20881686
13	0x3d0c17af	0.034202274
14	0x3eabdd78	0.33567405
15	0xbd9148eb	-0.07093986
16	0x3e7999a1	0.24375011
17	0xbe41aff6	-0.1891478
18	0xbe3e982e	-0.1861274
19	0x3ea84f2f	0.32872912
20	0x3e440eae	0.19146225
21	0x3ed44585	0.4145929
22	0x3e53028d	0.20606442
23	0xbe5bd477	-0.21467768
24	0x3e63b9fa	0.22238913
25	0xbdfa9ff8	-0.12237543
26	0xbdd90b47	-0.10597854
27	0x3ec6f51f	0.38858888
28	0xbc50acf5	-0.012736549
29	0x3e5915f2	0.21199778
30	0xbe3af410	-0.18257165
31	0xbeb88701	-0.360405
32	0xbd650b4e	-0.055918984
33	0x3cefb7c8	0.029262438
34	0xbf0cef90	-0.55053043
35	0x3e618893	0.22024755
36	0x3e9fd435	0.3121659
37	0x3f04ad82	0.5182725
38	0x3e7c4782	0.24636653
39	0x3e02eea0	0.1278634
40	0xbe019145	-0.12653072
41	0xbd941b7d	-0.072318055
42	0x3dee6f0c	0.11642274
43	0x3e76cb43	0.24100976
44	0x3ec83127	0.391
45	0x3a7b9899	0.0009597629
46	0x3f2125e8	0.62948465
47	0xbd21a60e	-0.039465003
48	0xbdb0f7d2	-0.08641018
49	0xbd33470a	-0.04376892
50	0x3f162887	0.5865559
51	0x3d8137d0	0.063094735
52	0xbd97e5d0	-0.0741688
53	0xbddf393d	-0.10899589
54	0xbdb53a95	-0.08849064
55	0xbd2282f6	-0.039675675
56	0x3cd803cd	0.026369
57	0x3e82b840	0.25531197
58	0xbee95aa8	-0.45576978
59	0x3d152026	0.036407612
60	0xbcfe174d	-0.03101697
61	0x3ef5baf8	0.47994208
62	0x3bf652f7	0.0075172144
63	0xbf21b773	-0.63170546
64	0x3eafc4bd	0.34329787
65	0xbe718134	-0.23584443
66	0xbf265e90	-0.6498804
67	0x3e3bd72d	0.18343802
68	0x3f000639	0.50009495
69	0x3ebb8de6	0.36631697
70	0xbe89f0fc	-0.2694167
71	0xbe81413f	-0.2524509
72	0xbe0f668b	-0.14003961
73	0xbda68d30	-0.08132398
74	0xbe0861f2	-0.13318613
75	0xbcab1744	-0.020885117
76	0x3f111a8f	0.5668115
77	0x3da18ed8	0.078885734
78	0x3f08ba55	0.5340932
79	0xbdd0f3a6	-0.10202722
80	0x3c5312d1	0.012882904
81	0x3d90c9f8	0.070697725
82	0xbd98787c	-0.074448556
83	0x3e21caa7	0.15799962
84	0x3d468ab5	0.048472125
85	0x3dbc7432	0.0920185
86	0x3e824e49	0.25450352
87	0xbe3b95bb	-0.18318836
88	0x3e49225d	0.19642015
89	0xbe39f070	-0.18158126
90	0xbe3e2501	-0.18568803
91	0x3e3a500a	0.18194595
92	0xbcff09cb	-0.0311326
93	0xbd86ef64	-0.06588629
94	0x3e6de31c	0.23231167
95	0xbdd22ff6	-0.10263054
96	0x3e7b12f6	0.24518952
97	0xbee073d4	-0.4383837
98	0xbf0dc42e	-0.5537747
99	0x3e5dcd0f	0.21660255
100	0x3f21ae67	0.6315674
101	0x3da7c84b	0.081925
102	0x3e79ba53	0.24387483
103	0xbed9ef8f	-0.4256558
104	0x3e2f9dca	0.17150036
105	0xbc692d19	-0.0142319435
106	0x3e34266c	0.17592782
107	0xbd71c07b	-0.059021454
108	0x3db22d47	0.08700042
109	0x3dd3a341	0.103338726
110	0x3ec1f233	0.37880096
111	0xbdb0e733	-0.08637848
112	0x3d00022d	0.031252075
113	0x3d53f40c	0.051746413
114	0x3ed439e2	0.4145041
115	0x3eff26a4	0.49834168
116	0xbc1a003c	-0.00939947
117	0xbe17f317	-0.14838825
118	0xbc598929	-0.01327733
119	0x3ea6f5a4	0.32609284
120	0xbcb15244	-0.021645673
121	0xbe175f90	-0.14782548
122	0xbf24716e	-0.6423558
123	0x3e919642	0.2843495
124	0xbe25336f	-0.16132902
125	0x3d6399b6	0.055566512
126	0x3d978de3	0.074001096
127	0xbf31f741	-0.69517905
128	0x3d0fea3d	0.035135496
129	0x3ec4bdf9	0.38426188
130	0x3f3abac1	0.72941214
131	0xbe98885e	-0.2979154
132	0xbe98c133	-0.298349
133	0xbed9a665	-0.4250976
134	0xbec29a6e	-0.38008446
135	0x3e3e0c12	0.18559292
136	0xbea29eac	-0.31761682
137	0x3eb37c21	0.3505564
138	0xbdf91ab2	-0.12163295
139	0xbdfd443b	-0.123665296
140	0xbece16bc	-0.4025172
141	0xbf2c822d	-0.6738613
142	0xbf018351	-0.50591
143	0x3e68c143	0.22729973
144	0xbef58aef	-0.4795756
145	0x3df692b5	0.12039701
146	0x3f2d1457	0.6760916
147	0xbe450164	-0.19238812
148	0xbedd30de	-0.43201345
149	0xbee98553	-0.4560953
150	0x3c999af2	0.018750641
151	0x3e5a3af6	0.21311554
152	0xbe35ac95	-0.17741616
153	0x3da5ea71	0.08101357
154	0x3e0f3fd9	0.139892
155	0xbe9c1c86	-0.30490512
156	0xbde41236	-0.11136286
157	0x3cddc80c	0.027072929
158	0xbe271a61	-0.16318657
159	0xbd6374bf	-0.05553126
160	0x3c5f7ab1	0.013640092
161	0x3ee77829	0.45208862
162	0x3ee060b1	0.4382377
163	0xbe9a7c85	-0.30173126
164	0xbc4620b2	-0.012092756
165	0xbe817d7f	-0.25291058
166	0xbed2a784	-0.4114343
167	0x3e4ce36a	0.20008627
168	0xbf455fca	-0.7709929
169	0xbeb2b0bf	-0.34900472
170	0x3ebcd8f8	0.36884284
171	0xbe9cc6a5	-0.30620304
172	0xbe90da8a	-0.28291732
173	0xbf04fc11	-0.5194712
174	0xbb6d8310	-0.003624145
175	0x3f34a1ac	0.7055919
176	0xbe5aabe4	-0.21354634
177	0x3e4a1ebc	0.19738287
178	0xbd8576fd	-0.06516836
179	0xbecc7b43	-0.3993779
180	0x3e15e9db	0.1463999
181	0xbe70bc33	-0.23509292
182	0x3e9e2d38	0.30893874
183	0x3f100c16	0.5626844
184	0x3d9df717	0.07713144
185	0x3e92ebf7	0.28695652
186	0xbe399791	-0.18124224
187	0x3e09b302	0.13447192
188	0xbd02ace3	-0.03190316
189	0x3eb06f37	0.3445985
190	0xbe28c5fc	-0.16481775
191	0xbe65afb0	-0.224303
192	0x3e8fa9d5	0.2805926
193	0xbcb15fab	-0.021652063
194	0xbef4f24d	-0.4784111
195	0x3f00afae	0.50268066
196	0x3ef23cc1	0.47311977
197	0x3f0e8369	0.55669266
198	0xbeff4a46	-0.49861354
199	0xbf4b4487	-0.7940144
200	0x3ed2e68c	0.41191518
201	0x3bd97d4e	0.006637252
202	0xbd927576	-0.0715131
203	0x3f188a74	0.5958626
204	0x3eec113e	0.46106905
205	0x3ef38e94	0.47569716
206	0xbce940fa	-0.028473366
207	0xbeb5dde7	-0.3552086
208	0x3e020ca9	0.12700142
209	0x3ed486db	0.41509137
210	0x3efd6545	0.49491325
211	0xbd07d231	-0.03315944
212	0xbe4282db	-0.1899523
213	0x3e7a5360	0.24445868
214	0x3e86227f	0.26198193
215	0xbea9536d	-0.3307146
216	0x3df9ee8f	0.122037046
217	0x3e58509b	0.21124499
218	0x3da7aaa9	0.08186848
219	0x3e5150d6	0.20440993
220	0x3b8c53bc	0.004282443
221	0x3e264b63	0.16239695
222	0xbd752ce4	-0.059857264
223	0xbf1a66e4	-0.6031325
224	0x3e8be83c	0.27325618
225	0xbdc3c00c	-0.095581144
226	0xbe778ab7	-0.2417401
227	0x3eb88b22	0.3604365
228	0xbd7386bc	-0.059454665
229	0x3dae8dc6	0.08523135
230	0x3e17f446	0.14839277
231	0xbef24b56	-0.47323102
232	0x3e6701f4	0.22559339
233	0xbc3af8f6	-0.011411896
234	0xbcedbfb1	-0.02902207
235	0x3e9ac942	0.30231673
236	0x3ef58fa5	0.47961155
237	0x3e25cd33	0.16191559
238	0x3e7813a5	0.24226244
239	0xbe234e8e	-0.15947935
240	0xbd231d5f	-0.039822932
241	0x3e1efa36	0.15525135
242	0x3e0a0e10	0.13481927
243	0x3ed7028c	0.4199413
244	0x3e26f4a3	0.16304259
245	0x3e9126e7	0.28349993
246	0x3e521a0a	0.20517746
247	0xbdbb7913	-0.091539524
248	0x3ead9c13	0.33908138
249	0x3eab8dfa	0.33506757
250	0xbef0af47	-0.47008726
251	0x3ed585f5	0.41703764
252	0x3e109a20	0.14121294
253	0x3f2f1290	0.683877
254	0xbba827a4	-0.0051316787
255	0xbf46dbfe	-0.7767943

weight_hh_l1 f4 [32, 8]
0	0xbecd4d33	-0.4009796
1	0xbc340647	-0.010987825
2	0xbeb595fb	-0.3546599
3	0xbe36e4c3	-0.17860703
4	0xbdb2c4e3	-0.087289594
5	0xbebb0a61	-0.36531356
6	0xbdc0eef0	-0.09420574
7	0x3e86a170	0.26295042
8	0xbe322156	-0.17395529
9	0xbe03247f	-0.12806891
10	0xbe473075	-0.19452079
11	0xbe6d64d6	-0.23182997
12	0xbe0221a3	-0.12708144
13	0xbe6f87c7	-0.23391639
14	0x3dffbbcf	0.124869935
15	0x3ddfe101	0.10931588
16	0xbc26e972	-0.010187494
17	0xbda094ac	-0.07840857
18	0xbe4064b5	-0.18788417
19	0x3d43c844	0.04779841
20	0xbe559a29	-0.20859589
21	0x3e0d6ef2	0.13811854
22	0x3ca42f16	0.020041984
23	0x3db4e4d8	0.08832711
24	0x3ce9a400	0.028520584
25	0xbdb828e4	-0.08992174
26	0xbe82f8c2	-0.25580412
27	0xbeecab05	-0.46224228
28	0xbe48bb38	-0.19602668
29	0xbeb3aedb	-0.35094342
30	0x3e6b161e	0.22957656
31	0x3da24be0	0.07924628
32	0xbe20ff96	-0.15722498
33	0xbe813600	-0.2523651
34	0xbe4d5f7d	-0.20055957
35	0x3e360c78	0.17778194
36	0xbe72ce00	-0.23711395
37	0xbecad492	-0.39615303
38	0xbe77d555	-0.24202473
39	0x3e482aad	0.1954753
40	0xbf0d3caa	-0.5517069
41	0x3d2b1904	0.041771904
42	0xbe333b51	-0.17503096
43	0xbf0541a4	-0.52053285
44	0xbeb016ba	-0.3439234
45	0x3e5895a5	0.21150835
46	0x3eb05fc9	0.34448078
47	0x3da85b4d	0.08220539
48	0xbbd86306	-0.0066036014
49	0xbe97ac05	-0.29623428
50	0x3abc6578	0.0014373502
51	0xbe9b6e75	-0.3035771
52	0xbe1f0a95	-0.1553138
53	0xbccd08a0	-0.025028527
54	0xbdf2ee2b	-0.11861833
55	0x3c1c3f75	0.009536614
56	0xbe42ba98	-0.19016492
57	0x3f023e45	0.50876266
58	0x3e469b9f	0.19395302
59	0xbd889a14	-0.06670013
60	0x3dbddc55	0.092705406
61	0x3e560140	0.20898914
62	0x3e96814e	0.29395527
63	0x3e1b44a1	0.15162899
64	0xbe80db32	-0.25167233
65	0xbdef93dc	-0.11698124
66	0xbe5a1cf0	-0.21300101
67	0xbe84cec5	-0.25939003
68	0xbe68b484	-0.22725111
69	0x3e80d7be	0.25164598
70	0xbd377a4a	-0.04479436
71	0xbb6267c9	-0.0034546724
72	0xbea48450	-0.32132196
73	0xbe9d9e4f	-0.30784842
74	0xbdedff2f	-0.11620938
75	0x3e7754ff	0.24153517
76	0x3cc9f284	0.024651773
77	0xbecfea88	-0.4060862
78	0xbe19e253	-0.15027742
79	0x3c14711a	0.009060169
80	0xbda71027	-0.08157378
81	0x3e426ecf	0.18987583
82	0xbd96e057	-0.07367008
83	0x3e6a3739	0.22872628
84	0xbe4ed093	-0.20196752
85	0x3e6705c7	0.22560798
86	0x3e81d72c	0.25359476
87	0xbe2ed05b	-0.17071669
88	0xbd8518f8	-0.06498903
89	0xbe4a8704	-0.19778067
90	0xbd866b0a	-0.06563385
91	0xbd2168a9	-0.039406452
92	0xbe9c37d1	-0.30511335
93	0xbed175ea	-0.40910274
94	0x3e89010d	0.26758614
95	0x3dec3af8	0.11534685
96	0xbea172c4	-0.31532872
97	0xbeaa7cca	-0.33298331
98	0xbe675dfa	-0.22594443
99	0xbe4bfe1a	-0.19921151
100	0xbdd54847	-0.104141764
101	0xbd896481	-0.06708623
102	0xbdfb48d3	-0.122697495
103	0x3e8d04f2	0.27542835
104	0xbe97b92d	-0.29633465
105	0xbe408b88	-0.18803227
106	0xbe2d0ea9	-0.16900124
107	0xbead6c64	-0.33871758
108	0xbe89052f	-0.26761767
109	0xbe11a919	-0.14224662
110	0x3eb873e2	0.36025912
111	0x3e15a116	0.1461223
112	0x3e552be9	0.20817532
113	0xbe2dea7d	-0.16983981
114	0xbeb94c69	-0.3619111
115	0xbf0c1d5f	-0.54732317
116	0xbeacca6d	-0.3374819
117	0xbba46abd	-0.005017607
118	0xbe62ae68	-0.22136843
119	0x3ea85d94	0.32883894
120	0xbe2e271b	-0.17007105
121	0x3e73c1a6	0.2380434
122	0x3e327199	0.17426147
123	0x3e5ef529	0.21773209
124	0xbe58662d	-0.21132727
125	0xbd78d15d	-0.06074654
126	0x3eb20783	0.34771356
127	0x3e32a174	0.17444402
128	0xbe0232d8	-0.12714708
129	0xbf0b8612	-0.5450145
130	0xbe93d9d6	-0.28877133
131	0x3db89356	0.09012477
132	0xbcba3b4c	-0.022733353
133	0xbef89405	-0.4855043
134	0xbe3a5c5c	-0.18199295
135	0xbe12b9f9	-0.14328755
136	0x3e9941b5	0.29932943
137	0xbe82412b	-0.25440344
138	0x3eb7ede8	0.35923696
139	0xbde632b7	-0.11240142
140	0x3ece383c	0.40277278
141	0x3e5ca028	0.2154547
142	0xbe949a25	-0.29023853
143	0xbd06f2f6	-0.03294655
144	0x3e6222ea	0.22083631
145	0xbe9393e5	-0.28823772
146	0xbe5ceff9	-0.21575917
147	0x3e3ccc5c	0.18437332
148	0x3e4cc48d	0.19996853
149	0xbe3c4687	-0.18386279
150	0x3e1d9682	0.15389445
151	0x3c3e4233	0.011612463
152	0x3da9c943	0.08290341
153	0x3e27a863	0.16372828
154	0x3ecb8e2f	0.39756915
155	0x3e891287	0.26771948
156	0x3e80e2fe	0.2517318
157	0x3c2243ca	0.0099038575
158	0x3dc28f0c	0.0949994
159	0xbe86e164	-0.26343834
160	0x3f07cb5e	0.5304469
161	0xbd34a967	-0.044106867
162	0x3e73e8bf	0.23819254
163	0xbe706d83	-0.23479275
164	0x3ebf8219	0.37403944
165	0xbdebd8d9	-0.1151597
166	0xbe5ee0f4	-0.217655
167	0xbe69bef3	-0.22826748
168	0x3e04b7ce	0.12960741
169	0xbe6ad379	-0.22932233
170	0x3eb39bbb	0.3507975
171	0xbe6ed727	-0.23324262
172	0xbeaa299f	-0.3323488
173	0xbdb1cf86	-0.0868216
174	0xbcf9a5a6	-0.030474495
175	0xbe45de7a	-0.1932315
176	0xbeaf7c81	-0.34274676
177	0x3d534050	0.051575005
178	0x3eabddf8	0.33567786
179	0x3c93b64c	0.018031262
180	0x3d7485cd	0.059697915
181	0x3e99a892	0.3001142
182	0x3e8c3643	0.27385148
183	0xbe8e293d	-0.27765837
184	0xbd726e43	-0.059187185
185	0x3ed3cd5e	0.4136762
186	0x3e11547b	0.14192383
187	0xbe874dd0	-0.26426554
188	0xbdeb1d02	-0.11480142
189	0xbdec059c	-0.115245074
190	0x3df887c4	0.1213527
191	0x3d22ca61	0.039743785
192	0xbdc6ce08	-0.09707266
193	0xbee37849	-0.44427708
194	0xbed47bea	-0.4150079
195	0xbe566962	-0.20938638
196	0xbdd9b74e	-0.10630666
197	0xbe8dfdce	-0.277327
198	0xbe8e737f	-0.27822492
199	0x3eac5548	0.33658814
200	0xbe955ce8	-0.29172444
201	0xbe6e7e34	-0.2329033
202	0xbf010f7b	-0.50414246
203	0xbdf97766	-0.121809766
204	0xbe133ff1	-0.1437986
205	0xbf103a0f	-0.5633859
206	0xbe2b3af6	-0.1672171
207	0x3ee4c372	0.44680363
208	0x3e8e110f	0.2774739
209	0x3e4444b4	0.19166833
210	0xbe97dd9e	-0.29661268
211	0xbd8c9d5a	-0.0686595
212	0xbde7dfd1	-0.113219865
213	0x3def8aeb	0.116964184
214	0x3eac4560	0.3364668
215	0xbd1d184e	-0.038353257
216	0xbe8e19a9	-0.27753952
217	0x3e5d5ecd	0.21618195
218	0xbe80609e	-0.25073713
219	0xbd6abcb4	-0.057308868
220	0xbd27da67	-0.04097977
221	0x3e8484b4	0.25882494
222	0xbba9eedd	-0.0051859454
223	0xbdf829b1	-0.12117327
224	0xbdfb117a	-0.12259193
225	0x3ea45d33	0.32102355
226	0xbe9cdea4	-0.3063861
227	0xbcdc4608	-0.026888862
228	0x3da44bb0	0.08022249
229	0xbe7b03e2	-0.245132
230	0x3db5b7d7	0.08872955
231	0x3df83fbe	0.12121533
232	0xbee405d8	-0.44535708
233	0xbe5369a1	-0.20645763
234	0xbe29ba41	-0.16574956
235	0xbf0d4dd5	-0.5519689
236	0xbe9d8aa3	-0.30769834
237	0xbe318753	-0.17336778
238	0x3e1232d1	0.14277197
239	0x3f1a7f14	0.60350156
240	0xbef27d49	-0.4736121
241	0xbeb51868	-0.35370183
242	0xbdc5ca7e	-0.09657763
243	0xbe599f62	-0.21252206
244	0xbf035513	-0.5130169
245	0xbe570b85	-0.21000488
246	0x3ec415c3	0.38297853
247	0x3ef784fa	0.4834364
248	0xbec34113	-0.38135585
249	0xbe10dca2	-0.14146665
250	0x3e12eab2	0.14347342
251	0x3e5eb581	0.21748926
252	0x3d8f932c	0.07010493
253	0xbdd00591	-0.10157312
254	0x3e6f68a6	0.23379764
255	0xbe1633a6	-0.1466814

bias_ih_l1 f4 [32]
0	0x3eed66b8	0.4636743
1	0x3f1e5616	0.61850107
2	0x3e0f82d4	0.1401475
3	0x3e7a7fbb	0.24462788
4	0xbe68c566	-0.22731552
5	0x3e3d65f6	0.18495926
6	0x3e7b36e3	0.24532656
7	0x3eb75649	0.35808018
8	0x3d9a3a84	0.07530692
9	0x3d0c18bd	0.03420328
10	0xbcaa9611	-0.02082351
11	0x3efebeb1	0.4975486
12	0xbe7f622f	-0.24939798
13	0xbe23ca90	-0.1599524
14	0x3e803a43	0.2504445
15	0x3d5590f0	0.052140176
16	0x3e38e804	0.18057257
17	0x3e9ee9d1	0.31037763
18	0xbea7dec1	-0.32787135
19	0xbeee13bc	-0.4649943
20	0xbe2aff52	-0.1669896
21	0xbd6b7fbc	-0.057494864
22	0x3e495cb3	0.19664268
23	0x3e9fc511	0.31205037
24	0xbc70f1dc	-0.014706101
25	0x3de59a68	0.11211091
26	0x3eb49a0f	0.35273787
27	0x3dbfa678	0.09357923
28	0x3e127f5f	0.143064
29	0x3eabb809	0.33538845
30	0x3eb99510	0.36246538
31	0xbdaf2522	-0.085520044

bias_hh_l1 f4 [32]
0	0x3dcd3ab4	0.10020962
1	0x3e79a711	0.24380137
2	0x3e1ac651	0.15114714
3	0x3e05d694	0.13070136
4	0x3e447f5e	0.19189212
5	0x3eb11e36	0.34593362
6	0xbdf896ef	-0.12138163
7	0xbdf4979c	-0.1194298
8	0xbe47ef64	-0.19524914
9	0x3deafb90	0.11473763
10	0x3d14bc41	0.036312345
11	0x3f174ecd	0.59104615
12	0xbe6d8651	-0.23195769
13	0xbc7355aa	-0.014851967
14	0x3e280632	0.16408613
15	0xbe1dc990	-0.15408921
16	0xbea08cab	-0.3135732
17	0x3ded8a01	0.11598588
18	0xbea6bc6e	-0.32565635
19	0xbead4652	-0.33842713
20	0xbe90c32e	-0.2827391
21	0xbc75fa41	-0.015013278
22	0x3eb3dd46	0.35129756
23	0x3ee0a679	0.4387701
24	0x3cf63603	0.030055052
25	0x3d447307	0.04796126
26	0x3d5ec092	0.054382868
27	0xbdc798bd	-0.097459294
28	0x3e5e28bf	0.21695231
29	0x3ef3902a	0.47570926
30	0x3e629bfa	0.22129813
31	0x3d86b247	0.065769725

weight_ih_l0 f4 [32, 22]
0	0x3c24e038	0.010063224
1	0xbd500850	-0.050789177
2	0x3c4c43a0	0.012467295
3	0xb9d43b42	-0.00040479942
4	0xbe17e3fe	-0.14833066
5	0xbccb0b55	-0.024785677
6	0xbdccbc0f	-0.09996807
7	0x3df44488	0.11927134
8	0xbd564d57	-0.05231985
9	0xbcb8429a	-0.022492696
10	0x3e4d4e09	0.200493
11	0x3d172d93	0.036908697
12	0xbe687211	-0.22699763
13	0x3d0d1cb2	0.034451194
14	0xbbbf0ff8	-0.005830761
15	0xbd4f4bb3	-0.0506093
16	0xbe4e73a0	-0.20161295
17	0x3eee229d	0.46510783
18	0xbc9aaabe	-0.018880244
19	0x3c9de220	0.019272864
20	0xbda63217	-0.08115023
21	0xbdc8bb0a	-0.098013
22	0x3d05c9d7	0.032663193
23	0x3c39f888	0.011350758
24	0xbd42184c	-0.047386453
25	0xbd2b9c6e	-0.04189723
26	0xbd9ecafc	-0.0775356
27	0x3e0d3e12	0.13793209
28	0x3e851817	0.25994942
29	0x3cdfb0a6	0.027305912
30	0x3dbd3825	0.09239224
31	0xbc2d9ec0	-0.010596931
32	0x3e0e623f	0.13904665
33	0xbd6f5b2e	-0.058436565
34	0xbdbb4f87	-0.09146028
35	0x3e02d0aa	0.12774912
36	0x3c266772	0.010156499
37	0xbdb9683b	-0.090530835
38	0xbdc3e8de	-0.095659
39	0x3dfaf012	0.12252821
40	0x3dd9f424	0.10642269
41	0x3dc9bacb	0.09850081
42	0xbde1ff45	-0.11035017
43	0xbd433a3c	-0.04766296
44	0xbedc93cc	-0.4308151
45	0xba053464	-0.0005081354
46	0xbe3b9a81	-0.18320657
47	0xbc887735	-0.016658405
48	0xbebd6de4	-0.36997902
49	0x3e81e4f6	0.25369996
50	0x3e888798	0.2666595
51	0x3d3ef973	0.046624612
52	0xbe176f4a	-0.14788547
53	0x3d028e7d	0.03187417
54	0x3e6a9b45	0.22910793
55	0xbea0acb2	-0.31381756
56	0x3d876f4c	0.06613025
57	0xbe02e792	-0.1278365
58	0xbe0e337a	-0.13886824
59	0xbec76041	-0.38940623
60	0x3e0bc294	0.13648444
61	0xbdcf38ac	-0.10118231
62	0x3e8d6a41	0.27620128
63	0x3d09c321	0.033633355
64	0xbdfcbf6b	-0.123411976
65	0xbe56ef95	-0.20989831
66	0xbd869bde	-0.06572698
67	0xbd72ee14	-0.05930908
68	0xbe5d58f8	-0.2161597
69	0xbe5d10c3	-0.21588425
70	0xbe811372	-0.25210148
71	0xbbba8818	-0.005692493
72	0xbc4c8826	-0.012483632
73	0x3e407ba2	0.18797162
74	0xbe9dbe18	-0.30809093
75	0xbe147251	-0.14496733
76	0xbe223e38	-0.15844047
77	0xbe81d704	-0.25359356
78	0xbe0cd23d	-0.13752075
79	0xbd8ec9e7	-0.069721036
80	0xbd98a845	-0.0745397
81	0xbe5de669	-0.21669926
82	0x39457710	0.00018831738
83	0x3e8f7566	0.28019255
84	0x3da0ee40	0.078579426
85	0xbd9a8473	-0.07544794
86	0xbde08a1f	-0.109638445
87	0xbe856a10	-0.26057482
88	0xbddb4784	-0.10707
89	0xbeb3904f	-0.35071036
90	0xbe4981ef	-0.19678472
91	0xbee0c442	-0.43899733
92	0xbeac4bee	-0.3365168
93	0xbe739f8d	-0.23791333
94	0xbee1e725	-0.44121662
95	0x3e658d86	0.22417268
96	0x3ce368cc	0.027759932
97	0xbd8fe624	-0.07026318
98	0xbdd6bc2f	-0.10485112
99	0xbcdc2683	-0.026873833
100	0xbb917563	-0.0044390424
101	0x3ddb6f54	0.107145935
102	0x3a9e0b11	0.0012057741
103	0xbd6d1337	-0.057879653
104	0xbdd65f77	-0.10467427
105	0xbde7341e	-0.112892374
106	0x3be42d00	0.006963372
107	0xbd639f96	-0.055572115
108	0xbe055d8f	-0.13023971
109	0xbdd923ef	-0.10602557
110	0xbe2a66dc	-0.166408
111	0xbec6e8a2	-0.3884936
112	0xbefa1e4d	-0.48851243
113	0xbef22f00	-0.47301483
114	0xbef7c32a	-0.48391086
115	0xbeb34266	-0.35011595
116	0xbd261ead	-0.0405566
117	0x3ec1beb7	0.37840816
118	0x3c5ae367	0.013359881
119	0x3d830ba8	0.06398708
120	0x3e76ddb5	0.24108012
121	0xbe05dbb9	-0.13072099
122	0xbd7b89fb	-0.061410885
123	0xbe02dc03	-0.1277924
124	0x3e5d2bde	0.21598765
125	0xbdd0e663	-0.10200193
126	0xbcf7be24	-0.030242033
127	0xbeb7a01c	-0.3586434
128	0x3df420b9	0.11920304
129	0x3da9af58	0.08285397
130	0xbe61297b	-0.2198848
131	0xbe556dfd	-0.20842738
132	0xbe1f7570	-0.15572143
133	0xbe89b689	-0.26897076
134	0xbeffae95	-0.49937883
135	0xbe49725e	-0.19672534
136	0xbe3db0a9	-0.18524422
137	0xbe468ea3	-0.19390349
138	0xbe86beda	-0.26317483
139	0x3ef27483	0.47354516
140	0x3e4ec023	0.20190482
141	0x3f0439a7	0.5165047
142	0x3e8e3d9c	0.2778138
143	0x3dcb2421	0.099190004
144	0x3e0238ed	0.12717028
145	0x3e9ad22a	0.30238467
146	0x3e3e0447	0.18556319
147	0x3ebc9a6b	0.36836562
148	0xbda120ad	-0.078675605
149	0xbe620d4b	-0.22075383
150	0xbbccb7f6	-0.006247516
151	0x3ec9fd27	0.39450952
152	0x3e069adf	0.13145016
153	0x3e9b43c5	0.30325142
154	0xbe6cd059	-0.23126353
155	0xbe9f48b1	-0.31110147
156	0xbe7dbf88	-0.24780095
157	0xbdd0c719	-0.10194225
158	0xbe37fcae	-0.17967483
159	0xbedf9921	-0.43671516
160	0xbcd619c9	-0.026135342
161	0x3e2ce9cf	0.16886066
162	0xbd547a8d	-0.051874686
163	0xbdc3b16c	-0.09555325
164	0xbe05857f	-0.13039206
165	0xbe72b955	-0.23703511
166	0x3dc03b87	0.09386354
167	0xbd9d828d	-0.07690916
168	0xbe16e2c9	-0.14734949
169	0xbea9ec03	-0.33187875
170	0x3dc9fbe1	0.09862495
171	0xbeeefc6a	-0.46676952
172	0x3e940e14	0.2891699
173	0xbe600d93	-0.21880178
174	0xbe76dd58	-0.24107873
175	0xbec654e5	-0.38736644
176	0xbae13d1f	-0.0017184353
177	0x3e1e128a	0.1543676
178	0x3c56c1e2	0.013107749
179	0x3d84b258	0.06479329
180	0x3d8082a7	0.0627492
181	0x3e5208fb	0.20511238
182	0x3e22f936	0.15915379
183	0xbdae97e2	-0.08525063
184	0xbcb4c30c	-0.022065662
185	0x3d931bbb	0.071830235
186	0xbacbf290	-0.001555996
187	0xbd3e59ec	-0.046472475
188	0x3dd3cf31	0.10342253
189	0xbd3cfb91	-0.04613835
190	0x3e16382c	0.14669865
191	0xbd583752	-0.052787133
192	0x3e0ec82a	0.13943544
193	0xbd7ae74c	-0.06125574
194	0x3dfbc8d0	0.12294161
195	0x3dddc71f	0.10828995
196	0xbd23edca	-0.040021695
197	0xbd8315f4	-0.064006716
198	0xbc44d53e	-0.0120137315
199	0x3e104876	0.14090142
200	0x3c74bc55	0.01493748
201	0x3d28d5a0	0.041219354
202	0xbccd3bff	-0.025053022
203	0x3d0ec3bd	0.03485464
204	0x3c7ab107	0.015300996
205	0xbb1b5e2e	-0.0023707259
206	0x3e18445a	0.14869824
207	0x3e12a3b4	0.1432026
208	0x3d9372cd	0.07199631
209	0x3de877c0	0.113509655
210	0x3d77a069	0.060455713
211	0x3e31c75c	0.17361206
212	0x3df3c68e	0.11903106
213	0x3daf8474	0.08570185
214	0xbda04d63	-0.0782726
215	0x3d5dc0c7	0.054138925
216	0x3e124895	0.142855
217	0x3e2c4707	0.1682397
218	0x3db7c795	0.08973614
219	0x3dc43f4e	0.09582387
220	0xbe4110f0	-0.18854117
221	0xbe9fc15a	-0.31202203
222	0xbea8785d	-0.3290433
223	0xbeabce62	-0.33555895
224	0xbeba6bcf	-0.36410376
225	0xbebf026a	-0.3730653
226	0xbea0416a	-0.31299907
227	0x3eaadbc2	0.33370787
228	0x3dcdb75f	0.10044741
229	0xbe2dc816	-0.16970858
230	0xbdda2e73	-0.10653391
231	0x3d9600f5	0.07324401
232	0xbef54033	-0.47900543
233	0xbde94252	-0.11389603
234	0x3d41a972	0.047280736
235	0x3e8364b0	0.25662756
236	0xbe8af03c	-0.2713641
237	0xbe506278	-0.20350063
238	0xbd44d871	-0.048057977
239	0x3dd26de5	0.10274867
240	0x3cc0be96	0.023528378
241	0xbe2bd397	-0.16779934
242	0xbdb4130f	-0.08792698
243	0x3dfae481	0.12250615
244	0x3ca99990	0.020703107
245	0x3e723ecc	0.23656768
246	0x3e0e5a26	0.13901576
247	0x3d867e0b	0.065670095
248	0xbe3eb800	-0.18624878
249	0x3d11c09f	0.03558409
250	0x3e39817d	0.18115802
251	0x3e19af7a	0.15008345
252	0x3e78d6ed	0.24300738
253	0x3e027571	0.12740113
254	0x3e0bd404	0.13655096
255	0x3e08cfe4	0.13360554

weight_hh_l0 f4 [32, 8]
0	0x3d6f9140	0.05848813
1	0xbde9733a	-0.11398931
2	0x3e14b14f	0.14520763
3	0x3e9fa7aa	0.31182605
4	0xbe03e061	-0.12878563
5	0x3e920169	0.285167
6	0xbe327b52	-0.17429855
7	0xbe96490f	-0.29352614
8	0x3ceb7d43	0.028746253
9	0x3bff7972	0.00779646
10	0x3e13ec3a	0.14445582
11	0x3e1815d7	0.14852081
12	0x3dd3c152	0.10339607
13	0x3db70b95	0.08937756
14	0x3e34546e	0.17610332
15	0x3d013af5	0.031550366
16	0x3f054bce	0.52068794
17	0xbe29efde	-0.16595408
18	0xbe6314ad	-0.22175856
19	0x3eae3d4a	0.34031135
20	0x3f1bcaa3	0.60856074
21	0x3ea6576d	0.32488576
22	0x3f176861	0.59143645
23	0x3ae05a2f	0.001711672
24	0x3d01bb3a	0.031672694
25	0xbd9b1781	-0.075728424
26	0x3d857091	0.06515611
27	0x3e231341	0.15925314
28	0x3d2d4423	0.04230131
29	0x3e2b5066	0.16729888
30	0x3d73a0c2	0.059479482
31	0xbe08fbec	-0.1337735
32	0x3e33dff0	0.17565894
33	0xbe495df2	-0.19664744
34	0x3e07da57	0.13266884
35	0x3eb971ca	0.36219627
36	0xbd377d82	-0.044797428
37	0x3e8008d8	0.25006747
38	0xbe9295c2	-0.2862988
39	0xbe6972db	-0.2279772
40	0x3eb5dddb	0.35520825
41	0xbe880624	-0.26567185
42	0xbd4ac7fe	-0.049507134
43	0x3e99c312	0.3003164
44	0x3f23b2ff	0.63945
45	0x3b535e9f	0.0032252443
46	0x3d31ba8e	0.043390803
47	0x3df38537	0.11890643
48	0x3f06f5e3	0.52718943
49	0xbe4f65b0	-0.20253634
50	0xbec2b523	-0.3802882
51	0x3ceaa5ae	0.028643455
52	0x3e5dcd21	0.21660282
53	0xbe37560a	-0.17903915
54	0xbe791b28	-0.24326766
55	0xbcb60df7	-0.022223456
56	0x3e9b1ae2	0.30293947
57	0xbe4a2439	-0.1974038
58	0xbe948aaa	-0.29012042
59	0xbd3033f1	-0.043018285
60	0x3ec34284	0.38136685
61	0xbc92b3b7	-0.01790796
62	0xbe5d9810	-0.21640038
63	0x3e768603	0.24074559
64	0xbdadde6b	-0.084896885
65	0x3d34f38a	0.04417757
66	0x3c95109b	0.018196395
67	0xbde28416	-0.1106035
68	0x3d5fe2ab	0.054659527
69	0xbdc4ba59	-0.096058555
70	0x3dcebe65	0.100949086
71	0x3da965b4	0.082713515
72	0xbd2b55a9	-0.04182974
73	0x3d36b22d	0.044603515
74	0x3e07e3fb	0.13270561
75	0x3d0e3e66	0.034727477
76	0xbe358dc2	-0.17729858
77	0x3db13db7	0.08654349
78	0x3c59a65c	0.013284292
79	0xbdd5976e	-0.104292735
80	0xbeaa8f83	-0.33312616
81	0xbce30b9a	-0.027715493
82	0xbe56283e	-0.20913789
83	0x3e3511af	0.17682527
84	0xbe46ee32	-0.19426802
85	0xbd7a1cba	-0.061062552
86	0xbe5b262f	-0.21401285
87	0xbe0dcbd2	-0.13847283
88	0xbc99e889	-0.01878764
89	0x3d93bc79	0.07213683
90	0xbcb3cad2	-0.021947298
91	0xbdad97e0	-0.084762335
92	0x3d142743	0.036170255
93	0xbd71caa5	-0.059031148
94	0x3d6d9d24	0.05801119
95	0x3cc3b9d3	0.023892319
96	0x3e6050c4	0.2190581
97	0xbc9b77da	-0.018978048
98	0x3dab7cad	0.083733894
99	0x3efb6079	0.4909704
100	0x3e0e6bfd	0.13908382
101	0x3ec646d5	0.38725916
102	0xbcdb4826	-0.026767801
103	0xbefcb659	-0.4935787
104	0xbdd478fb	-0.10374638
105	0x3e85da87	0.26143286
106	0x3dde7067	0.10861283
107	0xbea1ad5f	-0.31577584
108	0xbedc84fa	-0.43070203
109	0xbdef3afc	-0.11681172
110	0xbe76a90e	-0.24087927
111	0xbe144cc4	-0.14482409
112	0x3d8d143a	0.068886235
113	0x3f08d28b	0.53446263
114	0x3ea7588a	0.32684737
115	0xbdb2aa76	-0.08723919
116	0xbeb3fe75	-0.35155073
117	0xbd883677	-0.06651013
118	0x3e6a6207	0.22888957
119	0x3e84f9ee	0.2597193
120	0x3d012c39	0.031536315
121	0xbdb4402a	-0.08801301
122	0xbe7f8bf6	-0.24955735
123	0xbcd98a41	-0.026555182
124	0x3e8672ba	0.26259404
125	0xbd4f4566	-0.050603293
126	0x3e32d846	0.17465314
127	0x3e73c8ca	0.23807064
128	0x3d009715	0.031394083
129	0x3d2135e8	0.03935805
130	0x3dad5f34	0.08465424
131	0x3e385881	0.18002512
132	0x3ed66eb3	0.41881332
133	0x3e44c44a	0.19215503
134	0x3ec598e5	0.38593212
135	0xbe0b2349	-0.13587679
136	0xbe4e1ad7	-0.20127426
137	0xbdacbeb5	-0.08434812
138	0xbe0bb0ef	-0.13641714
139	0xbea508b3	-0.322332
140	0xbe535bdc	-0.2064051
141	0xbecf22d9	-0.40456274
142	0xbe78578c	-0.24252146
143	0x3eea8efd	0.45812216
144	0xbe603695	-0.21895821
145	0x3d37e2e5	0.044894118
146	0x3d068755	0.032843906
147	0xbe8083a8	-0.25100446
148	0xbe1f290a	-0.15542999
149	0xbea70b46	-0.32625788
150	0xbdd665dd	-0.10468648
151	0x3f216551	0.6304522
152	0xbc59ca30	-0.013292834
153	0x3cbb33de	0.02285188
154	0xbda1e028	-0.079040825
155	0xbe06e082	-0.1317158
156	0xbd849076	-0.06472866
157	0xbdd26950	-0.10273993
158	0xbd4b08a9	-0.049568806
159	0x3dae5f45	0.08514265
160	0x3e9dbef6	0.30809754
161	0xbe065768	-0.1311928
162	0xbf2e1ca8	-0.68012476
163	0x3d4a0574	0.049321607
164	0x3f1e9ef0	0.6196127
165	0x3f0281e0	0.50979424
166	0xbd66e3da	-0.05636964
167	0xbec1c44a	-0.3784507
168	0xbedcdf92	-0.4313932
169	0x3c2faf17	0.010722897
170	0x3f24d434	0.64386296
171	0xbe05162f	-0.12996744
172	0xbe3c3d00	-0.18382645
173	0xbf7aba5b	-0.97940606
174	0x3d238bf3	0.039928388
175	0x3f667c56	0.9003347
176	0x3dc16fef	0.09445178
177	0x3e304fe4	0.17217976
178	0xbeddde35	-0.43333593
179	0x3ed74ad6	0.42049283
180	0x3d41acfb	0.047284108
181	0x3f00732c	0.5017574
182	0xbdfe406b	-0.124146305
183	0xbf22eaad	-0.63639337
184	0xbf10ebf3	-0.5661003
185	0x3d3758f7	0.044762578
186	0x3f1db95c	0.6161096
187	0xbe915167	-0.28382418
188	0xbe9fafaf	-0.31188723
189	0xbf334503	-0.7002718
190	0xbc5b36ec	-0.013379794
191	0x3f230323	0.6367666
192	0xbe0ba0ab	-0.13635509
193	0xbe40faab	-0.18845622
194	0x3e1cf131	0.15326382
195	0x3e22a335	0.15882571
196	0x3d287f41	0.041136984
197	0x3e045065	0.12921293
198	0xbd429701	-0.04750729
199	0xbe8d621d	-0.27613917
200	0x3c5217cc	0.012823056
201	0x3dc0adf1	0.09408177
202	0x3e9e220d	0.30885354
203	0x3e0cfb91	0.1376784
204	0xbdde97ee	-0.10868822
205	0x3e61bb36	0.22044072
206	0x3e059385	0.13044555
207	0xbe16d441	-0.14729406
208	0x3e8afb02	0.2714463
209	0xbde50957	-0.11183422
210	0xbec9715f	-0.39344308
211	0x3ebe9156	0.37220258
212	0x3f483484	0.7820513
213	0xbd685ed8	-0.056731075
214	0xbe049b8d	-0.12949963
215	0xbb223f46	-0.0024756952
216	0x3e2707b1	0.16311528
217	0xbdfac167	-0.1224392
218	0x3cbb7f96	0.022887986
219	0x3e6db963	0.2321525
220	0x3ddd4933	0.10804977
221	0x3e26643c	0.16249174
222	0x3e246276	0.16053185
223	0xbe0b83cc	-0.13624495
224	0x3f0db252	0.5535022
225	0xbe08b81b	-0.1335148
226	0xb8f62260	-0.00011736597
227	0x3eb10bba	0.3457926
228	0x3ea07d8f	0.31345794
229	0x3ec074e3	0.37589177
230	0xbe022648	-0.12709916
231	0xbede2f44	-0.43395436
232	0x3eb7fed1	0.35936597
233	0xbe8f3aae	-0.27974457
234	0xbd8b4511	-0.06800283
235	0x3e9cbb19	0.30611494
236	0x3f0e0d62	0.5548917
237	0xbd6371ec	-0.055528566
238	0xbcf3c72c	-0.029758058
239	0x3e14720a	0.14496627
240	0x3ed62ca6	0.4183094
241	0xbde8afd9	-0.11361665
242	0xbdee28ad	-0.11628852
243	0x3e6d1a3b	0.23154537
244	0x3e678845	0.22610576
245	0x3e2334c4	0.15938097
246	0x3e46d501	0.19417192
247	0xbd98ca00	-0.074604034
248	0x3cf9e3a0	0.030504048
249	0xbe9305f5	-0.28715482
250	0xbc2b570e	-0.010457767
251	0x3e807d74	0.25095713
252	0x3f479112	0.77955735
253	0xbe3603eb	-0.17774932
254	0x3e8c2416	0.2737128
255	0xbabf3875	-0.0014588969

bias_ih_l0 f4 [32]
0	0x3d86958e	0.06571494
1	0x3e0c2424	0.13685662
2	0x3efa3766	0.4887039
3	0x3e078718	0.13235128
4	0x3edcb65a	0.43107873
5	0x3f2f4aba	0.684734
6	0x3ea8970a	0.32927734
7	0x3df32f1b	0.11874219
8	0x3d5c623e	0.05380463
9	0x3db958e4	0.09050158
10	0x3e480fbb	0.1953725
11	0xbecb2b2c	-0.39681375
12	0x3d77a794	0.06046255
13	0xbf049bcf	-0.51800245
14	0xbd1db30d	-0.038500834
15	0x3e801e81	0.25023273
16	0x3eec3b3e	0.46138948
17	0x3d18b09d	0.037277807
18	0xbde30828	-0.1108554
19	0xbea4ce1f	-0.32188508
20	0x3e8ff4af	0.28116366
21	0xbdd13365	-0.10214881
22	0x3e6670fe	0.2250404
23	0x3a8402b3	0.0010071605
24	0xbb17edc3	-0.0023182489
25	0x3e84c276	0.25929612
26	0x3f0f3412	0.5593883
27	0x3c9cf429	0.019159393
28	0x3ec1a957	0.3782451
29	0x3f3ca675	0.73691493
30	0x3ec604a9	0.3867543
31	0x3e810c8b	0.25204882

bias_hh_l0 f4 [32]
0	0x3ea128be	0.31476396
1	0x3e25aa76	0.16178307
2	0x3ebcf668	0.36906743
3	0x3e114116	0.14184985
4	0x3ee75876	0.45184678
5	0x3f3db86b	0.74109524
6	0x3e9fbdc8	0.3119948
7	0x3e95b8f2	0.29242665
8	0x3db15ee7	0.08660679
9	0x3da291e4	0.07937983
10	0x3e04a1e3	0.1295238
11	0xbea7d4a2	-0.32779413
12	0x3da91652	0.082562104
13	0xbf0167a8	-0.5054879
14	0xbe47b8e3	-0.19504122
15	0x3e959f46	0.29223078
16	0x3e4651da	0.19367161
17	0xbc5187c5	-0.012788718
18	0xbec4f861	-0.38470748
19	0xbef1e704	-0.47246563
20	0xbe4d99b5	-0.20078166
21	0xbe9dc03d	-0.3081073
22	0x3dcea3f0	0.10089862
23	0x3e21e8cd	0.15811463
24	0xbdf389fe	-0.11891554
25	0x3d58621d	0.052827943
26	0x3f40a390	0.75249577
27	0x3c74ffa4	0.014953528
28	0x3f238353	0.6387226
29	0x3f33a363	0.70171183
30	0x3f243df3	0.64157027
31	0x3edf7d50	0.43650293
