trials/model_FD002.pkl (torch, 22020 bytes, 23 tensors)

weight_ih_l0 f4 [32, 14]
0	0x3cc36f4c	0.023856781
1	0x3ddf16c8	0.10893017
2	0x3e0b4c90	0.13603425
3	0xbe8a7488	-0.2704203
4	0xbe2af9af	-0.16696809
5	0xbd282f57	-0.04106077
6	0x3e400972	0.18753603
7	0xbe461d09	-0.19347014
8	0x3e52b18a	0.20575538
9	0x3db64e02	0.089015976
10	0xbd6a6df9	-0.057233784
11	0xbe89854f	-0.2685952
12	0x3d30172b	0.042990845
13	0x3eb775a5	0.35831943
14	0x3efa3a0c	0.4887241
15	0xbea51fbc	-0.32250774
16	0xbe9c1efc	-0.3049239
17	0xbe895a1a	-0.26826555
18	0x3ec11083	0.3770791
19	0xbcbeb07e	-0.023277517
20	0x3e63fd9c	0.22264713
21	0x3eb1f167	0.34754488
22	0x3a6883a8	0.0008869716
23	0xbefac29e	-0.48976606
24	0xbeae2bf8	-0.3401792
25	0xbe2539cb	-0.16135328
26	0x3db43405	0.087989844
27	0xbe09eece	-0.13470003
28	0x3d38b04e	0.045090012
29	0x3e2dab01	0.16959764
30	0x3cd53de4	0.026030488
31	0xbe921bfa	-0.2853697
32	0x3e982d67	0.2972214
33	0x3c91b026	0.01778419
34	0x3ec590f5	0.38587156
35	0x3e4e2b02	0.20133594
36	0x3eb392b8	0.35072875
37	0x3e422e6c	0.18963021
38	0x3d242ee1	0.04008377
39	0x3e1bc563	0.15212016
40	0xbe8514d0	-0.2599244
41	0xbe5a01c2	-0.21289733
42	0x3de79ef6	0.11309616
43	0x3e5aab93	0.21354513
44	0x3df82d48	0.12118012
45	0x3e519c27	0.20469724
46	0xbe0f6c7f	-0.14006232
47	0xbe22d164	-0.15900189
48	0x3b573c6b	0.0032842408
49	0xbdf6c29b	-0.12048837
50	0xbe749483	-0.23884778
51	0x3d2ebc57	0.042660084
52	0x3d046de9	0.03233138
53	0x3e04ff78	0.12988079
54	0xbc6eb217	-0.014568827
55	0xbe255b91	-0.16148211
56	0xbcda25af	-0.026629297
57	0x3e24d033	0.16095047
58	0xbe517a05	-0.20456703
59	0x3d86780d	0.065658666
60	0xbad90705	-0.0016557878
61	0xbeb3a23a	-0.35084707
62	0x3e857335	0.26064458
63	0x3dd9b578	0.106303155
64	0x3e71411f	0.23559998
65	0x3e833fae	0.2563452
66	0xbe09eeff	-0.13470076
67	0xbe38c8b7	-0.18045317
68	0xbe451d44	-0.19249445
69	0xbe25bcc2	-0.16185287
70	0xbea058ad	-0.31317654
71	0xbd40c278	-0.04706046
72	0x3eb35f42	0.35033613
73	0x3dcaaf0e	0.0989667
74	0x3e6bcd6f	0.23027585
75	0x3e4205df	0.18947552
76	0x3bbaa455	0.0056958594
77	0x3eb2f5c6	0.34953135
78	0x3dc8a09f	0.09796261
79	0xbe8bcbf9	-0.27304056
80	0x3dd752af	0.105138175
81	0xbec0627b	-0.37575135
82	0xbe8ae3a4	-0.271268
83	0x3e00d4c3	0.12581162
84	0x3e400c60	0.1875472
85	0xbebc5bb6	-0.3678872
86	0xbee2f730	-0.44329214
87	0x3ec97f45	0.3935491
88	0x3e91aed3	0.28453693
89	0x3edf501f	0.43615815
90	0xbeb07646	-0.34465235
91	0xbd593d2a	-0.053036846
92	0xbe87797e	-0.2645988
93	0xbdef9268	-0.11697847
94	0xbf163029	-0.58667237
95	0xbe89bb60	-0.26900768
96	0xbe20de1b	-0.15709727
97	0xbe22f452	-0.15913513
98	0x3ea20390	0.31643343
99	0xbe5cc096	-0.2155784
100	0xbe772caf	-0.24138139
101	0x3ee3c64a	0.4448722
102	0xbe62e01c	-0.22155803
103	0xbebc3946	-0.36762446
104	0xbe1b4f89	-0.15167059
105	0x3ecbfec3	0.39842805
106	0x3e0bcb9a	0.13651887
107	0xbee3fee6	-0.4453041
108	0xbf0d4158	-0.5517783
109	0x3c8abd43	0.01693595
110	0x3e3ec9f0	0.1863172
111	0xbe1fae83	-0.15593915
112	0x3db32c61	0.08748699
113	0x3d4cc20b	0.04998974
114	0xbc6950d3	-0.014240461
115	0xbdda9632	-0.10673179
116	0x3e9f264d	0.3108391
117	0xbe92a4c6	-0.28641337
118	0x3e111f9d	0.14172216
119	0xba7469ae	-0.0009323609
120	0x3e2edaa4	0.17075592
121	0xbd138060	-0.0360111
122	0x3e5839e1	0.21115829
123	0xbde20803	-0.11036684
124	0xbcb808fc	-0.022465222
125	0x3c013f31	0.007888601
126	0x3f0ca59f	0.5494022
127	0xbe344199	-0.17603149
128	0xbefb49cc	-0.4907974
129	0xbe8fdcc3	-0.28098115
130	0x3ea2798a	0.31733352
131	0x3d9d7ee3	0.07690217
132	0xbeca032f	-0.39455554
133	0x3e747163	0.23871379
134	0xbe47ed2d	-0.19524069
135	0xbc28db6c	-0.0103062205
136	0xbf075e1e	-0.52877986
137	0xbe97e0c1	-0.2966366
138	0x3e8c9434	0.2745682
139	0xbd8cf51d	-0.06882689
140	0xbcec65a9	-0.02885707
141	0x3dd8cc0b	0.10585793
142	0xbe9f1cd6	-0.31076688
143	0xbe65dcfb	-0.22447579
144	0xbe621f68	-0.22082293
145	0xbe0882f9	-0.13331212
146	0x3e39f8b2	0.18161276
147	0x3e8e7135	0.27820745
148	0x3dbe6ba7	0.09297877
149	0xbe1f24b6	-0.15541348
150	0x3d2a5163	0.041581523
151	0xbdc963ff	-0.09833526
152	0xbd6f35d4	-0.058400944
153	0xbe2f04f0	-0.17091727
154	0x3c164d90	0.009173766
155	0xbdeedde6	-0.116634175
156	0x3e1cc963	0.15311198
157	0xbe272152	-0.16321304
158	0x3e5a65d5	0.21327908
159	0x3e9df673	0.30852088
160	0xbe9af2bb	-0.30263314
161	0xbe1274ba	-0.1430234
162	0xbd3f9dbd	-0.04678129
163	0x3f063a31	0.52432543
164	0x3e3941b1	0.18091466
165	0x3e65918a	0.224188
166	0xbe51f512	-0.20503643
167	0xbc6b9f42	-0.014381232
168	0xbe85f0c4	-0.26160252
169	0x3cef8d2d	0.029242123
170	0xbe16c0c6	-0.14721975
171	0x3e847470	0.25870085
172	0x3e2ac62b	0.16677158
173	0x3d5e67d1	0.054298226
174	0x3d87f85c	0.06639168
175	0x3d6c574a	0.057700433
176	0xbe6f593a	-0.23373881
177	0x3e09b80e	0.13449118
178	0xbe3b0ae5	-0.18265875
179	0x3dffe589	0.12494952
180	0xbe1306e5	-0.14358099
181	0xb7d23d96	-2.5062629e-05
182	0xbd0e2d72	-0.03471131
183	0xbe509527	-0.20369397
184	0xbda1d6c6	-0.07902293
185	0xbda68d2c	-0.08132395
186	0xbcc3e78a	-0.023914117
187	0x3eb955ff	0.36198422
188	0x3e23f925	0.1601301
189	0x3ea05879	0.313175
190	0xbd071715	-0.032980997
191	0xbe482670	-0.19545913
192	0xbe2bac66	-0.16764984
193	0xbe85f473	-0.26163062
194	0xbea601a2	-0.3242312
195	0x3db5d3b2	0.08878268
196	0x3e2857c9	0.16439737
197	0xbe17ab3b	-0.14811413
198	0xbe08dd9a	-0.13365784
199	0xbd255a9b	-0.04036961
200	0x3ec77724	0.38958085
201	0x3eeca46c	0.46219194
202	0xbe9181ea	-0.2841943
203	0x3e8657b0	0.26238775
204	0x3ce28619	0.027651833
205	0x3e5f2e59	0.21795024
206	0xbe647393	-0.22309713
207	0xbe644862	-0.22293237
208	0xbdf58999	-0.11989135
209	0xbe82a963	-0.25519857
210	0x3e324b27	0.17411481
211	0x3d4e7253	0.050401997
212	0xbea6e84d	-0.32599106
213	0xbd3ddbf4	-0.04635234
214	0xbd053b10	-0.03252703
215	0xbedfbf12	-0.43700463
216	0xbd49429a	-0.04913578
217	0x3e10c042	0.1413584
218	0xbd006450	-0.031345665
219	0xbea13410	-0.31485033
220	0xbea793f8	-0.3273008
221	0x3e3e7d54	0.18602496
222	0xbe818604	-0.25297558
223	0x3d715b2f	0.05892485
224	0x3eb553dc	0.35415542
225	0xbd819194	-0.06326595
226	0x3e5d9caf	0.21641801
227	0x3e85b510	0.26114702
228	0xbdeaeff9	-0.114715524
229	0x3dd8667a	0.10566421
230	0xbe0473d3	-0.12934808
231	0xbd4891d5	-0.0489672
232	0xbe1210d5	-0.14264233
233	0xbe2a8853	-0.16653566
234	0xbea84693	-0.32866344
235	0x3ca9b2d6	0.020715158
236	0xbeabda18	-0.3356483
237	0xbecfc60a	-0.4058078
238	0xbece9653	-0.40349063
239	0x3d801cc0	0.062554836
240	0x3e7dbb04	0.24778372
241	0xbe688bae	-0.22709534
242	0xbd2b1d39	-0.041775916
243	0xbe0b67bc	-0.1361379
244	0x3eef4f96	0.46740407
245	0xbdc6256a	-0.09675105
246	0x3d4a19b9	0.049340937
247	0xbe7ec64b	-0.2488033
248	0x3de499c1	0.11162139
249	0x3ebac005	0.36474624
250	0x3e25b15e	0.16180941
251	0xbe1e718a	-0.15472999
252	0xbe15e01a	-0.14636269
253	0x3e85f2e5	0.26161876
254	0xbdece5be	-0.11567257
255	0xbc8b7a76	-0.017026167

weight_hh_l0 f4 [32, 8]
0	0x3e8072e3	0.25087652
1	0xbf170795	-0.58995944
2	0x3e8499ba	0.25898534
3	0xbe82085b	-0.25397
4	0x3cfd4bf1	0.03092
5	0x3d80a17d	0.062808014
6	0x3ef610e5	0.48059765
7	0x3e9177c8	0.28411698
8	0xbd9045a4	-0.07044533
9	0xbbd32c12	-0.0064444626
10	0xbe8acfbe	-0.2711162
11	0xbebdf714	-0.37102568
12	0x3dd5fead	0.10448966
13	0x3d5e4216	0.054262243
14	0xbd52e7c0	-0.051490545
15	0x3de19eee	0.110166416
16	0xbc6aba5f	-0.014326661
17	0x3c9023e0	0.017595232
18	0xbc8e9b92	-0.017408166
19	0x3ea07bce	0.31344455
20	0xbd388843	-0.045051824
21	0x3dcfa6a3	0.10139205
22	0x3e7772ec	0.24164933
23	0x3dd92723	0.10603168
24	0xbe4c143c	-0.19929594
25	0xbeacffdb	-0.33788952
26	0xbe2b79c8	-0.16745675
27	0xbe675060	-0.22589254
28	0x3dd96072	0.106140986
29	0x3ec2ad54	0.38022864
30	0x3e6c1244	0.23053843
31	0x3e5f19b1	0.21787144
32	0xbebf6ac1	-0.37386134
33	0xbd357180	-0.044297695
34	0x3e37f406	0.17964181
35	0x3e8b10b7	0.2716119
36	0xbcd88978	-0.026432738
37	0xbe154859	-0.1457838
38	0x3e76b199	0.24091186
39	0x3e4513b4	0.19245797
40	0xbf1858fe	-0.5951079
41	0xbf17ecf0	-0.5934591
42	0xbe0b7a53	-0.13620882
43	0xbed59345	-0.4171392
44	0x3d22d5e6	0.03975477
45	0xbdcf7ad9	-0.10130853
46	0x3f2c4fb6	0.6730913
47	0x3e8c6c99	0.27426603
48	0x3dcafbea	0.0991133
49	0xbe62c62b	-0.22145908
50	0xbcef89a0	-0.02924043
51	0xbdcc47aa	-0.09974606
52	0x3d621f87	0.055205848
53	0x3ebe71ae	0.37196106
54	0xbe06f356	-0.13178763
55	0xbe09269d	-0.13393636
56	0xbd2fb7da	-0.042899944
57	0xbd8deed6	-0.0693032
58	0xbe245bb5	-0.16050608
59	0xbe732ccf	-0.23747562
60	0xbdc856cc	-0.0978218
61	0xbd191662	-0.03737486
62	0xbdb5b0c8	-0.08871609
63	0xbe50796f	-0.20358823
64	0xbeaa1ae6	-0.33223647
65	0x3dd0a3e3	0.10187509
66	0xbe960427	-0.29300043
67	0xbedb0b49	-0.42782047
68	0xbdc2dc71	-0.09514702
69	0x3e962314	0.29323637
70	0x3e36591d	0.17807432
71	0x3e4dcb79	0.2009715
72	0x3e5f03f3	0.2177885
73	0x3dad8aeb	0.08473762
74	0xbe62c224	-0.22144371
75	0xbe843f5d	-0.25829592
76	0x3d919a20	0.07109475
77	0xbe70bd5e	-0.23509738
78	0xbe253a71	-0.16135575
79	0x3daa7023	0.0832217
80	0xbe8672d3	-0.2625948
81	0xbea98645	-0.33110252
82	0x3e947b06	0.2900011
83	0xbef33176	-0.47498673
84	0xbde31d91	-0.11089624
85	0x3e04c64b	0.12966268
86	0x3e9807f2	0.29693562
87	0x3e00e35c	0.1258673
88	0x3e8f2e79	0.27965143
89	0xbe8f294e	-0.279612
90	0xbb52762f	-0.00321139
91	0xbeac5945	-0.33661857
92	0xbe0fd22a	-0.14045015
93	0x3e593495	0.21211465
94	0x3e1d5645	0.1536494
95	0x3b45708b	0.0030126895
96	0xbe46f010	-0.19427514
97	0x3c9760ca	0.01847877
98	0x3e77a0f9	0.241825
99	0x3e10ea0a	0.14151779
100	0xbe1538b0	-0.14572406
101	0xbdfd53de	-0.12369512
102	0x3de63036	0.11239664
103	0x3da0000c	0.07812509
104	0x3dc69eb7	0.09698241
105	0xbe011e09	-0.12609114
106	0xbe086103	-0.13318257
107	0xbd4224ae	-0.04739826
108	0x3e48d279	0.19611539
109	0xbb915eb7	-0.0044363397
110	0x3dc31fcd	0.0952755
111	0x3ca92f52	0.020652447
112	0x3ef8feb9	0.48631838
113	0x3dd0ff75	0.102049746
114	0xbd8fa9e1	-0.07014824
115	0xbe59cba9	-0.21269096
116	0x3e02decd	0.12780304
117	0x3ce977f3	0.028499579
118	0x3e6c60d4	0.23083812
119	0xbd858749	-0.06519944
120	0xbbf606e9	-0.007508148
121	0xbcdd2f88	-0.027000204
122	0x3e110de5	0.14165457
123	0xbf0c51ee	-0.54812515
124	0xbdb573fa	-0.088600114
125	0xbcb161dc	-0.021653108
126	0x3e07f5cf	0.13277362
127	0xbea1ec5c	-0.3162564
128	0x3ce3abf6	0.027791958
129	0x3ebffd0b	0.37497744
130	0xbe7db74b	-0.24776952
131	0x3d9acde9	0.075588055
132	0x3d00a7f0	0.031410158
133	0xbe6885bc	-0.22707266
134	0xbefb7d33	-0.49118957
135	0xbdb4ecdf	-0.08834242
136	0x3e5cbe32	0.21556929
137	0x3e611f0a	0.21984497
138	0x3eb37bb1	0.35055307
139	0xbe194f6a	-0.149717
140	0xbeb8d58f	-0.36100432
141	0x3d8e5b90	0.06951058
142	0x39911512	0.00027672254
143	0xbdd90a31	-0.10597647
144	0xbe06fd1b	-0.1318249
145	0xbec21ae7	-0.3791115
146	0x3d9da45e	0.07697366
147	0x3d4ad12b	0.049515884
148	0xbe06f6c9	-0.13180079
149	0x3f10b3b1	0.5652419
150	0xbe3b8f56	-0.18316397
151	0x3efb0744	0.4902898
152	0xbecdb65a	-0.40178186
153	0x3e12161e	0.1426625
154	0x3e2c7df3	0.16844921
155	0x3ead9a8c	0.33906972
156	0xbe9ee8b3	-0.3103691
157	0xbe85b4e6	-0.26114577
158	0x3d322a31	0.043497268
159	0xbe125f6e	-0.14294216
160	0xbe262536	-0.16225132
161	0x3ecf89be	0.40534776
162	0x3d962ee7	0.07333165
163	0x3dd4b2ad	0.10385642
164	0xbebda39c	-0.37038887
165	0xbe465413	-0.1936801
166	0xbca93ecb	-0.020659825
167	0xbe03713f	-0.12836169
168	0x3ec1499a	0.37751466
169	0xbe84b2f1	-0.2591777
170	0x3e5d7312	0.21625927
171	0x3e80d784	0.25164425
172	0x3c268cfd	0.01016545
173	0x3db74e6e	0.08950506
174	0xbc6126bb	-0.013742144
175	0x3c80c279	0.015717732
176	0x3e851bcd	0.25997773
177	0xbe239f3e	-0.15978715
178	0xbda74e60	-0.08169246
179	0xbea2ea1b	-0.31819233
180	0x3c8c8c39	0.017156707
181	0x3ed067c1	0.40704158
182	0x3da5a4a2	0.08088042
183	0x3ee64232	0.44972378
184	0xbd289e08	-0.041166335
185	0xbe0f47d4	-0.13992244
186	0x3d3e792f	0.04650229
187	0xbe1167b9	-0.14199723
188	0x3e0914cd	0.13386841
189	0x3da06737	0.07832187
190	0x3e1c7253	0.15277986
191	0x3c5166d2	0.012780862
192	0x3e32bd84	0.17455107
193	0xbe9ab7e0	-0.3021841
194	0xbe16f832	-0.14743116
195	0xbda01be3	-0.07817819
196	0xbe9f6d19	-0.31137922
197	0x3ed1723c	0.40907466
198	0x3dc61474	0.0967187
199	0x3e8466bf	0.2585964
200	0xbd067756	-0.03282865
201	0x3d704e94	0.058668688
202	0xbee1ce9e	-0.4410295
203	0xbed94287	-0.4243357
204	0x3ead34e3	0.33829412
205	0x3d04b94c	0.032403275
206	0x3ed97b7b	0.4247702
207	0x3c4cbd19	0.012496256
208	0x3db3f0a6	0.087861344
209	0xbe19f755	-0.15035756
210	0xbdef1ad2	-0.116750374
211	0xbecb586c	-0.39715898
212	0xbeb74c6e	-0.358005
213	0xbdcfa087	-0.1013804
214	0x3ea44022	0.3208018
215	0x3cbcf496	0.023065846
216	0xbe99a29f	-0.30006883
217	0xbee3e539	-0.4451082
218	0x3e55e694	0.2088874
219	0x3eab1ec6	0.33421916
220	0x3e0f64ab	0.14003246
221	0x3f081e4f	0.5317125
222	0x3f6098bd	0.8773306
223	0x3f1c3b67	0.6102814
224	0xbedf8a95	-0.43660417
225	0xbe96dd8c	-0.29465902
226	0xbd69c3f6	-0.05707165
227	0x3dea16e3	0.114301465
228	0xbdcf28bf	-0.101151936
229	0xbd8a3848	-0.06749016
230	0x3d66c2dc	0.056338176
231	0x3edbf01e	0.42956632
232	0xbf1c2916	-0.6100019
233	0xbf0f7466	-0.56036985
234	0xbec21305	-0.37905136
235	0x3bb5ce5d	0.005548282
236	0x3e8bad89	0.27280834
237	0x3ed5ab6b	0.41732344
238	0x3f0bd113	0.54615897
239	0x3e98502a	0.2974866
240	0x3ec0ec13	0.3768011
241	0xbbec7167	-0.007215667
242	0xbedd08e7	-0.43170854
243	0xbeecfa6c	-0.46284807
244	0x3f099b76	0.5375284
245	0x3edda4e0	0.43289852
246	0x3e14f14a	0.1454517
247	0x3e9eb7fe	0.3099975
248	0xbd8cdebe	-0.06878422
249	0xbe48bf4e	-0.19604227
250	0xbd9dd8b3	-0.07707348
251	0xbf26f12a	-0.6521174
252	0xbdcb09d3	-0.09913983
253	0x3cce73d3	0.025201714
254	0x3de66a6d	0.11250768
255	0xbd924c0b	-0.0714341

bias_ih_l0 f4 [32]
0	0x3d315175	0.043290574
1	0xbd4ca20a	-0.04995922
2	0xbe446cec	-0.19182175
3	0x3ec8b8dd	0.3920354
4	0x3ede3e78	0.43407035
5	0x3f3eea5b	0.7457635
6	0xbae5f6fc	-0.001754492
7	0x3e33e955	0.17569478
8	0x3dfaaf7e	0.12240504
9	0x3ee10fc4	0.4395734
10	0x3e782d09	0.2423593
11	0x3e52e10e	0.20593664
12	0x3e03f5ef	0.12886785
13	0xbd82eaeb	-0.06392463
14	0xbdc8c2e7	-0.098028
15	0xbd1bc4fb	-0.038029652
16	0x3cb5eb26	0.022206854
17	0xbedc7efc	-0.4306563
18	0xbe84d3f1	-0.25942948
19	0xbe096b44	-0.13419825
20	0xbdcf39ca	-0.10118444
21	0x3c5d0e44	0.013492171
22	0x3ebdd1d4	0.3707415
23	0xbe12e6ca	-0.14345852
24	0xbd25e6a4	-0.04050316
25	0x3f047c59	0.5175224
26	0x3e402a80	0.18766212
27	0x3f07cf1a	0.53050387
28	0x3cdeb569	0.027186112
29	0x3ed8df03	0.42357644
30	0x3e20d42e	0.1570594
31	0x3e82cf6e	0.2554888

bias_hh_l0 f4 [32]
0	0x3e38f9e4	0.18064076
1	0x3e4104d7	0.18849503
2	0x3e0be7d9	0.13662662
3	0x3eda6e13	0.42662105
4	0xbbcda5e3	-0.0062758788
5	0x3e7383a7	0.2378069
6	0x3e62700a	0.22113052
7	0x3d8464fc	0.06464574
8	0x3e0178c3	0.12643723
9	0xbd26b873	-0.04070325
10	0x3f371513	0.7151653
11	0xbd7a3f4c	-0.06109552
12	0xbebf03ac	-0.3730749
13	0x3df4443e	0.11927079
14	0x3d090f16	0.033461653
15	0x3dd90e18	0.10598391
16	0xbe0c8194	-0.13721305
17	0x3e08e4ad	0.13368483
18	0x3d6265a0	0.0552727
19	0x3db274bf	0.08713674
20	0x3e879c9e	0.26486677
21	0x3dd6146b	0.10453113
22	0x3f03dbce	0.5150727
23	0x3e1ed029	0.15509094
24	0x3ecd9262	0.40150744
25	0x3ef0f472	0.47061497
26	0xbcd6cc97	-0.026220603
27	0x3efc2905	0.49250045
28	0x3e9cbf01	0.30614474
29	0x3f4c6776	0.7984537
30	0x3dc7830d	0.09741793
31	0x3e42f8aa	0.1904017

weight_ih_l1 f4 [32, 8]
0	0xbd707e6c	-0.058714315
1	0xbf0cff25	-0.5507682
2	0x3d974801	0.073867805
3	0xbd427dfc	-0.04748343
4	0xbc068bcf	-0.008212044
5	0x3e7f62a6	0.24939975
6	0x3e3526ea	0.17690626
7	0xbd8a898d	-0.06764517
8	0x3e86f040	0.2635517
9	0xbeb04215	-0.34425417
10	0xbebcee31	-0.36900476
11	0xbdb035de	-0.08604024
12	0x3e0a3a3d	0.13498779
13	0x3d2118a0	0.039330125
14	0x3e861276	0.2618596
15	0x3d848ae1	0.064718015
16	0x3e6e6a35	0.23282702
17	0xbe971767	-0.29510042
18	0xbef74c54	-0.4830042
19	0xbee46950	-0.44611597
20	0x3c92c021	0.01791388
21	0x3e701651	0.23446013
22	0x3db13217	0.08652132
23	0xbd837deb	-0.06420501
24	0xbe851673	-0.2599369
25	0xbeb51b16	-0.35372227
26	0xbea4b8d3	-0.3217226
27	0xbf136c48	-0.575871
28	0x3dba30bf	0.09091329
29	0x3ec4447c	0.383335
30	0x3eedc40a	0.46438628
31	0x3e9cbd58	0.30613208
32	0xbe4f6f65	-0.20257337
33	0xbee278e5	-0.4423286
34	0x3d3cfb1b	0.04613791
35	0xbbd88040	-0.0066070855
36	0x3e20fbe5	0.1572109
37	0x3df0b609	0.117534705
38	0x3e0c7039	0.13714685
39	0x3d4c072e	0.049811535
40	0x3ed8b6c9	0.42326954
41	0x3d57246d	0.052524973
42	0xbd6365c8	-0.055516988
43	0xbe310261	-0.17286064
44	0x3e8eb940	0.2787571
45	0x3ec42617	0.3831031
46	0x3e1db0e0	0.15399504
47	0xbc980667	-0.01855774
48	0x3e3b8c10	0.18315148
49	0xbe93b4a9	-0.2884877
50	0xbe31c3b7	-0.17359816
51	0xbec4fc30	-0.38473654
52	0x3e85f73a	0.2616518
53	0xbe0fab62	-0.14030221
54	0x3e218c96	0.15776286
55	0x3e3d38b3	0.1847866
56	0xbd9c7267	-0.07639008
57	0xbe8c9e54	-0.27464545
58	0xbe80d4fa	-0.25162488
59	0xbcac4aec	-0.02103182
60	0x3e7fdf96	0.24987635
61	0xbdc609e1	-0.09669853
62	0x3da1226f	0.07867896
63	0xbd4d416b	-0.050111216
64	0xbe956971	-0.29182008
65	0xbed126ce	-0.40849918
66	0x3e40bc66	0.18821868
67	0xbdc42923	-0.09578159
68	0xbe4b2f07	-0.19842158
69	0x3f1eaea3	0.61985224
70	0x3e080ddb	0.13286535
71	0x3da0494f	0.078264825
72	0x3ea6eb34	0.3260132
73	0xbeb3d849	-0.3512595
74	0xbedfd880	-0.43719864
75	0xbd6d32f4	-0.05790992
76	0x3e97564c	0.29558027
77	0x3d91ae96	0.07113378
78	0x3e42ea7c	0.19034761
79	0xbeb8c119	-0.36084822
80	0xbedfc0b8	-0.4370172
81	0xbca324ca	-0.019915003
82	0xbf05b4a1	-0.5222874
83	0xbe7c0c1f	-0.24613999
84	0xbe342fa6	-0.17596301
85	0x3e6e7f12	0.23290661
86	0x3ec3e3ee	0.38259834
87	0xbdcbe0ac	-0.09954962
88	0xbe3b042d	-0.18263312
89	0xbed4978c	-0.4152187
90	0xbe168b28	-0.14701521
91	0xbe769b30	-0.24082637
92	0xbe554dc1	-0.20830442
93	0x3ecadd67	0.39622042
94	0xbcf57dde	-0.029967245
95	0x3ee2ffb3	0.44335708
96	0xbe031b71	-0.12803437
97	0xbeafd48b	-0.34341845
98	0xbd84b221	-0.06479288
99	0xbd28311f	-0.04106247
100	0x3e113ed8	0.14184129
101	0x3da50cf2	0.0805911
102	0x3d456876	0.048195325
103	0x3e8fa82f	0.28058
104	0x3d7baa29	0.061441574
105	0xbe0d5741	-0.13802816
106	0x3de15448	0.110024035
107	0xbde7c35a	-0.11316557
108	0x3e9452ce	0.28969425
109	0xbe841ff2	-0.25805622
110	0x3e768687	0.24074756
111	0xbe651438	-0.22370994
112	0x3e822d08	0.2542498
113	0xbd5f1c3f	-0.054470297
114	0x3e219259	0.15778483
115	0xbee1020e	-0.4394688
116	0x3e686f68	0.22698748
117	0x3e018837	0.12649618
118	0xbe173370	-0.14765716
119	0x3e6f1b7d	0.2335033
120	0x3ec99c22	0.39376932
121	0xbd5f9c89	-0.054592643
122	0xbe388b7f	-0.18021964
123	0xbe20cea7	-0.15703832
124	0x3e53fbdf	0.2070155
125	0x3ddd2a47	0.107990794
126	0x3d2058fb	0.03914736
127	0x3de65938	0.11247486
128	0xbd9d9513	-0.07694449
129	0x3ce10e94	0.027472772
130	0xbdee5845	-0.1163793
131	0x3bc7573b	0.0060833967
132	0xbdb255b2	-0.08707751
133	0xbe8a3243	-0.26991472
134	0xbf12f0e2	-0.5739881
135	0x3e65d909	0.22446074
136	0x3ea388e3	0.31940374
137	0x3dcba708	0.09943968
138	0x3b1f9dc6	0.0024355515
139	0x3daf042f	0.0854572
140	0xbe1d525d	-0.1536345
141	0xbe3664d8	-0.17811906
142	0xbedf81c7	-0.436537
143	0x3e290aa4	0.16507965
144	0xbe52ec45	-0.20597942
145	0xbe1307d5	-0.14358456
146	0xbd818ad7	-0.0632531
147	0xbf644f35	-0.8918336
148	0xbf1fa20a	-0.62356627
149	0x3ec01569	0.37516335
150	0x3ea45669	0.32097176
151	0x3db31261	0.0874374
152	0x3eab4f70	0.33459044
153	0xbee8d4a4	-0.45474732
154	0xbd83d97c	-0.06437966
155	0xbea29803	-0.317566
156	0x3dd9379d	0.106063105
157	0x3f28b64a	0.6590315
158	0x3c8aa984	0.016926534
159	0x3e78c671	0.2429445
160	0x3e402518	0.1876415
161	0x3e901967	0.2814438
162	0xbd6294b1	-0.055317584
163	0x3f04f4c2	0.5193597
164	0xbce96bb4	-0.02849374
165	0xbf57ce4c	-0.8429916
166	0xbef7dd05	-0.48410812
167	0xbe851b6f	-0.25997493
168	0xbebafe4e	-0.36522144
169	0x3d58516f	0.052812036
170	0x3e5ff4e6	0.21870765
171	0xbef4e32d	-0.4782957
172	0x3cc6957f	0.024241207
173	0x3eef3b64	0.46725
174	0x3cf6c418	0.030122802
175	0x3efb520a	0.49086028
176	0x3c09b9d5	0.008406122
177	0xbec565b5	-0.3855416
178	0x3cceda3c	0.025250547
179	0xbf1049b8	-0.56362486
180	0xbe44dcd8	-0.1922487
181	0x3f03b6df	0.51450914
182	0x3df21f9b	0.118224345
183	0xbd5bd4fc	-0.053669915
184	0x3e7be23c	0.2459802
185	0x3ec2458b	0.37943682
186	0x3ef4c6d1	0.47807935
187	0x3f08f335	0.53496104
188	0xbdaa905c	-0.083283156
189	0xbe8c00ed	-0.27344456
190	0xbe08eda6	-0.13371906
191	0xbed152ee	-0.40883583
192	0xbe91f2d2	-0.2850557
193	0xbeacb1e5	-0.33729473
194	0x3dd847f8	0.10560602
195	0xbf27d727	-0.6556267
196	0x3e0721e3	0.1319652
197	0x3f2b623a	0.66946757
198	0x3aaa4586	0.001299069
199	0x3e1e7328	0.15473616
200	0x3ed1dd52	0.40989166
201	0x3e8192fe	0.2530746
202	0xbf042404	-0.51617455
203	0xbe9eb3f8	-0.3099668
204	0x3e003032	0.12518385
205	0x3d17cdd1	0.037061516
206	0xbcb47665	-0.022029111
207	0x3d3466ba	0.04404328
208	0xbe843f0e	-0.25829357
209	0xbeb58291	-0.35451177
210	0x3d6d070f	0.05786806
211	0xbe8cbf1e	-0.2748956
212	0x3e7b33f0	0.24531531
213	0x3da892fd	0.08231161
214	0x3ec220d3	0.37915668
215	0x3ec9efbb	0.39440712
216	0xbebe4b0c	-0.3716663
217	0xbf1cda0c	-0.61270213
218	0xbdba9291	-0.091099866
219	0xbe9b36f8	-0.30315375
220	0x3d9d2b5a	0.07674284
221	0x3e9ec095	0.31006303
222	0x3d088481	0.03332949
223	0x3efce5e3	0.4939414
224	0x3e80cc13	0.25155696
225	0xbddd5b0d	-0.10808382
226	0xbe87c9dd	-0.26521197
227	0xbef1d6de	-0.47234243
228	0x3e9681e6	0.2939598
229	0xbbdd3800	-0.0067510605
230	0x3e02541c	0.12727398
231	0x3c9ccee8	0.01914163
232	0xbc3cde33	-0.011527586
233	0xbe964669	-0.29350594
234	0xbe5e6569	-0.21718372
235	0xbf16faf0	-0.5897665
236	0x3e0dea29	0.13858856
237	0x3e6c1f0f	0.23058723
238	0x3c211e67	0.009833909
239	0xbd735cb8	-0.059414595
240	0x3e87c3bf	0.2651653
241	0xbef3d8f5	-0.47626463
242	0xbdbb277f	-0.09138393
243	0xbe2cdcb5	-0.16881068
244	0x3d8fbe7a	0.070187524
245	0x3e729ac4	0.23691851
246	0x3eae45cd	0.3403763
247	0x3e2fcb1d	0.17167325
248	0x3dd53f6c	0.104124874
249	0xbeac861a	-0.3369606
250	0xbdf252f7	-0.118322305
251	0xbc93db61	-0.018048944
252	0x3d72f75e	0.05931794
253	0x3eb3d03e	0.35119814
254	0x3ec8b43a	0.39200002
255	0x3df1f697	0.118146114

weight_hh_l1 f4 [32, 8]
0	0xbe943303	-0.2894517
1	0xbbd2cf11	-0.0064333756
2	0x3d3da3f6	0.046298943
3	0xbd788e23	-0.060682427
4	0x3dea19bf	0.11430692
5	0x3e22494c	0.15848273
6	0x3c4039d2	0.011732535
7	0x3e50dfa2	0.20397809
8	0xbdb9f0d1	-0.09079135
9	0xbd84c5d2	-0.06483044
10	0xbd1ccce9	-0.038281355
11	0xbd0b96fb	-0.034079533
12	0xbe243c12	-0.1603854
13	0xbe816224	-0.25270188
14	0x3de50b65	0.11183814
15	0x3dfccb2f	0.12343442
16	0xbe74b4c1	-0.23897077
17	0x3dcb213c	0.09918448
18	0x3e8fb792	0.2806974
19	0x3ee347c8	0.44390702
20	0xbe3abced	-0.18236132
21	0xbe11b45b	-0.14228956
22	0xbd9cd1da	-0.076572135
23	0xbec9542a	-0.39322025
24	0xbd324102	-0.043519028
25	0xbe98b80e	-0.29827923
26	0xbe0fb1a0	-0.14032602
27	0x3ef27f6a	0.47362834
28	0xbdb9bf90	-0.09069741
29	0x3eb98fec	0.36242616
30	0x3c529e1d	0.01285508
31	0xbb86c2c9	-0.0041125757
32	0xbe5ec857	-0.21756111
33	0xbe8b3cde	-0.27194875
34	0x3e05f38b	0.13081186
35	0x3d872d56	0.06600444
36	0xbe100a25	-0.1406637
37	0xbe988274	-0.29787028
38	0x3e8b3f39	0.27196673
39	0x3c8356aa	0.016032536
40	0xbc717dab	-0.014739434
41	0x3e9f4420	0.31106663
42	0xbec95d01	-0.3932877
43	0x3cc5be81	0.02413869
44	0x3e1054bc	0.14094824
45	0x3de032a7	0.10947161
46	0xbe97b9e2	-0.29634005
47	0xbe37471c	-0.1789822
48	0xbe61c5f2	-0.22048166
49	0xbdde702c	-0.10861239
50	0xbe0acd3f	-0.13554858
51	0x3e41c524	0.1892286
52	0xbe81113a	-0.25208455
53	0xbed6dfce	-0.41967624
54	0xbdc7b4bf	-0.097512715
55	0x3b3df282	0.0028983657
56	0xbe920ba3	-0.28524503
57	0xbe1eef5f	-0.15521
58	0xbe691ceb	-0.22764938
59	0x3eea4c2c	0.4576124
60	0xbd156de8	-0.036481768
61	0xbe8107a8	-0.25201154
62	0x3e4124b1	0.18861653
63	0xbe848990	-0.25886202
64	0x3e003563	0.12520365
65	0x3d89fd5a	0.06737776
66	0xbd304571	-0.043034974
67	0x3e2cde1e	0.16881606
68	0x3e1b429a	0.15162125
69	0x3e16d5bc	0.1472997
70	0xbe122d57	-0.14275108
71	0x3e1a3c9e	0.15062186
72	0xbe394707	-0.18093501
73	0xbdf1ea91	-0.11812318
74	0x3e5a2891	0.21304537
75	0x3e4cef22	0.20013097
76	0x3d3d6241	0.04623628
77	0xbe11b3eb	-0.1422879
78	0x3e83dcc5	0.2575437
79	0x3e2288ba	0.1587247
80	0x3b9cf758	0.004790228
81	0xbde0b998	-0.10972899
82	0x3e9ff0a7	0.3123829
83	0x3e5d4502	0.21608356
84	0x3c700921	0.014650614
85	0x3e81eb22	0.25374705
86	0xbc86b356	-0.016442936
87	0xbdaf8306	-0.085699126
88	0x3e19d30e	0.15021917
89	0xbe858db6	-0.2608468
90	0x3e11f1e1	0.14252426
91	0x3c5b6543	0.013390842
92	0x3e5da33e	0.21644303
93	0xbd65eaf6	-0.05613228
94	0x3b14deea	0.0022715875
95	0x3d286357	0.041110363
96	0x3dfe982c	0.12431368
97	0xbe079252	-0.1323941
98	0x3e09fa1f	0.1347432
99	0x3e4febba	0.20304766
100	0xbe9b94b7	-0.30386898
101	0x3db858ef	0.09001338
102	0x3e1acd1e	0.15117308
103	0x3e995b27	0.29952356
104	0xbe997de4	-0.2997886
105	0xbf02da34	-0.511142
106	0xbe3d4cd9	-0.18486346
107	0x3ec7afec	0.39001405
108	0xbe75d926	-0.24008617
109	0xbe3c2173	-0.18372135
110	0x3e84b506	0.2591936
111	0xbec9b69f	-0.3939714
112	0x3ebe9ba2	0.37228113
113	0xbdd5e441	-0.104439266
114	0x3e5b19cd	0.21396561
115	0x3d8e2218	0.069400966
116	0x3ca8373b	0.020534148
117	0xbdc15425	-0.094398774
118	0x3e19895d	0.14993806
119	0xbd89c7e0	-0.06727576
120	0xbdec19bd	-0.11528347
121	0xbe805307	-0.25063345
122	0xbd98e905	-0.0746632
123	0x3eec5f63	0.46166524
124	0x3d1f246d	0.038853098
125	0xbe6efd33	-0.23338775
126	0xbc04e86e	-0.008112056
127	0xbe9419d5	-0.28925958
128	0x3e879959	0.26484182
129	0xbe9e4052	-0.30908448
130	0xbe08f22f	-0.13373636
131	0xbea64330	-0.32473135
132	0xbe14221a	-0.14466134
133	0x3e6715b5	0.22566874
134	0x3e888569	0.26664284
135	0xbd89cf8c	-0.067290395
136	0x3e966f6c	0.29381883
137	0x3ea39f28	0.31957364
138	0xbed05bff	-0.40695187
139	0xbe5e72b9	-0.2172345
140	0x3edd3523	0.43204603
141	0x3f01873e	0.5059699
142	0xbec98168	-0.39356542
143	0x3ee07a36	0.4384324
144	0x3e1621dc	0.14661354
145	0x3e3cc362	0.18433908
146	0x3e9fb77b	0.31194672
147	0x3e255fbc	0.16149801
148	0xbd44227e	-0.047884457
149	0x3d666b87	0.05625489
150	0x3e5cf3eb	0.21577422
151	0x3d9492dd	0.072545744
152	0xbe91befb	-0.2846602
153	0x3ead47ec	0.33843935
154	0xbeaf89e7	-0.342849
155	0x3e2bd99d	0.16782232
156	0x3e82838b	0.25490984
157	0xbe41572e	-0.18880913
158	0xbd46e8e2	-0.048561938
159	0x3ea16472	0.31521946
160	0x3eb0db47	0.34542295
161	0xbba7c5d1	-0.005120017
162	0xbe374f9b	-0.17901461
163	0xbefe25d6	-0.49638242
164	0xbd6aa503	-0.057286274
165	0xbe98b35e	-0.29824346
166	0xbee88730	-0.4541564
167	0xbdcacffb	-0.099029504
168	0x3e85d4dd	0.26138964
169	0xbe1aa8c8	-0.15103447
170	0x3e64fa6f	0.22361158
171	0xbd25116b	-0.040299814
172	0x3e1a993e	0.1509752
173	0x3eaaf537	0.3339021
174	0x3ec91c74	0.3927952
175	0x3eacc544	0.33744252
176	0xbd91c8ab	-0.071183525
177	0xbe08eb30	-0.13370967
178	0x3efadafa	0.4899519
179	0x3d206e4c	0.039167687
180	0x3dabccfe	0.083887085
181	0xbe3455ba	-0.17610827
182	0xbd84a94c	-0.06477603
183	0x3d8cc8c4	0.068742305
184	0x3e0f6334	0.14002687
185	0x3dffac91	0.12484086
186	0xbe331f99	-0.17492522
187	0xbf0368a2	-0.5133153
188	0x3ee627fe	0.44952387
189	0x3ee91b5e	0.45528692
190	0xbf075312	-0.5286113
191	0x3e373e29	0.17894806
192	0xbe95fa74	-0.29292643
193	0x3e568ada	0.20951405
194	0x3eb37823	0.35052595
195	0x3dc62009	0.09674079
196	0xbdec2a58	-0.11531514
197	0xbdcf3cc6	-0.101190135
198	0x3e6d3286	0.23163804
199	0x3e9dcd1b	0.30820546
200	0x3e80e87b	0.2517737
201	0xbed851c9	-0.42249897
202	0x3d6f91ae	0.05848854
203	0x3e4652bf	0.19367503
204	0xbe7c04a1	-0.24611141
205	0xbeea48d6	-0.45758694
206	0xbe994eb9	-0.29942873
207	0x3cb22c9a	0.021749783
208	0x3dcb2709	0.09919555
209	0xbc9d6811	-0.019214662
210	0xbe920038	-0.28515792
211	0x3e7b909c	0.24566883
212	0xbebcd021	-0.3687754
213	0xbe9829d4	-0.29719412
214	0x3eac0411	0.33596852
215	0xbebb1268	-0.3653748
216	0xbe090e6f	-0.13384412
217	0xbed24de5	-0.41075054
218	0x3eb19004	0.34680188
219	0x3efe244b	0.49637064
220	0xbe3c0361	-0.18360664
221	0x3ccee863	0.025257295
222	0x3ef15e8b	0.47142443
223	0xbdbcb59c	-0.09214327
224	0xbedbfcb9	-0.4296625
225	0xbe9a4280	-0.3012886
226	0xbb288184	-0.0025711963
227	0x3eddec54	0.43344367
228	0xbde858a6	-0.11345033
229	0xbe427484	-0.1898976
230	0x3e73126a	0.23737493
231	0xbe20e106	-0.1571084
232	0xbedb82d4	-0.4287325
233	0xbe0be3e5	-0.13661154
234	0xbc8a1e92	-0.01686028
235	0x3f246476	0.6421579
236	0xbe0206a4	-0.12697846
237	0xbdc9f225	-0.098606385
238	0x3e96c972	0.29450566
239	0xbea9c9e6	-0.3316185
240	0xbcd7593e	-0.026287671
241	0x3d331165	0.04371776
242	0x3e7e0cf5	0.2480963
243	0x3e5bd3a3	0.21467452
244	0x3e6dcdef	0.23223089
245	0xbec8deae	-0.3923239
246	0x3dd01209	0.1015969
247	0xbe8f76b9	-0.28020266
248	0xbe70f52f	-0.2353103
249	0xbe951ffb	-0.29125962
250	0xbe96739d	-0.2938508
251	0x3f491ce4	0.7855971
252	0xbe497de8	-0.19676936
253	0xbe7e52f6	-0.24836335
254	0x3ed4c775	0.41558424
255	0xbe5b1779	-0.21395673

bias_ih_l1 f4 [32]
0	0x3d94eb92	0.07271494
1	0x3ef59383	0.47964105
2	0x39c7cf47	0.0003811067
3	0xbdfa4339	-0.12219853
4	0x3e5f81f1	0.21826912
5	0x3db5cfe5	0.08877543
6	0x3eb9dcb2	0.3630119
7	0xbd23f86d	-0.04003184
8	0xbdb0456a	-0.0860699
9	0x3ef0b0d2	0.47009903
10	0x3eb75e2a	0.3581403
11	0xbdd4b7f1	-0.103866465
12	0x3e338596	0.17531428
13	0x3f0e9ec8	0.5571103
14	0xbdeec50f	-0.1165868
15	0x3e327114	0.17425948
16	0xbe99490c	-0.29938543
17	0xbf021298	-0.5080962
18	0xbe888b74	-0.26668894
19	0x3ddd1ddd	0.107967116
20	0xbeae433f	-0.3403568
21	0xbea86220	-0.32887363
22	0x3eed7859	0.4638088
23	0xbe725f59	-0.23669185
24	0xbe8e14db	-0.27750286
25	0xbcc4fb45	-0.024045596
26	0x3eb4273b	0.3518618
27	0xb9722cc8	-0.00023095601
28	0x3ee506c1	0.44731715
29	0x3cbf9902	0.02338839
30	0x3ee9680f	0.45587203
31	0x3db14801	0.08656312

bias_hh_l1 f4 [32]
0	0xbdb9b95d	-0.09068558
1	0x3e273d07	0.16331874
2	0xbe11a770	-0.14224029
3	0x3e959220	0.29213047
4	0x3e95f88c	0.2929119
5	0xbd58acca	-0.05289916
6	0x3df5cd7d	0.120020844
7	0x3e1216fe	0.14266583
8	0xbd54dbf5	-0.05196758
9	0x3dbe99ec	0.09306702
10	0x3e741bd4	0.2383874
11	0x3e9afc4e	0.30270618
12	0x3ea5af8e	0.323605
13	0x3eb8bff7	0.36083958
14	0xbd0ca97c	-0.03434132
15	0x3d2d6122	0.04232896
16	0xbdc2d6b6	-0.09513609
17	0x3d04c156	0.032410942
18	0x3e86f286	0.26356906
19	0x3dbe543a	0.09293409
20	0x3e2af519	0.1669506
21	0x3cc7f608	0.024409309
22	0xbe59a951	-0.21255995
23	0x3e12c865	0.14334257
24	0x3e604de0	0.21904707
25	0xbddfc190	-0.10925591
26	0x3e0f5053	0.13995485
27	0x3eba7410	0.36416674
28	0x3d7ba98d	0.061440993
29	0x3d5366fd	0.05161189
30	0x3ea24c99	0.31699064
31	0x3d794430	0.060856044

weight_ih_l0 f4 [32, 22]
0	0xbdadff73	-0.08495989
1	0xbe1ceace	-0.15323946
2	0x3e189ca6	0.14903507
3	0x3d04802f	0.032348808
4	0xbe0d9c2c	-0.13829106
5	0xbd103faa	-0.035216965
6	0x3e150add	0.14554925
7	0xbe036ec3	-0.12835221
8	0x3cdc661f	0.026904164
9	0x3d657edb	0.056029182
10	0x3d8fbba4	0.070182115
11	0x3dba2115	0.09088341
12	0x3d012923	0.03153337
13	0x3c9fbe4e	0.019499924
14	0x3d3395cd	0.043844033
15	0x3da823bf	0.08209943
16	0x3d0cdf7d	0.034392823
17	0xbdecafbe	-0.11556958
18	0xbda716d4	-0.08158651
19	0x3d98dcb5	0.074639715
20	0x3d87c479	0.06629271
21	0x3dad1551	0.084513314
22	0xbeb07292	-0.3446241
23	0xbf2d80b1	-0.6777449
24	0x3f11783a	0.56824076
25	0x3f1a8df8	0.6037288
26	0xbf4e51d5	-0.80593616
27	0x3c515356	0.0127762165
28	0x3f1dfe9d	0.61716634
29	0xbf2190ca	-0.63111556
30	0x3da39460	0.07987285
31	0xbc0f517b	-0.008747454
32	0xbcdceb2e	-0.026967611
33	0xbdeabbc3	-0.11461594
34	0x3de7edce	0.113246545
35	0xbe2d364e	-0.16915247
36	0xbd985e4e	-0.07439862
37	0xbde7f565	-0.11326102
38	0x3ddf2393	0.10895457
39	0xbe31faac	-0.1738078
40	0xbcfc18d6	-0.030773561
41	0x3de7b6ac	0.11314139
42	0x3c8f7ee4	0.01751656
43	0x3e12bfde	0.14331004
44	0xbe258ad3	-0.16166238
45	0xbda41801	-0.08012391
46	0x3e142f2f	0.14471124
47	0x3e29919a	0.16559449
48	0xbe0c8205	-0.13721474
49	0x3e702d56	0.23454794
50	0x3dc99e9b	0.09844705
51	0xbe047e44	-0.12938792
52	0x3d50bd31	0.050961677
53	0xbcd6c994	-0.026219167
54	0xbdbe7563	-0.092997335
55	0xbd4144a6	-0.04718461
56	0xbd8a695e	-0.067583784
57	0x3e434b5d	0.19071718
58	0xbe5274ce	-0.2055237
59	0xbdce1dc2	-0.100642696
60	0xbe18318a	-0.14862648
61	0xbc93ab55	-0.018026033
62	0x3e88302c	0.26599252
63	0x3d862319	0.06549663
64	0xba9e62fd	-0.0012083944
65	0xbdcc8984	-0.099871665
66	0x3e1edd93	0.15514211
67	0xbe4e8080	-0.20166206
68	0x3e2806d3	0.16408853
69	0x3d812708	0.06306273
70	0x3c83599d	0.016033942
71	0xbed67001	-0.41882327
72	0xbe87f518	-0.2655418
73	0xbb66fc3b	-0.0035245556
74	0x3e9d9c8a	0.30783492
75	0xbce89190	-0.028389722
76	0xbdfc2318	-0.12311381
77	0xbc03a54a	-0.008035013
78	0x3e9a3070	0.3011508
79	0x3e3db386	0.18525514
80	0xbddb0926	-0.10695104
81	0xbe3678fe	-0.17819592
82	0xbc957702	-0.018245224
83	0xbeadba34	-0.33931124
84	0xbe360ef9	-0.17779149
85	0x3e5be3ca	0.21473613
86	0x3d46c1a5	0.048524518
87	0x3ccc034f	0.024903921
88	0x3e0eb6d3	0.1393693
89	0xbe578283	-0.2104588
90	0xbe046df9	-0.12932576
91	0xbd7c2117	-0.061554994
92	0x3dc64bf3	0.09682455
93	0xbf23df5a	-0.6401268
94	0xbe5f3fac	-0.21801633
95	0xbdd265ef	-0.102733485
96	0x3e4602f5	0.19337066
97	0xbe7b6d43	-0.24553399
98	0x3e4385d7	0.19094025
99	0x3d8fc8c1	0.07020713
100	0xbe628c44	-0.2212382
101	0xbe114cc7	-0.14189444
102	0x3e7d9fae	0.24767944
103	0x3ccaa173	0.024735188
104	0xbd5c86c2	-0.053839453
105	0xbea21d2e	-0.31662887
106	0x3998811c	0.00029087893
107	0x3cc1b798	0.023647115
108	0x3e197d00	0.1498909
109	0xbe6182b7	-0.2202252
110	0xbd5ced66	-0.05393734
111	0xbcf4d1d2	-0.029885206
112	0x3d0c96c6	0.034323476
113	0x3d9da196	0.07696836
114	0xbd9201ca	-0.071292475
115	0x3d0172b3	0.031603526
116	0x3d0f870e	0.035040908
117	0xbc06f427	-0.008236921
118	0xbe16b577	-0.14717661
119	0xbe12e012	-0.14343289
120	0xbe1203cf	-0.14259265
121	0xbe2e4465	-0.17018278
122	0x3cfa7206	0.030571949
123	0xbdb52028	-0.08844024
124	0xbdf83cfc	-0.12121007
125	0xbe557eaf	-0.20849107
126	0x3e1b4962	0.15164712
127	0x3dc9496a	0.09828456
128	0xbc5e44e7	-0.013566232
129	0xbdb4e6ac	-0.0883306
130	0xbe39716c	-0.18109673
131	0xbe6313ba	-0.22175494
132	0xbf114625	-0.5674766
133	0xbeaee26d	-0.34157124
134	0x3e5a1fbd	0.2130117
135	0x3e084a16	0.13309512
136	0xbedd76bf	-0.4325466
137	0x3e25ac17	0.16178928
138	0x3e3212c3	0.1738997
139	0xbebea779	-0.37237146
140	0x3cdb90e1	0.026802482
141	0x3d88c3d0	0.06677973
142	0x3e09e1e3	0.13465075
143	0xbd594937	-0.05304834
144	0xbd214822	-0.03937543
145	0xbe23dce0	-0.16002226
146	0x3e422359	0.18958797
147	0xbea1d735	-0.31609502
148	0x3e2b2154	0.16711932
149	0x3dce826f	0.10083472
150	0x3e17b3e9	0.14814724
151	0xbe91111c	-0.28333366
152	0xbe61d1b7	-0.22052656
153	0xbd50881a	-0.050911047
154	0xbd7f5bf0	-0.062343538
155	0xbd0a3669	-0.033743296
156	0xbd808d4a	-0.06276949
157	0x3eaa5b76	0.33272904
158	0xbd81f026	-0.06344633
159	0x3e267ed8	0.16259325
160	0x3d2a5d89	0.04159311
161	0x3da366ca	0.0797859
162	0x3efff97a	0.49995023
163	0xbe43647b	-0.19081299
164	0xbd85e224	-0.065372735
165	0x3eaa9af7	0.33321354
166	0x3e90f0b7	0.2830865
167	0x3ef96a53	0.4871393
168	0xbacf25fb	-0.0015804166
169	0x3e945ea3	0.28978452
170	0xbe82744c	-0.25479352
171	0x3c09dd46	0.008414572
172	0x3e44fb90	0.19236588
173	0x3e59f1eb	0.2128369
174	0x3ec1a413	0.3782049
175	0x3ea6eb7b	0.32601532
176	0x3da08644	0.07838109
177	0x3d916769	0.07099802
178	0xbe24527d	-0.16047092
179	0xbda3b7f1	-0.079940684
180	0x3dda96c9	0.10673291
181	0xbcf57f0d	-0.02996781
182	0xbdafde7a	-0.08587356
183	0x3e26b0ef	0.16278432
184	0x3c49d705	0.012319331
185	0xbcf068ff	-0.029346941
186	0x3ad0a023	0.0015916865
187	0xbcd658ff	-0.026165484
188	0xbe055300	-0.13019943
189	0xbaf6f07f	-0.0018839984
190	0xbdbd0439	-0.09229321
191	0xbcfce840	-0.030872464
192	0xbe4e3967	-0.20139085
193	0xbe0438b3	-0.12912254
194	0x3e7db8f4	0.24777585
195	0x3c2176c9	0.009854981
196	0xbc3f3692	-0.011670725
197	0xbca54b66	-0.020177554
198	0xbdd45b7a	-0.1036901
199	0xbea33428	-0.3187573
200	0x3e9e2a30	0.30891562
201	0x3d7fd747	0.062461164
202	0x3d2ff1d1	0.042955223
203	0xbf22721d	-0.63455373
204	0x3ea3193b	0.31855187
205	0x3e41f8f7	0.18942629
206	0x3cdde5c1	0.027087094
207	0xbd2ff3cd	-0.042957116
208	0x3e04eba1	0.1298051
209	0x3dabf2f8	0.08395952
210	0xbe2dd3a9	-0.16975273
211	0x3e7ce44a	0.2469646
212	0x3d91c405	0.07117466
213	0xbe96b42e	-0.2943434
214	0xbeab137f	-0.33413312
215	0x3e30ca6b	0.17264716
216	0xbc411347	-0.011784381
217	0xbd1f5c1d	-0.038906205
218	0xbe4778ea	-0.19479719
219	0xbee6e3e6	-0.45095748
220	0xbdba9d74	-0.09112063
221	0x3d574aa0	0.052561402
222	0xbd28fbfa	-0.04125593
223	0xbd1ef7d0	-0.03881055
224	0xbdb88c1c	-0.09011099
225	0xbc9c083a	-0.019046891
226	0xbd4725f4	-0.04862018
227	0xbd2e79e8	-0.042596728
228	0xbc670159	-0.014099442
229	0xbd36f5c9	-0.044667993
230	0xbe4205fe	-0.18947598
231	0x3cc4fdcc	0.024046801
232	0xbe074e49	-0.13213457
233	0xbddba95c	-0.10725662
234	0xbd9eb81f	-0.07749962
235	0x3c86705c	0.016410999
236	0xbde809b6	-0.11329977
237	0xbd84baed	-0.06480966
238	0x3e1ba557	0.15199791
239	0xbd76830a	-0.060183562
240	0xbd5e589f	-0.054283734
241	0x3cf501e7	0.029908134
242	0xbd70a378	-0.058749646
243	0x3c6fe148	0.014641114
244	0x3cc1dd98	0.023665234
245	0x3d98cc55	0.07460848
246	0x3da8862b	0.082287155
247	0x3e026d98	0.12737119
248	0xbdb5763e	-0.088604435
249	0x3cb13f9b	0.021636775
250	0x3e1b9a9e	0.151957
251	0x3e368a00	0.1782608
252	0x3dfe859e	0.12427829
253	0x3e8d2b3c	0.27572048
254	0x3dbc4d7e	0.09194468
255	0x3e2c3beb	0.16819732

weight_hh_l0 f4 [32, 8]
0	0xbde0d582	-0.109782234
1	0xbdccf750	-0.100081086
2	0xbd40379d	-0.046928037
3	0xbe3725b9	-0.17885484
4	0xbd692f17	-0.056929674
5	0xbce4c9dc	-0.027928285
6	0x3dbafb54	0.09129968
7	0xbc956282	-0.018235449
8	0xbe5becb8	-0.2147702
9	0x3cacbc45	0.021085868
10	0x3e0572b1	0.13032033
11	0x3e7a7f67	0.24462663
12	0xbdc0e4ae	-0.09418617
13	0xbef43261	-0.47694686
14	0x3e458b2c	0.19291371
15	0xbd925142	-0.07144405
16	0xbe1bcb56	-0.15214285
17	0xbe49071f	-0.19631623
18	0x3e26f800	0.16305542
19	0xbd0397c0	-0.032127142
20	0x3bcf46e2	0.0063255886
21	0x3d310d8c	0.04322581
22	0x3e4386a2	0.19094327
23	0x3de011d4	0.109409004
24	0xbdc21878	-0.09477323
25	0x3db9e403	0.09076693
26	0xbe0f230f	-0.13978218
27	0xbe24ed08	-0.16106045
28	0x3c8b43bf	0.017000077
29	0x3dc0fed0	0.094236016
30	0x3d8607a5	0.06544427
31	0x3db6f0dd	0.0893266
32	0x3e11e3d1	0.14247061
33	0x3d127c3c	0.03576301
34	0xbedcb1a7	-0.43104288
35	0xbea51014	-0.3223883
36	0x3e0157a0	0.12631083
37	0x3e8c0dff	0.27354428
38	0x3e739734	0.23788148
39	0x3cd924db	0.026506832
40	0xbcde85bb	-0.027163377
41	0xbd7fae15	-0.062421877
42	0x3d0c57b7	0.03426334
43	0xbd16a64a	-0.03677968
44	0x3c471e24	0.012153182
45	0x3d2f9f9d	0.04287683
46	0x3d5c0588	0.053716213
47	0x3da7a474	0.08185664
48	0xbee89ed5	-0.4543368
49	0xbe7161c6	-0.23572454
50	0x3c33d1c6	0.010975307
51	0x3e9dea2f	0.3084273
52	0xbd9f3396	-0.07773511
53	0xbf26136d	-0.6487339
54	0xbd35e5fc	-0.044408783
55	0xbdbe1a23	-0.09282329
56	0x3dafc736	0.08582918
57	0xbece0d3c	-0.40244472
58	0x3e7e45e0	0.24831343
59	0xbbe9b653	-0.0071323304
60	0x3d93af22	0.07211138
61	0x3dc88bfe	0.097923264
62	0x3ea07aca	0.3134368
63	0xbcbd56c7	-0.023112668
64	0x3e1c8254	0.15284091
65	0x3d9e7bd7	0.07738464
66	0xbcbd9474	-0.023142077
67	0x3e1d18c8	0.15341485
68	0x3d46a1f2	0.048494287
69	0xbd94f33a	-0.07272954
70	0xbd82cb93	-0.06386485
71	0xbc98faf5	-0.018674353
72	0xbe47dfc5	-0.19518955
73	0xbdf70c0b	-0.12062844
74	0x3d88837b	0.06665703
75	0xbd741efe	-0.05959987
76	0x3c03c147	0.008041686
77	0x3f163eb0	0.58689404
78	0x3e4e2a14	0.20133239
79	0xbe4bc975	-0.19901069
80	0x3dece449	0.115669794
81	0x3e29177a	0.16512862
82	0x3dcee498	0.101021945
83	0x3dba0357	0.09082668
84	0xbd378c13	-0.04481132
85	0x3c8c5736	0.01713143
86	0x3d8d3a63	0.06895902
87	0xbce3ba29	-0.027798729
88	0xbb67f57e	-0.0035394127
89	0x3bcac3f4	0.00618791
90	0x3d6aaa4b	0.05729131
91	0x3c124a93	0.008928913
92	0x3d36b4b3	0.044605922
93	0x3dd85010	0.10562146
94	0xbd96c3a7	-0.073615365
95	0xbda1e37a	-0.07904716
96	0xbe088142	-0.13330558
97	0xbd01a718	-0.031653494
98	0x3c3ceee8	0.011531569
99	0x3e6f713d	0.2338304
100	0x3d0ed0da	0.034867145
101	0xbddf0d8e	-0.10891257
102	0xbdef3a16	-0.11681001
103	0xbd9afca9	-0.07567722
104	0x3d49b842	0.049247988
105	0x3d74bc22	0.05974973
106	0xbb980dee	-0.0046403324
107	0xbcfe0cce	-0.031011965
108	0xbd15ffde	-0.036620967
109	0xbd04b231	-0.0323965
110	0xbcd7031c	-0.0262466
111	0xbcf6fd6c	-0.030150138
112	0x3eb9346b	0.36172804
113	0x3d103317	0.035204973
114	0x3d3e6764	0.04648532
115	0xbf12b056	-0.5730032
116	0x3de64d61	0.112452276
117	0x3f0e77ed	0.5565174
118	0x3eaa133d	0.33217803
119	0x3dabd7e6	0.08390789
120	0x3dd3c25a	0.10339804
121	0x3dcab647	0.09898048
122	0xbe257fac	-0.16161984
123	0x3d383756	0.044974647
124	0xbcbc9e0a	-0.023024578
125	0xbc9a5b09	-0.018842237
126	0xbe81e2d8	-0.2536838
127	0xbea0cc9c	-0.31406105
128	0xbd90adb8	-0.07064384
129	0x3dbf91cd	0.09353981
130	0x3f1d2b8f	0.6139459
131	0xbe456b4b	-0.1927921
132	0xbe04f9b1	-0.12985875
133	0x3e5cd110	0.21564126
134	0xbe1d8fb2	-0.15386847
135	0xbc213be8	-0.009840943
136	0x3e27b275	0.1637667
137	0x3e6d44b4	0.2317074
138	0xbdf4f364	-0.119604856
139	0x3f010852	0.5040332
140	0xbe7fad31	-0.24968411
141	0xbf9237a5	-1.1423231
142	0xbe3c4c2a	-0.1838843
143	0xbeea29cc	-0.45735013
144	0xbcff7e2e	-0.031188097
145	0x3e780753	0.24221544
146	0xbe29b9dc	-0.16574806
147	0x3f07ba15	0.53018314
148	0x3ec4b25a	0.3841732
149	0xbe16b45d	-0.1471724
150	0xbd13b7b4	-0.036063865
151	0x3d2f424a	0.042787828
152	0x3e010db4	0.12602884
153	0xbe0c54f6	-0.13704285
154	0xbe1ab4e5	-0.15108068
155	0xbbb3ee0a	-0.005491023
156	0x3d8a0728	0.06739646
157	0x3b45bda2	0.0030172844
158	0xbc9a43d6	-0.018831175
159	0xbe1ce670	-0.1532228
160	0x3db994a9	0.09061558
161	0xbdcf4ae9	-0.1012171
162	0xbebc3b9f	-0.36764237
163	0xbd6fabd2	-0.05851347
164	0xbe794413	-0.24342375
165	0xbf3421b1	-0.7036391
166	0x3da5e3d8	0.08100098
167	0xbcca085e	-0.024662193
168	0xbea83d27	-0.32859156
169	0x3ad583ea	0.0016289924
170	0x3de1d694	0.11027256
171	0x3e8228e7	0.2542183
172	0xbe80cd53	-0.2515665
173	0xbf104527	-0.5635552
174	0x3c3c3891	0.011488096
175	0xbdabd764	-0.08390692
176	0x3ea152f0	0.3150859
177	0xbe863557	-0.2621257
178	0x3dbf94a8	0.09354526
179	0xbf63874a	-0.8887831
180	0x3e84e8d8	0.25958896
181	0x3f569598	0.8382201
182	0x3c19a497	0.00937762
183	0x3d2e6261	0.04257429
184	0x3e6a3ac7	0.22873984
185	0x3ec5470f	0.38530776
186	0xbd663e4e	-0.056211762
187	0x3db7c2f0	0.08972728
188	0xbea03629	-0.3129132
189	0xbf385f8b	-0.72020787
190	0xbecc68a1	-0.39923576
191	0xbdbc7bb7	-0.09203284
192	0x3d50818e	0.050904803
193	0xbdcfa0cc	-0.101380914
194	0xbe090892	-0.13382176
195	0xbe2cca9f	-0.16874169
196	0xbe059480	-0.1304493
197	0xbdc66e79	-0.0968904
198	0x3dc244a2	0.09485747
199	0xbd935fcd	-0.07196007
200	0xbea35ea8	-0.31908154
201	0xbe894155	-0.26807657
202	0x3e14ea1f	0.14542435
203	0x3cca490d	0.024693036
204	0x3d09b74f	0.033622082
205	0xbde65f05	-0.11248592
206	0x3e277c1a	0.16355935
207	0x3daa4e4d	0.08315716
208	0xbc985f64	-0.018600173
209	0xbd8dd777	-0.06925862
210	0xbd393dd5	-0.045224983
211	0x3d57c694	0.052679613
212	0x3b0a87bd	0.0021138035
213	0xbe69f262	-0.22846368
214	0x3e7d0751	0.24709822
215	0xbc9c34ee	-0.019068208
216	0x3e774999	0.24149169
217	0xbe541ac1	-0.20713331
218	0xbe8cd6b7	-0.27507564
219	0xbf16e655	-0.5894521
220	0x3c40c8b8	0.011766605
221	0x3e2f735d	0.17133851
222	0xbb35c437	-0.0027735361
223	0x3e8aa6b3	0.27080306
224	0xbe0d810c	-0.13818759
225	0xbdffdc4b	-0.124931894
226	0x3e21fcfa	0.15819159
227	0x3ea23219	0.31678846
228	0x3dcb75ef	0.099346034
229	0x3df555e4	0.11979273
230	0x3df14662	0.117810026
231	0x3b893122	0.0041867653
232	0xbbda339c	-0.0066589843
233	0xbd132ae9	-0.035929594
234	0x3d300a38	0.042978495
235	0xbdacdbf4	-0.0844039
236	0x3ba51152	0.005037465
237	0x3d334c09	0.043773685
238	0x3cbdcfe7	0.023170425
239	0x3d6f5635	0.058431823
240	0xbe3e9c44	-0.18614298
241	0xbea05ce9	-0.31320885
242	0xbe300f9d	-0.17193456
243	0xbeb339f0	-0.3500514
244	0xbe4dbea2	-0.20092252
245	0xbdb6e850	-0.08931029
246	0x3e69e9fa	0.22843161
247	0x3d6ab28c	0.05729918
248	0xbc9a2028	-0.018814161
249	0xbeb6825a	-0.35646325
250	0x3e91214d	0.2834572
251	0x3cc3bf15	0.023894826
252	0x3d488a11	0.048959795
253	0x3d97d62c	0.07413897
254	0x3d8f1d5d	0.069880225
255	0xbd6697c5	-0.056297082

bias_ih_l0 f4 [32]
0	0x3e8aba16	0.27095097
1	0x3f11a1c4	0.5688746
2	0x3e0012ad	0.12507124
3	0x3e6883ef	0.22706579
4	0x3ddcca04	0.10780719
5	0x3e2fc7e6	0.17166099
6	0x3eb86d63	0.36020955
7	0x3e51140e	0.20417807
8	0xbdde81fb	-0.108646356
9	0x3f003fb8	0.5009723
10	0x3d5eca1b	0.05439196
11	0x3c87f28c	0.016595148
12	0xbe992183	-0.2990838
13	0xbe2b9b04	-0.16758353
14	0x3e3c7b89	0.184065
15	0xbe8935b4	-0.26798785
16	0xbd49a58c	-0.049230143
17	0x3e9175b2	0.28410107
18	0xbe8ca9ac	-0.274732
19	0x3ee38b11	0.44442037
20	0xbebc38fe	-0.36762232
21	0xbe6057d9	-0.21908511
22	0xbdcd4aac	-0.10024008
23	0xbe985ad1	-0.29756787
24	0x3b95f7b3	0.004576647
25	0x3f548131	0.8300963
26	0x3e51e646	0.20497999
27	0x3ad8eb19	0.0016549557
28	0x3e888e73	0.2667118
29	0x3d1b3974	0.03789659
30	0x3e9da6ad	0.30791226
31	0x3ec71e5c	0.3889035

bias_hh_l0 f4 [32]
0	0x3e975cbe	0.29562944
1	0x3e7abe3c	0.24486631
2	0x3e009c7f	0.12559699
3	0x3eba6ddf	0.3641195
4	0x3ef3a05b	0.4758328
5	0x3e4b6ee0	0.19866514
6	0x3f0886d2	0.5333072
7	0x3e9a6825	0.3015758
8	0xbdc56209	-0.09637839
9	0x3d9075fe	0.07053755
10	0xbde43f31	-0.11144865
11	0xbe3cd9aa	-0.18442407
12	0xbe9ac3c7	-0.3022749
13	0xbe45495d	-0.19266267
14	0x3dcb52c8	0.09927899
15	0xbe42c3c1	-0.19019987
16	0xbe14f269	-0.14545597
17	0xbe97db9f	-0.29659745
18	0xbe665974	-0.22495061
19	0x3e3987e7	0.18118249
20	0xbe66b9c4	-0.22531801
21	0xbeaecf7b	-0.3414267
22	0x3c7230e2	0.014782162
23	0xbdfbca48	-0.122944415
24	0x3e2ea552	0.17055252
25	0x3f068fce	0.5256318
26	0xbdad6756	-0.084669754
27	0xbd2e7a36	-0.04259702
28	0x3dca7d2c	0.09887156
29	0x3ce28438	0.027650937
30	0x3f3b1424	0.7307761
31	0x3eac636c	0.33669603
