trials/model_FD003.pkl (torch, 22020 bytes, 23 tensors)

weight_ih_l0 f4 [32, 14]
0.095758714 0.09037485 0.14321993 0.06858505 0.23808259 -0.0016530681 0.17490178 0.06924138
-0.31510094 -0.059639372 0.20267305 -0.12611765 0.25793365 0.23723508 -0.062132586 -0.235787
-0.008834546 -0.46316737 0.26041692 -0.22882988 -0.20662148 0.15523626 -0.08679537 -0.46095887
-0.14508174 0.012219372 0.08969901 0.2877599 -0.23472436 -0.19116567 0.290003 -0.22669409
-0.2231095 0.07999013 0.043520976 -0.6543071 -0.27223796 -0.026151877 0.35864547 -0.0050951517
-0.024223378 -0.06946952 0.40206942 -0.061471824 0.071467765 -0.10114589 0.4679998 0.062487707
0.20841382 0.23557428 -0.14474528 -0.34916347 -0.222075 -0.052690595 -0.070500374 -0.23424089
-0.27004388 -0.13620792 -0.08459377 -0.034238115 0.21906662 0.029672021 0.073662415 -0.12400595
0.21856385 0.15455832 0.14528877 0.21040425 -0.11630481 -0.0992852 -0.11288332 0.024866963
0.21685983 0.28279248 -0.40021515 0.054985557 0.04792297 0.035560254 -0.08007325 0.19956502
-0.32865486 -0.23280096 0.3460648 0.28448048 -0.005694965 -0.29326484 -0.3383293 -0.11737431
0.055228222 -0.3589903 -0.19723961 -0.30102646 0.21876481 -0.42537853 0.058134653 -0.27573487
-0.21216166 -0.12868877 -0.053729754 0.00756276 -0.1823297 -0.0046319976 -0.26749694 0.11159923
-0.10607491 -0.14314681 -0.53590137 -0.015225032 -0.28569266 0.10094938 -0.022097982 -0.31010786
0.075920045 0.11075766 0.47022286 -0.18485011 -0.018399375 -0.057034872 0.12677293 -0.11848581
-0.057465933 -0.18569854 -0.049096737 0.067614414 -0.2218348 0.08437269 -0.08197325 -0.101414174
-0.3002261 -0.49439743 0.22143617 -0.4330156 0.22903274 -0.44990468 0.06084745 -0.3057136
-0.07449762 -0.2573917 -0.072566 -0.2528151 -0.04454334 -0.18844767 -0.12675256 -0.09557218
-0.2913788 -0.34396812 0.16142793 -0.21358266 0.082900934 -0.19230963 0.23357026 0.09511054
-0.21382472 0.19230637 0.010154705 -0.22454369 -0.17076705 -0.42143616 0.11901027 0.14413106
-0.012746499 0.20990568 -0.069194324 -0.21557137 0.30344686 -0.037716694 -0.19934627 0.15045013
-0.020876197 -0.013907871 0.32907572 0.28683117 0.40376857 0.2210318 -0.07914365 0.58085895
0.66233104 0.41617018 -0.363892 -0.20371479 0.600626 0.057544835 -0.1095246 0.07313021
0.07144762 -0.18332364 -0.33019936 0.051558472 -0.28970212 -0.04365669 -0.13845687 0.13212545
0.21184091 -0.43149057 -0.19454397 -0.08040754 -0.1882375 0.07251377 0.044057194 -0.28483656
0.14586389 -0.2933133 -0.11206438 -0.21848443 -0.058524404 -0.30417085 0.096894875 -0.24947894
-0.011753819 -0.0170726 -0.08556626 0.07115741 -0.07022941 -0.24772094 -0.2822923 0.26755127
-0.2400331 -0.32562628 -0.29412603 0.23758137 0.019734198 0.32895827 -0.055523857 0.026009748
-0.10708406 0.00930362 -0.035623856 -0.18651147 -0.09780876 -0.15037437 -0.34840688 -0.4269829
-0.2519443 -0.15475695 0.46895418 -0.23315199 -0.06039625 0.21542351 -0.105013855 0.10522295
0.30342317 -0.22866109 0.29520243 0.49407783 0.1263914 0.12814346 0.12380822 0.3643514
0.031875517 0.31414074 0.019691346 0.12688099 0.017405625 -0.35049158 -0.2795407 -0.2433745
00000000: 251d c43d 7316 b93d 3fa8 123e 5276 8c3d
00000010: eccb 733e c3ab d8ba 7419 333e 6dce 8d3d
00000020: e954 a1be 6a48 74bd 8689 4f3e fc24 01be
00000030: e10f 843e c1ed 723e bd7e 7ebd 2672 71be
00000040: c6be 10bc 4624 edbe 5e55 853e 6152 6abe
00000050: 9594 53be 41f6 1e3e c5c1 b1bd cd02 ecbe
00000060: 4f90 14be c333 483c 1db4 b73d 4455 933e
00000070: 955b 70be efc0 43be 467b 943e 7f22 68be
00000080: d176 64be ded1 a33d 0d43 323d ac80 27bf
00000090: c662 8bbe 763c d6bc 61a0 b73e 3bf5 a6bb
000000a0: 1b70 c6bc 0946 8ebd 0bdc cd3e e1c9 7bbd
000000b0: b15d 923d 9425 cfbd ab9d ef3e 1cf3 7f3d
000000c0: 6f6a 553e 623a 713e 1b38 14be 8ec5 b2be
000000d0: a167 63be 18d2 57bd 8062 90bd d8dc 6fbe
000000e0: 3143 8abe 177a 0bbe 803f adbd 443d 0cbd
000000f0: 0053 603e bd12 f33c 52dc 963d d5f6 fdbd
00000100: 34cf 5f3e 8944 1e3e 94c6 143e 3674 573e
00000110: 3731 eebd 0a56 cbbd 5f2f e7bd cdb5 cb3c
00000120: 8110 5e3e 2dca 903e 00e9 ccbe 8938 613d
00000130: e04a 443d a1a7 113d 72fd a3bd c65a 4c3e
00000140: 7345 a8be 6063 6ebe 682f b13e 6da7 913e
00000150: d49c babb cf26 96be 7f39 adbe f161 f0bd
00000160: fd36 623d 94cd b7be 2ef9 49be 2420 9abe
00000170: e203 603e 37cb d9be 9a1e 6e3d 1f2d 8dbe
00000180: e840 59be fdc6 03be bb13 5cbd 07d1 f73b
00000190: a3b4 3abe 03c8 97bb 5cf5 88be 238e e43d
000001a0: cd3d d9bd 1495 12be d530 09bf 6a72 79bc
000001b0: 4f46 92be 8cbe ce3d d406 b5bc 75c6 9ebe
000001c0: f87b 9b3d e9d4 e23d 0dc1 f03e 5949 3dbe
000001d0: 49ba 96bc 669d 69bd c3d0 013e b0a8 f2bd
000001e0: 6661 6bbd c227 3ebe a919 49bd 6d79 8a3d
000001f0: a928 63be 97cb ac3d 97e1 a7bd 3cb2 cfbd
00000200: 3cb7 99be a921 fdbe 2ac0 623e 39b4 ddbe
00000210: 8f87 6a3e e859 e6be 2d3b 793d 7e86 9cbe
00000220: 3592 98bd d8c8 83be 7c9d 94bd fb70 81be
00000230: 1473 36bd 6df8 40be 6ccb 01be 59bb c3bd
00000240: 9a2f 95be 971c b0be 5d4d 253e 6ab5 5abe
00000250: f7c7 a93d d1ec 44be 0b2d 6f3e 51c9 c23d
00000260: def4 5abe f6eb 443e eb5f 263c c8ee 65be
00000270: 8fdd 2ebe 7bc6 d7be a8bb f33d 1897 133e
00000280: b1d6 50bc 84f1 563e c1b5 8dbd bebe 5cbe
00000290: 635d 9b3e d27c 1abd 6e21 4cbe 990f 1a3e
000002a0: 8f04 abbc d7dd 63bc 9d7c a83e 89db 923e
000002b0: c1ba ce3e 2956 623e 1116 a2bd 2cb3 143f
000002c0: 878e 293f 4214 d53e 0d50 babe 9c9a 50be
000002d0: a0c2 193f 22b4 6b3d 6f4e e0bd 4bc5 953d
000002e0: 2153 923d 31b9 3bbe e40f a9be fa2e 533d
000002f0: d653 94be 5bd1 32bd a3c7 0dbe e54b 073e
00000300: d3ec 583e 55ec dcbe 8936 47be b5ac a4bd
00000310: 55c1 40be 1982 943d 5175 343d 19d6 91be
00000320: 585d 153e 292d 96be 0282 e5bd 62ba 5fbe
00000330: 49b7 6fbd 48bc 9bbe d270 c63d 6877 7fbe
00000340: 1793 40bc d6db 8bbc 5d3d afbd faba 913d
00000350: 70d4 8fbd 8faa 7dbe 9e88 90be 7bfc 883e
00000360: 3dcb 75be 7db8 a6be b097 96be 8848 733e
00000370: 9da9 a13c 386d a83e fc6c 63bd 6512 d53c
00000380: e34e dbbd 366e 183c 52ea 11bd ddfc 3ebe
00000390: f64f c8bd bdfb 19be 6362 b2be 819d dabe
000003a0: d8fe 80be 9b78 1ebe c31a f03e 65bf 6ebe
000003b0: 0f62 77bd fb97 5c3e 8111 d7bd 217f d73d
000003c0: 485a 9b3e 2226 6abe c624 973e c5f7 fc3e
000003d0: bf6c 013e 0a38 033e 2a8f fd3d 448c ba3e
000003e0: e78f 023d 0ed7 a03e bf4f a13c 17ed 013e
000003f0: 3e96 8e3c a273 b3be f51f 8fbe 2a37 79be

weight_hh_l0 f4 [32, 8]
-0.004300001 -0.3481344 0.29501417 -0.011670801 -0.012366851 -0.3193625 -0.14855242 -0.23532934
-0.27371565 0.15234435 -0.0095106475 0.115042195 0.15451576 0.04505198 -0.27969986 -0.05444433
-0.24637626 -0.15461706 -0.15649262 0.12661785 -0.1017141 -0.026971992 0.20604593 -0.370969
-0.083851375 -0.27934074 -0.12764995 -0.24989666 0.2235637 0.120374024 0.10379808 -0.36327377
0.044544194 -0.122890726 -0.06698473 -0.2006065 0.1315964 0.15521863 0.12951742 0.23298529
-0.2749476 -0.10090105 -0.16549371 0.14333993 -0.39899966 -0.3367963 -0.09563979 -0.11969604
-0.26728317 -0.030812534 0.06721841 -0.23813188 0.05821597 -0.14075035 -0.009584981 0.2855662
0.0024176524 0.0059937635 0.0326309 0.08188687 -0.12678477 -0.13975485 -0.2628744 -0.16995665
-0.33759215 -0.17596723 0.2282267 -0.11124872 0.085564874 -0.022442192 0.21680447 -0.017398586
-0.17228568 0.06565771 -0.0847007 -0.21997692 0.19538705 -0.25960448 0.33121872 0.19664764
0.04976677 0.36161637 0.3513714 0.37444764 -0.11374772 -0.1892076 0.34479934 -0.16799782
0.24051918 0.049987134 -0.063869074 0.014111769 -0.2096493 -0.08629462 0.21801369 -0.45484483
0.01517233 -0.23594137 0.21808322 -0.034525406 0.11673227 -0.42869744 -0.098965585 -0.21160214
0.23038462 0.09728245 0.24284734 -0.21265762 -0.2473183 0.32653788 0.25182986 -0.29387406
-0.49692142 -0.33126327 0.063887484 -0.2544141 -0.045859024 -0.1797136 0.28016695 0.3403858
-0.076550424 -0.25354227 0.023863997 -0.4389812 0.28950983 -0.1596661 0.26599717 -0.09925827
0.036140922 0.13734588 0.04235835 -0.37534148 0.20941734 -0.35768473 -0.41621688 -0.23754089
0.5048932 -0.20565395 0.021708714 0.23474051 -0.14383858 0.20636743 -0.3545401 0.10080889
-0.009051803 -0.21283978 -0.20292886 0.08499855 -0.29619074 0.106593475 -0.2133672 -0.23260595
0.36570385 0.31813273 -0.035246067 -0.34651235 -0.39482945 0.258728 -0.10994166 0.20891707
-0.4392007 0.16063255 -0.3149382 -0.29257396 0.050645757 0.3106467 0.09449025 0.1265126
0.35293168 0.22873254 -0.30994985 0.027818147 -0.32375675 -0.03692596 -0.06962738 0.2820532
-0.029866062 0.15822504 0.10127739 -0.30834788 -0.022327904 0.35689232 0.32886976 0.40791994
0.47491616 -0.053565215 0.26920706 0.10836925 -0.2322213 -0.123521805 0.22632906 0.0006517143
-0.19464995 -0.09245575 0.36790818 -0.41635954 -0.039685022 -0.2745968 -0.17479143 -0.20667727
-0.19957992 -0.33734375 0.058480695 -0.15565903 -0.06667802 -0.010753084 -0.30544752 -0.13178293
0.1665162 -0.12556335 -0.1879412 0.075182095 -0.42099515 -0.18438584 0.05027739 0.026688483
-0.40336192 -0.2714916 0.24619907 0.09237631 0.09714727 -0.23341891 -0.27939 0.103853926
0.00043350487 0.05068024 0.12023143 -0.19250973 -0.16118082 0.08950474 0.28822157 -0.03602959
-0.15311772 -0.051740807 0.12142418 0.24302962 -0.048000056 -0.33445838 0.29590276 0.08047004
-0.012531642 -0.31365642 -0.14229241 -0.23659025 -0.0927284 -0.042803653 0.27558464 0.004711445
-0.045504596 0.009762981 0.2663477 0.09551848 0.14179936 -0.16050383 -0.019111188 -0.1939196
00000000: 06e7 8cbb ac3e b2be 190c 973e e336 3fbc
00000010: 559e 4abc 7b83 a3be 201e 18be 2dfa 70be
00000020: 7524 8cbe 2800 1c3e 8cd2 1bbc 3e9b eb3d
00000030: 6139 1e3e 6d88 383d d234 8fbe 0501 5fbd
00000040: 0f4a 7cbe ef53 1ebe 9a3f 20be 1ca8 013e
00000050: 7b4f d0bd 5ef4 dcbc b4fd 523e a6ef bdbe
00000060: 45ba abbd c005 8fbe abb6 02be e9e4 7fbe
00000070: e2ed 643e a886 f63d 1694 d43d 05ff b9be
00000080: f973 363d 22ae fbbd 4a2f 89bd ca6b 4dbe
00000090: 35c1 063e a2f1 1e3e 37a0 043e b293 6e3e
000000a0: efc5 8cbe 36a5 cebd 2f77 29be b4c7 123e
000000b0: af49 ccbe 9170 acbe cbde c3bd 3323 f5bd
000000c0: 57d9 88be 916a fcbc cea9 893d d8d8 73be
000000d0: de73 6e3d dc20 10be 530a 1dbc bc35 923e
000000e0: 7a71 1e3b 5567 c43b fba7 053d 4eb4 a73d
000000f0: ded3 01be e51b 0fbe 7997 86be 1e09 2ebe
00000100: e1d8 acbe c130 34be 43b4 693e 5ed6 e3bd
00000110: a33c af3d b0d8 b7bc fe01 5e3e 7b87 8ebc
00000120: a86b 30be 8d77 863d 9077 adbd a141 61be
00000130: 8b13 483e e1ea 84be 8095 a93e 005e 493e
00000140: 3ed8 4b3d c825 b93e f4e6 b33e 9ab7 bf3e
00000150: 91f4 e8bd a3bf 41be 8a89 b03e 9f07 2cbe
00000160: a94a 763e 4fbf 4c3d cacd 82bd 0d35 673c
00000170: 4eae 56be 3cbb b0bd fb3e 5f3e 6ce1 e8be
00000180: 5d95 783c 9d9a 71be 3551 5f3e 836a 0dbd
00000190: 5411 ef3d 3b7e dbbe 78ae cabd 3bae 58be
000001a0: f2e9 6b3e 053c c73d f9ac 783e ebc2 59be
000001b0: 0241 7dbe f92f a73e d8ef 803e a976 96be
000001c0: 7c6c febe 579b a9be 71d7 823d 9142 82be
000001d0: acd6 3bbd d806 38be 0b72 8f3e 0c47 ae3e
000001e0: 78c6 9cbd 4bd0 81be 6e7e c33c 25c2 e0be
000001f0: a23a 943e 837f 23be c830 883e eb47 cbbd
00000200: 8108 143d 66a4 0c3e f37f 2d3d c22c c0be
00000210: 8071 563e 7422 b7be 611a d5be eb3d 73be
00000220: ae40 013f f396 52be 79d6 b13c d15f 703e
00000230: 6c4a 13be fc51 533e 4886 b5be e474 ce3d
00000240: 034e 14bc acf2 59be 95cc 4fbe b813 ae3d
00000250: 50a6 97be ae4d da3d ee7c 5abe 4130 6ebe
00000260: 893d bb3e 4be2 a23e 2e5e 10bd 116a b1be
00000270: 1627 cabe ff77 843e 1829 e1bd 5bee 553e
00000280: eade e0be dc7c 243e 943f a1be 41cc 95be
00000290: ed71 4f3d 160d 9f3e 1b84 c13d 858c 013e
000002a0: 76b3 b43e dd38 6a3e bfb1 9ebe e2e2 e33c
000002b0: 72c3 a5be ad3f 17bd cd98 8ebd 4769 903e
000002c0: aca9 f4bc bf05 223e 856a cf3d c6df 9dbe
000002d0: 02e9 b6bc 97ba b63e 9e61 a83e e2da d03e
000002e0: 3628 f33e 3367 5bbd 82d5 893e b3f0 dd3d
000002f0: 6ccb 6dbe 00f9 fcbd cec2 673e ced7 2a3a
00000300: 5152 47be 7159 bdbd 765e bc3e 142d d5be
00000310: c38c 22bd f497 8cbe 86fc 32be 35a3 53be
00000320: ae5e 4cbe 52b8 acbe 7489 6f3d 1565 1fbe
00000330: 7c8e 88bd b42d 30bc 9e63 9cbe 1bf2 06be
00000340: 3983 2a3e ae93 00be a873 40be 12f9 993d
00000350: ad8c d7be a4cf 3cbe aaef 4d3d cea1 da3c
00000360: 7485 cebe f200 8bbe 9c1b 7c3e ca2f bd3d
00000370: 26f5 c63d 5e05 6fbe 350c 8fbe 5eb1 d43d
00000380: 0a48 e339 1596 4f3d e53b f63d 4521 45be
00000390: 960c 25be 434e b73d c791 933e c393 13bd
000003a0: e4ca 1cbe 2bee 53bd 3ead f83d c2dc 783e
000003b0: b59b 44bd 213e abbe 9180 973e 7acd a43d
000003c0: 8451 4dbc 9397 a0be 1ab5 11be b744 72be
000003d0: 63e8 bdbd e252 2fbd 6e19 8d3e 7762 9a3b
000003e0: 0763 3abd e9f4 1f3c ba5e 883e 319f c33d
000003f0: da33 113e 1e5b 24be 118f 9cbc dc92 46be

bias_ih_l0 f4 [32]
-0.05633801 0.1128691 -0.05065941 0.10815603 0.25281003 0.25030518 0.21183701 0.5940498
-0.09849443 -0.17159835 0.04238414 0.26279417 0.5144057 0.21791017 -0.30202293 0.13944623
0.006009777 -0.112921156 0.10039072 -0.23715167 -0.08632455 -0.23751508 -0.19118416 -0.33580467
0.70762914 0.2037305 -0.17424113 0.25812975 -0.26913962 0.4530308 0.28448766 0.2344454
00000000: afc2 66bd ea27 e73d 3e80 4fbd e980 dd3d
00000010: 5170 813e 0028 803e cdeb 583e a613 183f
00000020: 73b7 c9bd 7ab7 2fbe fe9a 2d3d f58c 863e
00000030: 18b0 033f d823 5f3e c0a2 9abe feca 0e3e
00000040: aaed c43b 3543 e7bd a699 cd3d e3d7 72be
00000050: edca b0bd 2737 73be c8c5 43be 97ee abbe
00000060: 2f27 353f ba9e 503e 446c 32be 9529 843e
00000070: abcc 89be a7f3 e73e 5ea8 913e 7412 703e

bias_hh_l0 f4 [32]
0.41373715 -0.08610216 0.15232454 -0.0050809407 0.07768651 0.22916122 0.059261777 -0.0012156536
0.12950566 0.4547693 -0.31186274 0.008174277 -0.08839508 0.1932949 -0.2262504 -0.18259498
-0.17972098 -0.34825456 0.18015003 -0.35411608 0.032430664 -0.45012063 -0.031333487 -0.30472586
0.5295644 0.07038448 0.2992932 0.5473022 -0.1307407 0.042639215 -0.18828706 0.015817512
00000000: 5bd5 d33e 5456 b0bd f7fa 1b3e 057e a6bb
00000010: 1b1a 9f3d 3da9 6a3e 7abc 723d 9156 9fba
00000020: 229d 043e 86d7 e83e 79ac 9fbe 67ed 053c
00000030: 7b08 b5bd 19ef 453e 2fae 67be 2efa 3abe
00000040: c708 38be 6c4e b2be 4079 383e b44e b5be
00000050: 04d6 043d 3676 e6be 8b57 00bd 0705 9cbe
00000060: 8891 073f bd25 903d f53c 993e ff1b 0c3f
00000070: e4e0 05be 75a6 2e3d 53ce 40be ba93 813c

weight_ih_l1 f4 [32, 8]
-0.121635534 0.15073565 -0.14222972 0.039142452 0.08972305 -0.08575639 0.19494212 0.11076196
0.045116507 -0.06539774 0.2768119 -0.26523486 0.06006493 -0.29073656 0.16564938 0.10711233
-0.16904436 -0.28245294 0.09753431 0.10383116 0.20699863 0.15969433 0.050462425 0.1704227
-0.20151074 0.06531887 0.31672746 0.42258707 0.4566141 0.22987647 -0.30703536 -0.16846871
-0.07479044 0.09088843 0.107842915 -0.21303312 -0.2532882 0.08388227 0.17133741 -0.036996566
0.20550822 -0.11066984 0.21524231 0.13228512 0.00658783 -0.35707685 -0.29152066 -0.18244438
-0.118683845 -0.088922195 -0.14591509 -0.15417674 0.13423695 0.15793079 0.09622492 0.1354465
0.13206863 -0.39665052 0.29113173 -0.22720483 -0.24288316 -0.110465765 0.41537485 -0.2328631
0.28660163 0.25163236 0.09976595 0.24558882 -0.1325456 0.3340211 -0.05825542 0.05429887
0.24814752 -0.23623314 0.24867186 0.27510455 -0.2385702 -0.070659675 0.032829124 0.31987944
0.1963242 -0.36404628 0.24095947 0.3167928 0.23490596 0.06509301 0.33111513 -0.14525275
-0.2724585 -0.24031684 0.002906124 0.2411852 0.1981089 0.1803099 0.019229883 -0.14791271
0.21823578 -0.105576016 -0.1117053 0.13136774 -0.28444955 0.0452045 0.32376456 0.27634227
-0.07466176 -0.015192751 -0.012211392 -0.24375671 -0.1735223 0.26018104 0.019522775 -0.24904244
-0.123477295 0.02561306 -0.13623963 0.038335845 0.26535556 -0.18622297 0.33989543 0.1171462
0.34167352 -0.022528429 0.38798505 -0.18340461 -0.3236055 0.021972645 0.19597061 -0.072040804
0.40364915 0.13489148 -0.43716776 0.35775343 0.49299452 0.2834856 0.045564972 0.2074376
0.14787559 -0.12378192 0.481286 -0.16726168 0.088294566 -0.41012195 0.3196556 -0.24892177
-0.40372282 0.24108033 -0.06374526 0.015013259 0.22905433 0.44059438 -0.046557892 -0.083329335
0.13116258 -0.46231055 0.39420512 -0.67211854 -0.24943647 0.008906573 -0.06611932 -0.19949669
-0.39112526 0.31045905 -0.21991543 -0.05789923 0.098827265 0.26382238 -0.17214721 0.48583022
0.20523101 0.21870348 -0.36790258 0.23205929 0.44145903 0.22110581 0.23232816 -0.20033142
-0.5356126 0.42981398 0.023262067 0.42593098 0.15176596 0.16956212 0.15326 -0.13817061
-0.32424217 -0.038260553 -0.0371247 -0.044445656 0.14340195 0.18130665 0.6789194 0.40013072
0.13308798 -0.19545239 0.31658703 -0.15257539 0.088762864 0.10256711 0.17005986 -0.17875504
0.12277327 -0.022721164 0.083800375 0.18150984 -0.27176765 -0.33678418 -0.2107525 -0.18374297
-0.3155059 -0.35856563 0.29604173 -0.0032758194 -0.120050855 -0.06371337 -0.1448139 0.14964494
-0.0933342 -0.16845003 -0.23321861 0.032668334 0.020842565 -0.12410307 -0.07836791 0.059667066
0.036240526 -0.4336757 0.031855125 -0.035803635 -0.0035238324 -0.26310897 -0.25655264 0.1829194
0.031065412 -0.016032442 0.24146174 -0.039339475 -0.2300487 -0.09560893 0.08125778 -0.040504094
-0.004513023 -0.24555412 -0.045910317 0.29642424 -0.07519582 0.061678965 0.027037894 -0.17114083
0.008283044 -0.15058196 0.14227043 -0.22895285 -0.16552375 -0.08244969 0.37130222 -0.19027553
00000000: 0d1c f9bd 725a 1a3e aba4 11be d653 203d
00000010: b8c0 b73d 0ca1 afbd e89e 473e 2bd7 e23d
00000020: 16cc 383d 40ef 85bd 4aba 8d3e ddcc 87be
00000030: a506 763d 6cdb 94be fe9f 293e b65d db3d
00000040: f719 2dbe ac9d 90be 11c0 c73d 6ea5 d43d
00000050: 73f7 533e e986 233e b0b1 4e3d 4a83 2e3e
00000060: d558 4ebe e6c5 853d 1a2a a23e 555d d83e
00000070: 53c9 e93e bd64 6b3e bd33 9dbe 1083 2cbe
00000080: bb2b 99bd b723 ba3d bfdc dc3d 5b25 5abe
00000090: feae 81be 78ca ab3d 1373 2f3e b689 17bd
000000a0: bf70 523e dea6 e2bd 7b68 5c3e c075 073e
000000b0: b9de d73b c7d2 b6be 3242 95be b3d2 3abe
000000c0: 8410 f3bd d71c b6bd c46a 15be 82e0 1dbe
000000d0: 6975 093e 9cb8 213e 9211 c53d 7db2 0a3e
000000e0: 003d 073e c715 cbbe 380f 953e 62a8 68be
000000f0: 5db6 78be e03b e2bd 03ac d43e aa73 6ebe
00000100: 73bd 923e f5d5 803e 1752 cc3d a37b 7b3e
00000110: 09ba 07be d004 ab3e 3c9d 6ebd 7e68 5e3d
00000120: 621a 7e3e 1ae7 71be d6a3 7e3e 81da 8c3e
00000130: bf4b 74be 05b6 90bd d577 063d 3dc7 a33e
00000140: 3609 493e 4664 babe 14be 763e aa32 a23e
00000150: 308b 703e 7c4f 853d ec87 a93e 23bd 14be
00000160: ae7f 8bbe 9e15 76be ac74 3e3b 41f9 763e
00000170: 0fdd 4a3e 29a3 383e fd87 9d3c 6e76 17be
00000180: 3379 5f3e 3d38 d8bd c0c5 e4bd 4485 063e
00000190: 5fa3 91be 5b28 393d 78c4 a53e bc7c 8d3e
000001a0: 44e8 98bd 04eb 78bc 4a12 48bc 5c9b 79be
000001b0: d4af 31be 7336 853e 3aee 9f3c fb04 7fbe
000001c0: aae1 fcbd 7bd2 d13c 6782 0bbe 0c06 1d3d
000001d0: afdc 873e 3cb1 3ebe c606 ae3e 59ea ef3d
000001e0: d5ef ae3e 8a8d b8bc faa5 c63e 6bce 3bbe
000001f0: 9faf a5be faff b33c 85ac 483e 218a 93bd
00000200: 1aab ce3e fe20 0a3e 74d4 dfbe 752b b73e
00000210: c769 fc3e 0625 913e 56a2 3a3d 866a 543e
00000220: b36c 173e 6081 fdbd 1e6b f63e a546 2bbe
00000230: c8d3 b43d 81fb d1be e6a9 a33e 59e5 7ebe
00000240: c2b4 cebe c3dd 763e e08c 82bd 2cfa 753c
00000250: 388d 6a3e 9695 e13e 7db3 3ebd 92a8 aabd
00000260: 7c4f 063e f8b3 ecbe 41d5 c93e f60f 2cbf
00000270: 466c 7fbe e0ec 113c 9169 87bd dc48 4cbe
00000280: 9241 c8be 7df4 9e3e 8331 61be be27 6dbd
00000290: f365 ca3d ba13 873e 5c47 30be bdbe f83e
000002a0: 1428 523e cef3 5f3e ba5d bcbe f3a0 6d3e
000002b0: eb06 e23e 9069 623e 6fe7 6d3e ae23 4dbe
000002c0: e81d 09bf 9410 dc3e 1790 be3c a013 da3e
000002d0: 8968 1b3e b1a1 2d3e 30f0 1c3e 997c 0dbe
000002e0: 1203 a6be 19b7 1cbd 1210 18bd a60c 36bd
000002f0: f6d7 123e 73a8 393e a9cd 2d3f efdd cc3e
00000300: 3748 083e ac24 48be b217 a23e b93c 1cbe
00000310: 4ec9 b53d b40e d23d 2c24 2e3e 900b 37be
00000320: 8d70 fb3d bc21 babc 889f ab3d b7dd 393e
00000330: 2125 8bbe fa6e acbe 81cf 57be 1e27 3cbe
00000340: fd89 a1be ea95 b7be c892 973e 21af 56bb
00000350: 39dd f5bd 287c 82bd 184a 14be 863c 193e
00000360: 0026 bfbd 2a7e 2cbe dcd0 6ebe 3bcf 053d
00000370: 07be aa3c c029 febd 5b7f a0bd 7465 743d
00000380: f270 143d be0a debe 857a 023d d5a6 12bd
00000390: 19f0 66bb 38b6 86be de5a 83be 394f 3b3e
000003a0: e47c fe3c 7856 83bc bf41 773e 6e22 21bd
000003b0: e391 6bbe 9dce c3bd 7b6a a63d 9fe7 25bd
000003c0: fbe1 93bb 8a72 7bbe 750c 3cbd ebc4 973e
000003d0: 4400 9abd 15a3 7c3d 937e dd3c 8b3f 2fbe
000003e0: 9bb5 073c 2832 1abe 57af 113e 9e72 6abe
000003f0: 0f7f 29be 62db a8bd 531b be3e 97d7 42be

weight_hh_l1 f4 [32, 8]
0.14218621 -0.14926769 0.12562832 -0.27515045 0.017979449 -0.27983236 -0.09957129 -0.11139292
0.31093833 0.23862538 0.061916903 -0.11622202 0.2698694 0.11177904 -0.19078602 -0.16760331
0.27035716 0.27419993 0.27305475 0.0618236 -0.05270592 0.26165 0.33956698 0.2464267
-0.15437348 -0.17298952 -0.13403368 -0.12528266 -0.309464 -0.08139242 -0.21072121 -0.386984
-0.09421215 0.2618782 -0.11229322 -0.25910035 0.23971699 0.23769298 -0.1770921 0.045501355
-0.12662867 -0.060395718 -0.13782124 -0.29741594 -0.1878427 -0.08964435 0.061612718 0.14475162
0.18923494 0.11090646 -0.24133688 -0.036663413 -0.024041845 -0.05859071 -0.08888886 0.047058407
-0.22838734 0.13632007 0.0172462 -0.023168497 0.12282265 -0.20409685 0.05267808 -0.06459616
0.03575118 -0.22243376 0.24544576 0.13768561 -0.24750833 -0.23429109 -0.043547347 0.21330951
0.15562032 -0.25551084 -0.114300564 -0.0776531 -0.02057277 0.001655631 -0.27280045 -0.044535346
-0.04671602 -0.25162178 -0.17786716 -0.1407191 0.38124824 0.05948424 -0.1183524 0.40743956
0.033191547 -0.14787027 -0.037538238 -0.20002466 0.00031773513 -0.098569594 -0.114421435 0.087588154
0.011687591 0.11107674 0.18210532 -0.29642054 0.052309677 -0.11616607 -0.16338108 0.16788757
-0.031535663 -0.06988301 0.21734986 -0.13835227 0.17643964 0.29309958 0.23204288 -0.007031304
0.20608683 -0.022171963 0.19995695 -0.11923965 0.21073727 0.079201415 -0.0004427369 -0.049365588
-0.024837274 -0.12031897 0.21642222 -0.1780217 -0.13909587 0.15027556 -0.06646111 0.06287011
0.116288505 -0.3260656 0.3754722 -0.17193331 0.1438774 0.08293727 -0.22946215 -0.17509788
-0.13868684 0.037771918 0.14930274 -0.2678915 -0.24426804 -0.039882936 -0.08364168 -0.08489596
-0.079992786 0.041524738 -0.047768466 0.12820567 0.19537346 0.13360819 0.08483303 0.24046683
-0.018563911 0.29550275 -0.33510256 0.19401549 -0.03029057 -0.1789542 0.18403015 -0.20384027
-0.07834699 -0.12398222 0.2000465 0.3501279 -0.26336288 0.08927078 0.2103062 0.36017522
0.19967741 -0.19247086 -0.06605224 0.17083299 -0.33736914 -0.183188 -0.28856954 -0.029441886
-0.3073363 -0.1644225 -0.20033196 0.098363996 0.1955369 0.15147628 -0.07724448 -0.010976932
-0.08985961 -0.083265714 -0.15807354 0.0072961412 0.31082857 -0.07030864 -0.21044794 0.064605236
-0.0699459 -0.04075986 0.12200447 0.08924239 -0.03488539 -0.070195965 -0.06186595 -0.397354
0.20801763 0.35354638 0.063440956 0.24697179 0.17207208 -0.121782236 -0.08897003 -0.11361268
-0.11246312 -0.13485846 0.097060114 -0.09207008 -0.132923 0.18230303 0.2803956 0.20784982
-0.24451765 0.26709408 -0.32737693 0.22811557 -0.22916728 -0.26512018 0.24616289 0.06616071
0.06785172 0.2878089 -0.22739285 0.2510654 -0.044056937 -0.35905287 0.062931694 0.019004108
-0.04248193 -0.057777133 0.014463966 0.16396645 0.043790177 -0.015202009 -0.21230686 0.00907046
0.07278899 -0.123928 -0.26159835 -0.024264963 0.12381105 -0.2965568 0.03649807 0.16838948
-0.17071933 -0.18417147 -0.25194752 0.11275424 -0.03715917 -0.0127942525 0.09592327 0.14002968
00000000: 4399 113e a1d9 18be b6a4 003e 85e0 8cbe
00000010: a349 933c 3046 8fbe 08ec cbbd f921 e4bd
00000020: 4f33 9f3e 365a 743e 949c 7d3d cf05 eebd
00000030: 522c 8a3e 69ec e43d 695d 43be 34a0 2bbe
00000040: 416c 8a3e ef63 8c3e d5cd 8b3e be3a 7d3d
00000050: 2ae2 57bd fdf6 853e b9db ad3e 4857 7c3e
00000060: 1514 1ebe 2a24 31be 2040 09be 194a 00be
00000070: 1172 9ebe 12b1 a6bd 4dc7 57be c422 c6be
00000080: 4df2 c0bd e614 863e fdf9 e5bd cda8 84be
00000090: 5f78 753e ca65 733e a257 35be a15f 3a3d
000000a0: f2aa 01be 8061 77bd 0321 0dbe e746 98be
000000b0: d659 40be 7597 b7bd 9e5d 7c3d c539 143e
000000c0: cec6 413e ed22 e33d 0421 77be 602c 16bd
000000d0: 67f3 c4bc d0fc 6fbd 5d0b b6bd 51c0 403d
000000e0: 5fde 69be 7d97 0b3e e747 8d3c dccb bdbc
000000f0: 718a fb3d c4fe 50be f8c4 573d fe4a 84bd
00000100: d46f 123d adc5 63be 2256 7b3e 75fd 0c3e
00000110: d372 7dbe 01ea 6fbe b45e 32bd cf6d 5a3e
00000120: ef5a 1f3e 51d2 82be 6a16 eabd 9708 9fbd
00000130: 3a88 a8bc c201 d93a 80ac 8bbe b26a 36bd
00000140: 4c59 3fbd 92d4 80be cf22 36be ab18 10be
00000150: f832 c33e bfa5 733d be62 f2bd eb9b d03e
00000160: dcf3 073d 4e6b 17be b2c1 19bd 44d3 4cbe
00000170: b095 a639 dbde c9bd c955 eabd 6b61 b33d
00000180: 4f7d 3f3c 347c e33d d179 3a3e 6fc4 97be
00000190: ac42 563d 7ae8 edbd 5f4d 27be b8ea 2b3e
000001a0: 8a2b 01bd d31e 8fbd f690 5e3e 38ac 0dbe
000001b0: 98ac 343e 2611 963e a69c 6d3e da66 e6bb
000001c0: 6d08 533e faa1 b5bc 84c1 4c3e eb33 f4bd
000001d0: 83cb 573e 5a34 a23d 241f e8b9 9233 4abd
000001e0: 8a77 cbbc cb69 f6bd c99d 5d3e 524b 36be
000001f0: 266f 0ebe d6e1 193e c31c 88bd 0bc2 803d
00000200: ab28 ee3d 12f2 a6be e43d c03e 490f 30be
00000210: 9954 133e 04db a93d 20f8 6abe dc4c 33be
00000220: ec03 0ebe bab6 1a3d d1e2 183e 1329 89be
00000230: 6721 7abe 4a5c 23bd 544c abbd efdd adbd
00000240: 42d3 a3bd d815 2a3d dea8 43bd 5948 033e
00000250: fb0f 483e 96d0 083e f1bc ad3d f03c 763e
00000260: 5813 98bc 234c 973e 9092 abbe ffab 463e
00000270: ee23 f8bc c53f 37be 6672 3c3e 81bb 50be
00000280: 6374 a0bd 64ea fdbd fdd8 4c3e f743 b33e
00000290: 80d7 86be 99d3 b63d 825a 573e e368 b83e
000002a0: 3c78 4c3e 1517 45be 6646 87bd d8ee 2e3e
000002b0: a6bb acbe a395 3bbe 63bf 93be 1c30 f1bc
000002c0: 2f5b 9dbe 5f5e 28be d223 4dbe 1073 c93d
000002d0: d33a 483e 991c 1b3e 5b32 9ebd 97d8 33bc
000002e0: 5108 b8bd 3787 aabd 08de 21be 7814 ef3b
000002f0: ec24 9f3e fafd 8fbd aa7f 57be c04f 843d
00000300: cc3f 8fbd d0f3 26bd 7bdd f93d b7c4 b63d
00000310: fce3 0ebd e7c2 8fbd 2667 7dbd fc71 cbbe
00000320: 9302 553e 0804 b53e 55ed 813d 2ce6 7c3e
00000330: aa33 303e f768 f9bd eb35 b6bd c4ad e8bd
00000340: 1053 e6bd 5618 0abe 74c7 c63d 3d8f bcbd
00000350: f81c 08be a5ad 3a3e 0390 8f3e 95d6 543e
00000360: d662 7abe 8ec0 883e f39d a7be 2197 693e
00000370: d4aa 6abe d5bd 87be 2012 7c3e 447f 873d
00000380: d8f5 8a3d b05b 933e acd9 68be a58b 803e
00000390: 0c75 34bd c7d5 b7be 55e2 803d 81ae 9b3c
000003a0: 8801 2ebd b7a7 6cbd 45fa 6c3c d2e6 273e
000003b0: 545d 333d d911 79bc f866 59be 449c 143c
000003c0: 6512 953d f7cd fdbd 38f0 85be 51c7 c6bc
000003d0: a690 fd3d 4bd6 97be 007f 153d 4b6e 2c3e
000003e0: 0cd1 2ebe 7297 3cbe 44ff 80be b2eb e63d
000003f0: 3734 18bd fc9e 51bc 6b73 c43d f163 0f3e

bias_ih_l1 f4 [32]
0.4065602 0.1517717 -0.010162706 -0.115036406 -0.2614649 0.015798103 0.14845195 -0.07068929
-0.16205898 0.007882002 0.29163295 0.053415563 0.26122788 0.296382 -0.08923237 0.14729317
-0.1888968 0.120699696 -0.22194561 0.13980247 -0.010324697 -0.31704327 -0.1171405 -0.18428965
0.09743034 -0.014393194 0.3946865 0.5889832 0.0058348305 0.09553738 0.056231562 0.03884226
00000000: a928 d03e 0a6a 1b3e 7a81 26bc 3598 ebbd
00000010: bade 85be 066b 813c ca03 183e 8cc5 90bd
00000020: caf2 25be 8323 013c ea50 953e 47ca 5a3d
00000030: a9bf 853e 62bf 973e 76bf b6bd 05d4 163e
00000040: 2a6e 41be 6731 f73d b645 63be 6128 0f3e
00000050: eb28 29bc 7f53 a2be 5ce7 efbd 6db6 3cbe
00000060: 8f89 c73d 6ed1 6bbc 5914 ca3e 9ac7 163f
00000070: 1b32 bf3b 1aa9 c33d 1153 663d 1019 1f3d

bias_hh_l1 f4 [32]
0.12310573 -0.007125961 0.28072056 0.07957906 0.06498236 0.45217323 0.20640896 -0.08276014
-0.16422263 0.31193697 0.009349274 -0.15911159 0.13453431 0.16448574 0.2555076 0.0021828206
0.17647645 0.17738494 -0.08615738 -0.0050371494 0.15326905 -0.36059952 0.29758775 -0.018369162
0.13703477 0.041212656 0.17262346 0.05695376 0.029285358 -0.22092107 -0.07375409 -0.058958046
00000000: db1e fc3d e580 e9bb 9bba 8f3e 59fa a23d
00000010: 7915 853d 4083 e73e df5c 533e 267e a9bd
00000020: fa29 28be 34b6 9f3e b32d 193c 26ee 22be
00000030: 5dc3 093e f36e 283e e4d1 823e a70d 0f3b
00000040: 3eb6 343e 66a4 353e 4873 b0bd ac0e a5bb
00000050: 90f2 1c3e 80a0 b8be 6c5d 983e ed7a 96bc
00000060: d852 0c3e 9ace 283d 34c4 303e 5948 693d
00000070: d9e7 ef3c 2239 62be 620c 97bd fe7d 71bd

weight_ih_l0 f4 [32, 22]
0.2145071 -0.012558815 0.19729903 -0.008236158 -0.104359575 0.07244104 0.05867818 -0.1335965
0.24077894 0.18072407 -0.1293053 0.08638507 0.060361605 0.03717981 0.4000578 0.20300259
0.08097207 0.079139836 -0.03035649 0.22844946 0.008007706 -0.24740924 0.03412132 0.08369382
0.041789107 0.024641864 -0.10538237 -0.4563561 0.022285242 -0.20552167 -0.019814223 -0.09391489
-0.23153931 0.08100294 0.19264176 -0.3189834 -0.042158645 -0.015591778 -0.25536844 -0.3215405
-0.07868155 -0.28195566 -0.081001416 -0.14427587 -0.2440208 0.12674658 -0.37171164 -0.037269585
-0.3024372 0.071165465 -0.069108576 -0.04297953 -0.11574576 0.022254286 0.12154914 -0.43456733
-0.2541761 -0.2524455 -0.06478667 -0.45262998 -0.23198108 -0.1729448 0.17338137 -0.39190233
-0.23620507 -0.3634043 -0.013873735 -0.08125543 -0.07695408 -0.11406905 0.12953106 0.0540037
0.21532127 -0.021308443 0.20742497 0.2029951 0.4976327 0.048142254 0.04675413 -0.18931568
0.34606707 0.41221318 0.25878254 -0.21866739 -0.034057323 0.11307174 0.019881556 0.10192382
-0.13429041 0.2394858 -0.24854738 0.17369398 -0.12471855 -0.34514633 0.04533458 -0.21317546
0.2968983 0.2246268 0.071523726 0.2120734 0.26752025 -0.07040454 0.29181093 0.072316155
0.48048177 0.18284473 0.072816886 0.24276951 -0.29886812 -0.3154797 0.022284823 -0.006054441
-0.066593744 0.07275631 0.0027613975 -0.015449069 0.032743737 0.02877164 0.07955632 -0.007464908
-0.00083943154 0.040446427 -0.1852327 -0.2797182 -0.1623303 -0.11659175 0.015679695 -0.14991164
0.2148709 -0.17891817 -0.05314784 -0.07014061 0.21301241 -0.119928256 -0.20760527 -0.037001148
-0.0076337475 -0.10627804 0.08553456 0.054707326 0.38564596 -0.018039718 -0.15770516 -0.25527734
-0.065615326 0.14058895 -0.23241065 0.15592496 0.16958733 -0.36736134 0.30407485 0.23482606
0.31087387 0.18198265 -0.2693668 0.2754422 -0.41927028 0.05585301 -0.39613718 -0.38243663
-0.18544814 -0.3513069 -0.3821378 0.16381213 0.1188143 -0.37937352 -0.16705613 -0.22777258
0.0052447156 -0.2124825 -0.020278646 -0.011650648 0.4780567 0.08351157 -0.44903964 -0.34821376
0.1829583 -0.067028016 0.29834887 -0.22873777 0.08924113 0.0914696 0.063204266 0.07617149
0.16479082 0.10918401 0.33478305 -0.026611494 0.002269144 0.163083 0.27772483 0.07865092
-0.09743947 0.1522666 -0.02789509 -0.08064601 0.19520247 -0.058813676 -0.14460626 0.16298448
0.1477993 -0.22053315 0.17540084 -0.12518227 0.020222249 -0.0013812521 0.19866584 -0.2526962
0.16116603 0.5069491 0.0006824843 0.31333366 -0.17183165 0.01640807 0.22060125 0.35522562
-0.15221176 -0.15627502 0.44149658 0.73070765 0.078929745 -0.006911584 -0.2729542 0.07144949
-0.073718704 -0.08039336 -0.10961356 -0.07197888 -0.13177623 0.32238227 0.15976433 0.3831646
-0.12498265 -0.047176957 0.110708505 0.29835027 -0.06781392 -0.04817722 -0.19141951 -0.10643603
0.14661564 0.34610477 -0.0763202 -0.16570047 0.18011266 0.19351684 -0.071376756 -0.031287525
-0.24726875 -0.1677273 0.3844413 0.11754306 0.16394214 0.31994507 0.19024763 0.2877899
00000000: c0a7 5b3e 7dc3 4dbc c208 4a3e f3f0 06bc
00000010: 79ba d5bd f85b 943d 8858 703d 85cd 08be
00000020: c18e 763e bb0f 393e 9c68 04be a8ea b03d
00000030: bb3d 773d db49 183d 60d4 cc3e e9df 4f3e
00000040: afd4 a53d 1114 a23d 2cae f8bc a8ee 693e
00000050: c132 033c d958 7dbe ccc2 0b3d aa67 ab3d
00000060: 0e2b 2b3d bcdd c93c b6d2 d7bd 82a7 e9be
00000070: 8a8f b63c 4674 52be 7051 a2bc 7356 c0bd
00000080: a418 6dbe dfe4 a53d e243 453e cb51 a3be
00000090: 8bae 2cbd a874 7fbc a7bf 82be f5a0 a4be
000000a0: cb23 a1bd 7e5c 90be 12e4 a5bd 0ebd 13be
000000b0: 97e0 79be dbc9 013e fd50 bebe fea7 18bd
000000c0: 0cd9 9abe 33bf 913d cc88 8dbd 4e0b 30bd
000000d0: 1d0c edbd 9f4e b63c c1ee f83d 9c7f debe
000000e0: 5f23 82be 8940 81be e0ae 84bd 1ebf e7be
000000f0: 738c 6dbe 7118 31be e38a 313e 6ca7 c8be
00000100: bedf 71be 2110 babe aa4e 63bc 3f69 a6bd
00000110: 1a9a 9dbd 099d e9bd caa3 043e fc32 5d3d
00000120: 2e7d 5c3e 0b8f aebc 3667 543e f3dd 4f3e
00000130: b7c9 fe3e d030 453d 4281 3f3d f8db 41be
00000140: b42f b13e 9b0d d33e 257f 843e 58ea 5fbe
00000150: b17f 0bbd 2892 e73d a5de a23c 70bd d03d
00000160: 6d83 09be c43b 753e 3483 7ebe d6dc 313e
00000170: 706c ffbd 05b7 b0be c1b0 393d ab4a 5abe
00000180: 0e03 983e 9104 663e 087b 923d c529 593e
00000190: 6af8 883e 4130 90bd 3e68 953e 7e1a 943d
000001a0: b501 f63e a63b 3b3e 0521 953d 9298 783e
000001b0: 3e05 99be 8e86 a1be a98e b63c 5564 c6bb
000001c0: 4d62 88bd 4301 953d 90f8 343b 181e 7dbc
000001d0: 4c1e 063d 81b2 eb3c 6dee a23d 309c f4bb
000001e0: 4c0d 5cba 27ab 253d a4ad 3dbe 3937 8fbe
000001f0: ea39 26be a8c7 eebd b472 803c 7082 19be
00000200: 1e07 5c3e 5336 37be 8db1 59bd e1a5 8fbd
00000210: ed1f 5a3e f29c f5bd 7a96 54be 848e 17bd
00000220: 8424 fabb 4da8 d9bd be2c af3d ca14 603d
00000230: 6373 c53e 08c8 93bc 767d 21be b6b3 82be
00000240: 5461 86bd 8df6 0f3e 0ffd 6dbe cbaa 1f3e
00000250: 4da8 2d3e c916 bcbe b3af 9b3e 3e76 703e
00000260: dc2a 9f3e a959 3a3e 72ea 89be c306 8d3e
00000270: 98aa d6be 20c6 643d 7ed2 cabe bcce c3be
00000280: 1ee6 3dbe 7fde b3be 91a7 c3be 5ebe 273e
00000290: e954 f33d 3f3d c2be c310 2bbe 373d 69be
000002a0: dddb ab3b 0395 59be 671f a6bc 5ce2 3ebc
000002b0: d9c3 f43e 1d08 ab3d 86e8 e5be 1349 b2be
000002c0: 6c59 3b3e fc45 89bd 2fc1 983e 3c3a 6abe
000002d0: 0ec4 b63d 6a54 bb3d 3d71 813d ccff 9b3d
000002e0: edbe 283e de9b df3d af68 ab3e 5900 dabc
000002f0: ebb5 143b 3bff 263e f331 8e3e bc13 a13d
00000300: 588e c7bd c7eb 1b3e 3e84 e4bc bc29 a5bd
00000310: 28e3 473e 9ce6 70bd aa13 14be 67e5 263e
00000320: b358 173e 71d3 61be 479c 333e c82f 00be
00000330: 21a9 a53c 210b b5ba 0f6f 4b3e 6561 81be
00000340: b508 253e 6bc7 013f bfe8 323a 456d a03e
00000350: a3f4 2fbe 386a 863c 4be5 613e 22e0 b53e
00000360: 66dd 1bbe 8f06 20be d70b e23e a80f 3b3f
00000370: eba5 a13d 927a e2bb a7c0 8bbe 1c54 923d
00000380: d5f9 96bd 46a5 a4bd 137d e0bd aa69 93bd
00000390: 59f0 06be 4a0f a53e 4399 233e 272e c43e
000003a0: e7f6 ffbd a03c 41bd 24bb e23d 5ec1 983e
000003b0: 06e2 8abd 7a55 45bd 7a03 44be 22fb d9bd
000003c0: 6922 163e a534 b13e c44d 9cbd 62ad 29be
000003d0: 746f 383e 4729 463e fa2d 92bd 5927 00bd
000003e0: 0534 7dbe b5c0 2bbe 7dd5 c43e 6aba f03d
000003f0: 73e0 273e d7cf a33e 46d0 423e 3359 933e

weight_hh_l0 f4 [32, 8]
0.20998386 -0.18664931 -0.19062166 -0.058326866 0.09479939 -0.19120133 0.082032 -0.1702026
-0.17546093 -0.29772753 -0.2568736 -0.28661194 0.024140904 -0.10048077 -0.22867136 0.012956136
-0.3776602 -0.24449691 -0.3820202 -0.10404563 -0.29978523 -0.27276453 0.11573575 0.02223413
-0.66885364 -0.23223972 -0.383723 0.18058492 -0.024194887 -0.21209744 0.33011785 0.18218133
-0.4483409 -0.17058949 -0.18334077 0.29787424 0.50811154 0.15187278 -0.05344932 0.15279245
-0.14805909 -0.13732228 -0.11980189 -0.10541239 0.053116582 -0.0021847002 0.026105067 -0.0036343837
0.10207133 -0.0774137 0.266843 -0.19622709 -0.052326094 -0.4845045 -0.035689186 -0.27089235
-0.06981608 -0.21070527 -0.12564915 -0.2051796 -0.30768967 0.00022838303 0.0554933 -0.030314371
0.17024104 -0.11147737 0.029191123 -0.08980026 0.04777061 0.16729653 -0.045619383 0.010782132
0.20036374 0.13776356 -0.18479376 0.0322136 -0.17411953 0.35898858 -0.09323233 -0.00042328367
0.2507338 -0.19564109 0.051362142 -0.34926623 0.06185363 0.17415239 0.004020836 -0.3008303
-0.17606091 -0.1657876 -0.12828399 -0.12996818 -0.15780711 -0.26819015 -0.12870096 -0.005774699
0.22093801 0.27594268 0.199952 -0.19827475 -0.14675573 -0.41588384 0.127955 0.0075621665
0.099060796 0.13308734 0.3292349 -0.16762932 0.11069318 0.2510904 -0.11280143 -0.24707814
0.11613864 -0.35739905 0.10521385 0.088121 -0.073561266 -0.021140566 0.014224916 -0.33845934
0.4010073 0.28793406 0.34581247 -0.12002856 0.060761314 -0.2959252 -0.15335391 -0.27098677
0.022666056 0.4002442 -0.07507237 0.2602882 0.5722249 0.35057256 0.22493319 0.03282979
-0.60446966 -0.012400625 -0.18682826 0.3981723 0.07868885 -0.037848145 -0.026767023 0.2142129
0.21235496 -0.21671194 0.11822402 -0.24016744 -0.23479137 0.05781274 -0.2134678 0.11578774
-0.55466616 0.17971125 -0.12454148 0.18027794 0.21046352 0.078205705 -0.14523739 0.11941872
0.012921547 -0.39496702 0.4976561 -0.5691742 -0.46315596 -0.15392573 -0.47301048 -0.09068123
-0.34501928 -0.103917904 -0.40099984 -0.1476708 0.14907026 -0.13369578 -0.2735353 0.2690996
-0.21130645 -0.033379704 -0.28429887 0.322357 0.21589921 0.04263804 0.3277307 -0.09133059
-0.14392076 -0.30136165 0.15181284 0.2326127 0.5011983 0.007105288 0.20536476 0.5104403
0.3219682 -0.04754226 0.061338056 -0.21533239 0.2849209 -0.018607153 -0.10166972 -0.17355649
0.056798525 -0.29056302 -0.22353204 -0.3935121 0.09047117 -0.25762957 -0.11216399 -0.25844648
0.06412555 -0.42867985 0.09189895 -0.42154786 -0.21422544 -0.28961092 -0.024515046 -0.03550517
0.20097336 0.092131294 0.03581314 -0.08639945 0.12689136 -0.4644751 -0.22256693 0.048855416
-0.3532176 -0.07752751 -0.059655935 0.12314433 0.22212525 -0.082009405 -0.12582025 0.15272087
0.18874039 0.124905825 0.35625902 0.157312 -0.013211497 0.03803271 -0.149908 -0.1449798
-0.2001572 -0.2533158 0.0018638803 -0.15946506 0.034800846 -0.21142517 -0.17031993 -0.4233908
0.06630738 -0.15551655 0.288176 -0.21716268 -0.22286172 -0.7435069 -0.35325095 -0.38946262
00000000: 0206 573e ff20 3fbe 5332 43be 27e8 6ebd
00000010: 2f26 c23d 48ca 43be 6500 a83d 9749 2ebe
00000020: 08ac 33be be6f 98be f084 83be cdbe 92be
00000030: 25c3 c53c ddc8 cdbd d328 6abe f945 543c
00000040: ae5c c1be 665d 7abe 2798 c3be e015 d5bd
00000050: 737d 99be cba7 8bbe dd06 ed3d 5a24 b63c
00000060: fe39 2bbf 40d0 6dbe 5777 c4be 41eb 383e
00000070: 5b34 c6bc 1230 59be 3505 a93e be8d 3a3e
00000080: f08c e5be 03af 2ebe afbd 3bbe f982 983e
00000090: 9913 023f 8a84 1b3e aded 5abd a075 1c3e
000000a0: cd9c 17be 369e 0cbe b15a f5bd 73e2 d7bd
000000b0: c690 593d 302d 0fbb 4bda d53c d72e 6ebb
000000c0: c60a d13d 138b 9ebd a59f 883e c1ef 48be
000000d0: e353 56bd f910 f8be d32e 12bd 67b2 8abe
000000e0: bcfb 8ebd 1fc3 57be 2caa 00be 9a1a 52be
000000f0: 8089 9dbe 1a7a 6f39 f14c 633d d855 f8bc
00000100: ab53 2e3e 3f4e e4bd 3922 ef3c 33e9 b7bd
00000110: 1dab 433d c84f 2b3e 64db 3abd 8aa7 303c
00000120: 272c 4d3e e411 0d3e 933a 3dbe 68f2 033d
00000130: 644c 32be 5acd b73e 98f0 bebd 2cec ddb9
00000140: 2e60 803e 2356 48be 1c61 523d 06d3 b2be
00000150: 3b5a 7d3d 0155 323e 38c1 833b 6e06 9abe
00000160: 5049 34be 3ac4 29be e15c 03be 6116 05be
00000170: 3098 21be 3850 89be 2fca 03be b039 bdbb
00000180: 933d 623e 5c48 8d3e 38c0 4c3e 8908 4bbe
00000190: 2247 16be baee d4be a306 033e 0dcc f73b
000001a0: 63e0 ca3d 0c48 083e 7a91 a83e 05a7 2bbe
000001b0: 1bb3 e23d ec8e 803e 7004 e7bd 0d02 7dbe
000001c0: 18da ed3d 02fd b6be 5c7a d73d c878 b43d
000001d0: 4aa7 96bd fb2e adbc 9f0f 693c 8b4a adbe
000001e0: d450 cd3e 186c 933e 550e b13e 89d1 f5bd
000001f0: dbe0 783d 8283 97be cf08 1dbe c7be 8abe
00000200: 2aae b93c cfec cc3e 8bbf 99bd 7f44 853e
00000210: 557d 123f 3f7e b33e e354 663e 8878 063d
00000220: 86be 1abf fe2b 4bbc e84f 3fbe 3ddd cb3e
00000230: 9f27 a13d a806 1bbd 8446 dbbc a05a 5b3e
00000240: 9473 593e bce9 5dbe 6f1f f23d 74ee 75be
00000250: 266d 70be 0dcd 6c3d 4e97 5abe 1f22 ed3d
00000260: 9afe 0dbf 3a06 383e 9a0f ffbd c89a 383e
00000270: c083 573e 502a a03d 1cb9 14be cd91 f43d
00000280: e5b4 533c 1e39 cabe c8cc fe3e 66b5 11bf
00000290: c722 edbe b59e 1dbe 6e2e f2be 15b7 b9bd
000002a0: 5ea6 b0be e9d2 d4bd da4f cdbe 0437 17be
000002b0: e0a5 183e 8ce7 08be d20c 8cbe 6cc7 893e
000002c0: b860 58be 28b9 08bd 9f8f 91be fa0b a53e
000002d0: af14 5d3e 3aa5 2e3d 51cc a73e 880b bbbd
000002e0: f75f 13be 134c 9abe d374 1b3e 0632 6e3e
000002f0: 884e 003f 7ad3 e83b 244b 523e 37ac 023f
00000300: 04d9 a43e acbb 42bd 9d3d 7b3d 1880 5cbe
00000310: 27e1 913e 076e 98bc 3738 d0bd cbb8 31be
00000320: 92a5 683d adc4 94be 95e5 64be 6b7a c9be
00000330: f348 b93d 06e8 83be 3cb6 e5bd 1953 84be
00000340: 4254 833d ed7b dbbe 8435 bc3d 1fd5 d7be
00000350: ea5d 5bbe e247 94be c7d3 c8bc de6d 11bd
00000360: f6cb 4d3e 55af bc3d cdb0 123d 32f2 b0bd
00000370: cfef 013e aecf edbe 96e8 63be 9e1c 483d
00000380: f0d8 b4be bec6 9ebd c859 74bd 1833 fc3d
00000390: cd74 633e 8cf4 a7bd 06d7 00be dc62 1c3e
000003a0: 2945 413e a0ce ff3d 9567 b63e 6616 213e
000003b0: 0975 58bc 30c8 1b3d 7c81 19be 9675 14be
000003c0: 02f6 4cbe 9cb2 81be 724d f43a cf4a 23be
000003d0: 558b 0e3d d77f 58be 5968 2ebe aec6 d8be
000003e0: 2acc 873d bb3f 1fbe ce8b 933e e55f 5ebe
000003f0: dd35 64be 7856 3ebf 4fdd b4be a567 c7be

bias_ih_l0 f4 [32]
0.05474621 0.2678763 0.029879604 0.14026752 0.37598696 -0.18728557 0.1380795 -0.08283624
-0.41223186 0.0065097143 0.30624214 0.22428355 -0.26014692 -0.1848604 0.0041441014 0.36294198
-0.21152483 0.122363895 -0.25714236 -0.29304835 0.43425688 0.025488999 -0.36353 -0.14735043
0.16047838 0.651292 0.089278735 0.008127051 0.07804429 -0.048213672 0.06691791 0.8589653
00000000: 903d 603d 1527 893e 12c6 f43c 4aa2 0f3e
00000010: 5d81 c03e cac7 3fbe b664 0d3e 0ca6 a9bd
00000020: 0e10 d3be 714f d53b c5cb 9c3e 96aa 653e
00000030: fa31 85be 0b4c 3dbe 3ecb 873b 88d3 b93e
00000040: f799 58be ec99 fa3d 2aa8 83be 6f0a 96be
00000050: eb56 de3e 4ece d03c 9b20 babe 08e3 16be
00000060: 7254 243e 13bb 263f c5d7 b63d 5327 053c
00000070: afd5 9f3d b37b 45bd 420c 893d 26e5 5b3f

bias_hh_l0 f4 [32]
0.24336925 0.57940906 -0.0067449263 0.070077196 0.50429046 0.21337023 0.19798423 0.27720526
-0.18114913 0.10511131 0.09929058 0.43260568 -0.50064325 0.388284 -0.12516157 0.22570753
-0.04327445 0.042760517 0.20904338 0.1385464 -0.16665503 -0.080746226 -0.16797289 0.26384553
-0.28176162 0.14108518 0.40249982 0.4253052 0.38010538 -0.05194254 0.39325577 0.36600208
00000000: ca35 793e 2754 143f 8b04 ddbb a284 8f3d
00000010: 2e19 013f ba7d 5a3e 61bc 4a3e d9ed 8d3e
00000020: 287f 39be 9944 d73d dc58 cb3d 7e7e dd3e
00000030: 282a 00bf 29cd c63e 5b2a 00be e01f 673e
00000040: 8d40 31bd a725 2f3d 780f 563e 1cdf 0d3e
00000050: 9ea7 2abe 475e a5bd 1601 2cbe c316 873e
00000060: 0f43 90be a278 103e 7514 ce3e 9ac1 d93e
00000070: 2c9d c23e b3c1 54bd d258 c93e a064 bb3e

weight_ih_l1 f4 [32, 8]
-0.080595635 -0.18827385 0.05555341 -0.54096425 0.6826417 -0.12353748 -0.38133657 -0.4057054
-0.38422817 -0.56143486 0.57916903 -0.5721708 0.5377877 -0.23542751 -0.18502286 -0.653054
0.09661152 -0.65121186 0.29015943 -0.7239266 0.61523 -0.32119858 -0.55957234 -0.4304281
0.10724207 -0.67943716 0.6045016 -0.69462943 0.69793326 0.1379526 -0.20551202 -0.44602755
-0.1833247 -0.45554328 0.14010423 -0.96630085 0.6022824 -0.18614312 -0.36164182 -0.19878879
0.17830488 -0.5146397 0.3245468 -0.32503363 0.4886349 -0.32328635 -0.38931257 -0.41595325
-0.46595776 0.20718037 -0.53627896 -0.08708024 0.07841908 -0.1014964 -0.30972952 -0.2588312
-0.051766183 0.062276956 -0.07034121 -0.04035718 0.06672217 0.003768116 -0.0032554027 -0.08597531
-0.23740107 -0.13991 0.3330268 -0.17392218 -0.34927702 -0.10214672 0.054577645 -0.43716958
-0.07758789 -0.37123805 0.7358394 -0.3008902 0.07136804 0.064682685 -0.40195364 -0.6940771
-0.20259133 -0.53363794 0.2577156 -0.23701699 0.1764931 -0.21115158 -0.012555104 -0.7038712
-0.030372161 -0.09528344 0.4069979 0.22152625 -0.3044306 -0.2882696 -0.3345635 -0.34727022
0.057177678 -0.27391195 0.456988 -0.35611445 -0.2291216 -0.22304595 -0.18922377 -0.09362076
-0.16443586 -0.019406479 0.65098363 -0.15497962 0.04911641 -0.053974055 -0.3516411 -0.64586675
0.014390117 0.19979148 -0.53355664 -0.10722392 0.03558885 -0.21961077 0.033239804 0.4160148
0.029697986 -0.05443124 -0.045809027 0.060595028 -0.014896565 0.07427742 0.047970433 0.020468231
0.062582135 0.035429522 -0.06523723 0.4032253 -0.3947037 -0.102082744 0.19384 0.2735526
0.122638755 -0.098146275 0.09368984 -0.27527708 0.17924848 -0.18731445 -0.1896778 -0.25935763
0.023670165 0.9661941 -0.9287401 0.2559509 -0.7291821 -0.041879706 0.32172874 0.3610805
-0.09828952 -0.16980505 0.19488095 -0.4237336 0.68047386 -0.24086864 0.19669262 -0.6187132
0.21443191 0.4910346 -0.3222229 0.47891986 -0.39823362 0.21723138 0.24783352 0.59300935
0.00697939 0.280843 -0.20673285 0.00498214 -0.2268799 0.11054046 0.55398655 0.40136528
-0.25962427 -0.63702726 0.30074823 -0.7100213 0.6135807 -0.32242948 -0.27601254 -0.521914
-0.011433826 0.28442568 -0.17471676 -0.1790377 -0.098858014 -0.1909105 -0.2980003 -0.40869498
-0.32134283 0.15940776 -0.15480496 -0.32427475 0.23726295 0.32101792 -0.036222044 -0.7281077
-0.08510667 0.006544363 0.32469913 -0.22299202 0.007758469 -0.2261684 -0.36092317 -0.26823422
0.053517293 -0.3633618 0.086205445 -0.33399013 0.2713111 0.24494708 0.13799922 -0.2825632
-0.44994727 -0.042942714 0.2747878 -0.09199306 0.23296371 -0.38510233 -0.10721424 -0.7241973
-0.20717067 -0.3487102 0.13890831 -0.2534525 -0.082335584 0.109138794 0.09135553 -0.25571287
-0.38639483 0.18828915 0.29235527 0.07205802 0.05319781 -0.12665893 -0.050281152 -0.33092847
-0.14762245 0.16866234 -1.1893762 -0.6914367 0.36078158 0.2162298 -0.31616992 -0.2869346
-0.007271183 -0.013718017 -0.052072857 -0.048782848 0.08409643 0.10526249 0.0080095325 -0.066318475
00000000: 530f a5bd dcca 40be f98b 633d a27c 0abf
00000010: 9bc1 2e3f 3801 fdbd 8c3e c3be 9eb8 cfbe
00000020: 8eb9 c4be 32ba 0fbf 6c44 143f c979 12bf
00000030: 74ac 093f e913 71be a276 3dbe 8c2e 27bf
00000040: 43dc c53d d2b5 26bf c78f 943e 4153 39bf
00000050: b77f 1d3f 2474 a4be 2240 0fbf 1261 dcbe
00000060: bba1 db3d 98ef 2dbf 9ec0 1a3f 3cd3 31bf
00000070: c1ab 323f 7243 0d3e be71 52be b95d e4be
00000080: 78b9 3bbe f83c e9be 7c77 0f3e 7e5f 77bf
00000090: 2e2f 1a3f 4d9c 3ebe 1e29 b9be 4a8f 4bbe
000000a0: 8e95 363e 6dbf 03bf 002b a63e cf6a a6be
000000b0: 5b2e fa3e ca85 a5be fa53 c7be d3f7 d4be
000000c0: 0492 eebe 1727 543e 9449 09bf 2057 b2bd
000000d0: 2f9a a03d 58dd cfbd de94 9ebe 8685 84be
000000e0: c708 54bd 1f16 7f3d 0d0f 90bd 924d 25bd
000000f0: a2a5 883d 7ff2 763b 9858 55bb d313 b0bd
00000100: 4419 73be 9144 0fbe 7d82 aa3e a818 32be
00000110: 70d4 b2be 4d32 d1bd cf8c 5f3d b1d4 dfbe
00000120: 66e6 9ebd ea12 bebe f95f 3c3f 480e 9abe
00000130: 6829 923d 5b78 843d decc cdbe 09af 31bf
00000140: 1a74 4fbe 7f9c 08bf 4df3 833e 95b4 72be
00000150: 9bba 343e 1f38 58be ecb3 4dbc e730 34bf
00000160: 0acf f8bc f723 c3bd 0762 d03e c7d7 623e
00000170: 54de 9bbe 1398 93be e84b abbe 67cd b1be
00000180: 2433 6a3d 303e 8cbe 55fa e93e a254 b6be
00000190: da9e 6abe 2866 64be e0c3 41be 3ebc bfbd
000001a0: e061 28be 56fa 9ebc dda6 263f fab2 1ebe
000001b0: 4a2e 493d e613 5dbd 4d0a b4be 8657 25bf
000001c0: 86c4 6b3c 2396 4c3e 2b97 08bf 3798 dbbd
000001d0: 9dc5 113d a5e1 60be 7626 083d e4ff d43e
000001e0: 3149 f33c 4bf3 5ebd 3fa2 3bbd 7e32 783d
000001f0: b910 74bc c31e 983d a57c 443d feac a73c
00000200: 102b 803d 8c1e 113d 199b 85bd 8c73 ce3e
00000210: 9a16 cabe c210 d1bd fe7d 463e 160f 8c3e
00000220: 072a fb3d ea00 c9bd 75e0 bf3d 1ef1 8cbe
00000230: ea8c 373e 5ccf 3fbe e63a 42be 86ca 84be
00000240: efe7 c13c 7f58 773f e9c1 6dbf ff0b 833e
00000250: aeab 3abf 0e8a 2bbd a1b9 a43e 8bdf b83e
00000260: 044c c9bd 60e1 2dbe df8e 473e 9cf3 d8be
00000270: 8933 2e3f 45a6 76be ca69 493e fd63 1ebf
00000280: 0a94 5b3e e368 fb3e 66fa a4be fc34 f53e
00000290: 47e5 cbbe e771 5e3e 12c8 7d3e 76cf 173f
000002a0: 5eb3 e43b a7ca 8f3e c7b1 53be 3841 a33b
000002b0: 3453 68be 0963 e23d 10d2 0d3f c07f cd3e
000002c0: 79ed 84be 3814 23bf acfb 993e f5c3 35bf
000002d0: a013 1d3f 7a15 a5be 8451 8dbe 289c 05bf
000002e0: f154 3bbc 3ea0 913e f3e8 32be a955 37be
000002f0: 1276 cabd 0b7e 43be 7f93 98be 7840 d1be
00000300: 0c87 a4be ca3b 233e 3185 1ebe 5707 a6be
00000310: 0ff5 723e 765c a43e 915d 14bd 4465 3abf
00000320: 684c aebd 1972 d63b f73e a63e 0558 64be
00000330: c13a fe3b b098 67be ecca b8be ff55 89be
00000340: f334 5b3d 8f0a babe 7b8c b03d c100 abbe
00000350: 4ae9 8a3e 68d3 7a3e ab4f 0d3e 20ac 90be
00000360: 7d5f e6be b3e4 2fbd fdb0 8c3e dc66 bcbd
00000370: 0a8e 6e3e 222c c5be 2493 dbbd ff64 39bf
00000380: 8c24 54be 258a b2be fb3d 0e3e 87c4 81be
00000390: 8f9f a8bd 2984 df3d 9c18 bb3d ccec 82be
000003a0: 8bd5 c5be dfce 403e 97af 953e 2893 933d
000003b0: f2e5 593d e1b2 01be 9cf3 4dbd 756f a9be
000003c0: 572a 17be d2b5 2c3e 7b3d 98bf ff01 31bf
000003d0: 5db8 b83e 586b 5d3e 06e1 a1be 18e9 92be
000003e0: 1b43 eebb 89c1 60bc 594a 55bd 86d0 47bd
000003f0: c03a ac3d dc93 d73d 6a3a 033c fbd1 87bd
