trials/model_FD001.pkl (torch, 22020 bytes, 23 tensors)

weight_ih_l0 f4 [32, 14]
000000 13 90 97 3e b0 cf 91 3e 74 1f 39 3e ea 82 56 be
       0.29602107 0.28478765 0.18078405 -0.20948377
000010 98 6f 53 bd 54 56 b1 3c 0f 1e 87 3e 14 6d 91 be
       -0.051620096 0.02164761 0.2639012 -0.28403533
000020 a6 9a 10 3e 87 bb ce 3c 18 06 87 be 31 f5 38 be
       0.14121494 0.025235904 -0.26371837 -0.18062283
000030 86 1b 81 3d bb 8f a5 3e 7d 19 40 3e a7 f3 a3 be
       0.06304078 0.3233622 0.18759723 -0.3202183
000040 94 2d 9e be f4 3a 4b be 43 dd 0c 3e 67 05 ac be
       -0.30894148 -0.19846708 0.1375628 -0.33597872
000050 1e ab 45 3e b5 14 a2 3e be af da 3c 3a b2 0f bf
       0.19303557 0.31656423 0.026695129 -0.5613133
000060 3a 82 21 be f9 a0 f3 bd e6 c9 85 3e 33 de 7e bd
       -0.15772334 -0.118959375 0.261306 -0.062223624
000070 e5 08 e8 3d f6 fb 19 3c f1 8b 66 bd 8f 57 6f be
       0.113298215 0.009398451 -0.056285802 -0.23373245
000080 2a ae f6 3c dd 48 9e 3b b0 14 3a 3e 86 d2 a8 3e
       0.030112345 0.0048304633 0.18171954 0.32973117
000090 35 68 7a bc 0c 35 71 bd 8b 36 81 3e da 73 b3 3c
       -0.015283634 -0.05888848 0.25236925 0.021905828
0000a0 bc b4 05 be db 5d c2 bd 28 fb 93 bc 71 8c ef 3d
       -0.13057226 -0.09490558 -0.018064097 0.11696709
0000b0 74 a1 79 3e c1 c7 83 3e eb 88 1c be 20 87 c8 be
       0.24377996 0.25738338 -0.15286605 -0.39165592
0000c0 ae ae 13 bd d8 3e bd bd bf 9f 8f bd c5 8a 43 be
       -0.03605526 -0.09240502 -0.07012891 -0.19095905
0000d0 2b ae a2 be 8e 59 cc 3d f8 23 40 3e fa 7e 45 3d
       -0.31773505 0.09978019 0.18763721 0.048216797
0000e0 ca 2e 57 3e e2 c5 62 3e 42 1e 9b be d3 85 9c 3e
       0.21013942 0.22145799 -0.30296522 0.3057085
0000f0 f1 a5 d8 bd 61 01 90 be bc 25 53 3e cf 75 98 3e
       -0.10578526 -0.28126052 0.20619863 0.2977738
000100 d1 60 8b 3d 90 65 2d 3e 93 f8 3d bd 0e b7 73 be
       0.06805576 0.16933274 -0.046379637 -0.23800299
000110 95 59 d0 bc 16 09 b8 3c ca bf 3f be a0 6e 32 3c
       -0.025433341 0.02246527 -0.18725505 0.010890633
000120 3d e8 a6 3e c7 a8 88 3d 6d 0a 55 3e 38 46 d0 3e
       0.3259906 0.06672817 0.20804758 0.40678573
000130 88 46 01 be 42 b7 5e 3e 0d ab 99 3d b8 8e a4 bd
       -0.12624562 0.21749595 0.075033285 -0.08035034
000140 8f 90 86 3e 1b a6 46 be 5b 5c 5a be e7 30 1b 3e
       0.26282164 -0.19399302 -0.21324293 0.15155374
000150 67 3f f8 bd 81 a3 07 be 91 b7 3c be 0d 2a 1f 3e
       -0.12121468 -0.13245966 -0.184294 0.15543385
000160 b2 42 b8 3e 36 0d 62 3e e8 d5 8b 3d 48 44 b8 be
       0.35988384 0.22075352 0.06827909 -0.35989594
000170 d8 c3 20 3e 6e 09 8b bd 7a 61 8c be b2 29 51 bd
       0.15699708 -0.06788908 -0.2741812 -0.051065154
000180 3f 73 3d be 5c b0 87 be a8 d6 c1 3e 0e ad 23 be
       -0.18500994 -0.2650174 0.37859082 -0.15983984
000190 18 44 7c be 12 47 7e 3e 77 8c f4 bd 66 5a ce be
       -0.2463535 0.24831799 -0.11940854 -0.40303344
0001a0 8c e1 4e be 7d da ea 3d 2e 8c e4 3e f6 8c 30 be
       -0.20203227 0.114674546 0.446382 -0.17241272
0001b0 b1 be a7 be e9 c7 9f 3e 63 56 df 3d b0 75 ca be
       -0.32762673 0.31207207 0.10905149 -0.39542913
0001c0 bb 36 95 3e 86 a6 f7 3d 34 6b de bd 0f 90 ae be
       0.2914332 0.12092309 -0.10860291 -0.34094283
0001d0 42 99 d2 3e 70 59 f2 be 69 b0 3d 3e 2e 2a 9e be
       0.4113255 -0.4733386 0.18524326 -0.30891556
0001e0 b4 f0 89 3d 90 a2 88 be 2f d3 80 3e b7 f0 b8 bd
       0.067353636 -0.26686525 0.2516112 -0.09030288
0001f0 60 65 61 be af 25 7a be 93 dd a7 3e 8a ce aa bd
       -0.22011328 -0.24428438 0.32786235 -0.083401754
000200 88 50 bf be 74 a9 28 be 4a fa b4 3d 53 4c 19 be
       -0.37366128 -0.16470891 0.08836801 -0.14970522
000210 f3 51 ae be e0 d8 6a 3e 17 bf 03 be f9 52 c4 bd
       -0.34046897 0.22934294 -0.12865864 -0.09586138
000220 ef c9 c0 be ae 13 78 be c6 06 e7 3e b7 38 9b 3d
       -0.37654063 -0.24226257 0.45122355 0.07579177
000230 3c 4b 26 3e 90 f7 1c 3e 43 76 2c be 68 0b 78 be
       0.16239637 0.15328813 -0.16841988 -0.24223101
000240 6c d1 5d be 5d d2 04 be 91 35 a0 3e bb fd 96 3e
       -0.2166192 -0.12970872 0.31290868 0.29490456
000250 ad 69 f3 3d 3d d3 46 be 87 87 a7 3c 62 6f a1 bd
       0.118853904 -0.19416519 0.020450367 -0.07882573
000260 82 cc cd bc c9 1a 1f be 86 9f d2 3d 7f 49 3a 3c
       -0.025121931 -0.15537561 0.10284333 0.011370062
000270 3a 56 00 3f ae ac d4 be 5f 98 18 3e b6 26 66 bd
       0.5013157 -0.41537994 0.14901875 -0.05618926
000280 37 35 49 be bf 3f 9c be d6 a5 53 3b c3 49 03 3e
       -0.19649206 -0.30517384 0.003229489 0.12821107
000290 b3 a3 c5 3e e1 45 aa 3e c5 06 7a be 72 06 81 bd
       0.38601455 0.33256438 -0.24416645 -0.063000575
0002a0 b6 e4 57 be 78 98 46 bc 6f fe 9f be 9e fb d2 3e
       -0.2108334 -0.012121312 -0.31248805 0.41207594
0002b0 83 07 2b 3e e4 2c 0b 3e 1b 58 3d bd 39 06 a1 3d
       0.16702084 0.13591343 -0.046226602 0.07862515
0002c0 bc 5d ac be 38 c8 4d bd 30 91 37 be 7c 34 11 3e
       -0.33665264 -0.05023977 -0.17926478 0.14180177
0002d0 1a d7 b3 bd c9 22 a8 3d ad a6 b5 bc 60 a8 86 be
       -0.08781262 0.0820976 -0.022174204 -0.26300335
0002e0 85 ef 7b be f9 2a cf 3c dc 1c c4 be 5d 0b d6 3e
       -0.24603088 0.025289046 -0.38303268 0.41805544
0002f0 b5 22 5d be de de 95 3e 9f 5b da be bf 0b 8b be
       -0.21595271 0.29271597 -0.42648026 -0.271574
000300 a0 50 0f 3e c8 6b 6a be ff d4 3e be aa d8 54 3e
       0.139956 -0.22892678 -0.18635939 0.20785776
000310 3f 00 81 be d5 2c e0 bc 72 69 c8 3b 79 f2 22 be
       -0.251955 -0.027365128 0.0061160857 -0.15912808
000320 d4 d4 81 3e 34 79 f7 3d c1 ed b8 bd 83 b1 5c 3d
       0.25357687 0.120836645 -0.09029723 0.053880226
000330 94 c4 4a 3e e0 c8 12 3e 40 d9 ea 3d 7f bc d1 bd
       0.19801551 0.1433444 0.114672184 -0.10241031
000340 93 08 2a bd 84 57 86 be d9 ae a3 3e c3 c9 64 3e
       -0.041512083 -0.26238644 0.31969336 0.22342591
000350 4e 0e 6f be c1 2c 37 be fe 47 95 3d 3b 19 99 be
       -0.233453 -0.17888166 0.07289122 -0.29902062
000360 52 56 42 3d 19 23 88 bd 5c c3 85 3e 71 3a 11 3e
       0.047445603 -0.06647319 0.2612561 0.1418245
000370 0d 17 92 be 7b 2c ef 3e 38 75 90 be 87 12 d5 bc
       -0.2853321 0.46713623 -0.2821443 -0.026009811
000380 cf 70 6f 3e 71 dd 8a bd ba 76 59 3e 43 ef 52 3e
       0.23382877 -0.06780518 0.21236697 0.20599084
000390 6d 75 95 bd 0a f4 f6 3d 43 7b 59 be 0b 0c 89 3d
       -0.07297788 0.120582655 -0.21238427 0.0669175
0003a0 ee b6 94 bc 3b 06 2b 3b fe ab 21 be 66 9a da bc
       -0.018153634 0.0026096243 -0.15788266 -0.026684951
0003b0 45 8f ef bd 3f 67 45 be b3 a4 82 bd ce 57 f7 bc
       -0.11697248 -0.19277667 -0.0637907 -0.030193236
0003c0 1e f8 7b 3c bc c1 c0 be 5e 7a 38 3e 19 c9 01 3e
       0.01537898 -0.37647808 0.1801543 0.12674369
0003d0 d0 0c 8f 3e 76 cc f3 bb 1e 3a 81 3d 68 dc b0 bd
       0.27939463 -0.007440145 0.06309913 -0.08635789
0003e0 7e 8d 33 3d 93 f7 0a 3e 04 59 0d 3e 89 5f 2f be
       0.04383611 0.13571005 0.13803488 -0.17126288
0003f0 8f 6a 25 be 2e 14 e5 3d f3 56 80 be 8e eb e9 3d
       -0.1615393 0.111854896 -0.25066337 0.114218816

weight_hh_l0 f4 [32, 8]
000000 05 c3 c0 3e 23 9f d5 bd 53 53 f0 bd ea de 4f be
       0.37648788 -0.104307435 -0.11734643 -0.20299879
000010 84 e7 b9 bd 9d 90 79 be df 3a 29 3d 41 31 13 bd
       -0.09077361 -0.24371572 0.04131591 -0.035935644
000020 4c 36 7e 3a f3 b1 39 bb f9 90 46 bd 27 14 d6 be
       0.0009697422 -0.0028334826 -0.0484781 -0.4181225
000030 9e b5 46 3e 92 71 c6 3d fa c7 e6 bd 60 a3 9a 3e
       0.19405219 0.096896306 -0.11268611 0.3020277
000040 cd cf a2 bd b0 f2 be be 59 10 ae bc 1c 5a 2a 3e
       -0.07949791 -0.3729453 -0.02124803 0.16635936
000050 e4 4f 13 be c4 49 04 3f 9d ef 1b 3f 07 2b 05 3f
       -0.14385945 0.5167506 0.60912496 0.5201878
000060 c2 5b 09 be ae c6 39 be 89 4e a9 be 4f 3b c1 be
       -0.13413909 -0.18142197 -0.3306773 -0.3774056
000070 20 9a 18 be 41 e4 17 3f 89 49 57 3d b1 5e 06 3e
       -0.14902544 0.5933266 0.052560363 0.1312206
000080 96 d0 8c be 0d 21 86 3a 49 cc 40 3e 7b 43 16 be
       -0.27502888 0.0010233239 0.18827929 -0.1467418
000090 9e 7e 35 3e 10 c5 f8 bd dc b5 b2 3e ef f0 17 bc
       0.17724082 -0.12146962 0.34904373 -0.009273752
0000a0 ed ee 28 be 0f 9b 3a be b4 de a0 3d 13 c9 1d bf
       -0.16497393 -0.18223213 0.07854977 -0.6163494
0000b0 00 3c 89 3e 74 42 a8 bd ec 60 a9 3e d0 57 9b 3e
       0.2680359 -0.082158 0.33081758 0.30340433
0000c0 a4 3f 7a be d0 e2 bc be 18 41 aa 3d fb 4e 91 39
       -0.2443834 -0.36891794 0.08313197 0.000277154
0000d0 1f 53 8c be 0b fe b3 3e de b1 e5 3d 91 80 61 be
       -0.27407166 0.35154757 0.11215566 -0.220217
0000e0 b2 06 ff 3d 3b 17 0a 3d 4f f4 1a be 9d dd c8 3c
       0.12452449 0.03371356 -0.15132259 0.024519736
0000f0 58 4c e8 bd f4 92 0a 3d 24 18 90 bd 83 ee 03 be
       -0.113426864 0.03383155 -0.070358545 -0.12883954
000100 a5 81 be be 2a c0 ea 3e 5c 85 2b bf 3f 3a a5 be
       -0.37208286 0.45849735 -0.67000365 -0.32271
000110 7f 5b e2 3c eb 9b 26 3e cd 0c 83 bd f8 db 57 3d
       0.02763152 0.16270415 -0.06398926 0.052700013
000120 9b 58 a4 3e 77 b4 04 3e fd 1a 05 be aa 47 b3 be
       0.3209885 0.12959467 -0.12998576 -0.35015613
000130 b1 eb 0b 3e 59 fd 90 be 2d 58 95 be f4 27 35 3e
       0.13664128 -0.2831829 -0.29168835 0.17691022
000140 da 7b 40 3e 07 e7 a7 be e4 43 38 3e 60 4f 9a be
       0.18797246 -0.32793447 0.17994648 -0.30138683
000150 cd 6a 14 3d d3 e3 d5 3c 03 b6 8b bd 29 25 59 be
       0.036234666 0.026109612 -0.06821825 -0.21205582
000160 7f a8 43 3e eb 0c 84 be b7 49 91 bd de 38 71 be
       0.19107245 -0.25791106 -0.07094138 -0.2355685
000170 40 9b 12 3e 34 ec 6e 3e 74 19 05 3e b2 2e 0b be
       0.14317036 0.23332292 0.12997991 -0.13592032
000180 d7 0f f7 ba 1a 06 d3 bd 9e 36 c9 bc 69 05 c3 be
       -0.0018849325 -0.10303898 -0.024562176 -0.38090065
000190 29 c2 96 bd 83 c1 6a be 38 e7 9d 3e 6c 93 5f be
       -0.07361252 -0.22925381 0.30840468 -0.2183358
0001a0 2e 87 44 3e a8 15 c7 bc 46 48 c1 3c 7f b1 b7 be
       0.19192192 -0.024302319 0.023594033 -0.35877606
0001b0 1d 8c ae 3e 7f b9 72 be dd 46 ce bc d1 66 87 bc
       0.34091273 -0.23703574 -0.025180275 -0.016528519
0001c0 7c 2a 4d 3e 48 53 23 bd 34 9f cd 3e d4 6e 6f 3d
       0.20035738 -0.039874345 0.40160525 0.058455303
0001d0 f7 6e 5a be 49 7d 93 3d 1c 1f cb 3e aa 07 91 bc
       -0.21331392 0.072016306 0.39672172 -0.01770385
0001e0 b1 a7 a3 3b c3 31 e2 bc ba 84 60 bd 49 31 a1 be
       0.0049943556 -0.027611619 -0.054814078 -0.31482914
0001f0 40 f3 59 be 55 6a 67 be 90 e1 b2 3e 4b d8 60 3e
       -0.21284199 -0.22599156 0.34937716 0.21957509
000200 2d c9 19 bd f0 25 0b 3e 30 5d 80 3e 48 31 1b 3e
       -0.03754537 0.13588691 0.25071096 0.15155518
000210 9f ed 18 bb ca 70 29 3e 5f a8 91 be 08 39 11 3e
       -0.0023334993 0.16546932 -0.2844877 0.14181912
000220 e1 2c e6 3e 3b 13 db 3d 91 8e b4 3e b0 28 9d 3d
       0.44956115 0.10697027 0.3526502 0.07673776
000230 83 bc b2 be fc 0d 15 3e bc b3 55 3d 4a 06 4e be
       -0.34909448 0.14556116 0.05217336 -0.20119587
000240 0d b1 f0 bd 53 38 96 be 19 16 c2 be 79 90 ce 3d
       -0.1175252 -0.29339847 -0.37907484 0.1008615
000250 1f 3a 4b 3e ee 27 a7 3e 27 c5 a4 be 26 e6 b4 3e
       0.1984639 0.3264765 -0.32181665 0.3533184
000260 3e ea 76 3b 3b e4 1e 3e 12 50 97 bd af a0 b5 3e
       0.003767624 0.1551675 -0.07388319 0.35474154
000270 3a 33 53 be b5 ac a1 be f7 c2 81 be b4 53 56 be
       -0.2062501 -0.31577078 -0.2534406 -0.20930368
000280 76 90 90 bd 00 13 7b 3e d4 46 38 be 5b ca 31 be
       -0.07058804 0.24518967 -0.17995769 -0.17362349
000290 5c 78 9e be 05 3b 56 be 16 22 cb 3d 96 b4 91 be
       -0.30951202 -0.20920952 0.09918611 -0.2845809
0002a0 5f ec 0c be 7f 8c ae be 95 1c e1 3d 4d b9 1e be
       -0.13762043 -0.34091565 0.1099178 -0.15500374
0002b0 45 6d 92 bd 5b 5c 86 3e 40 c1 c0 3e 07 e6 f3 3d
       -0.07149748 0.26242337 0.37647438 0.119091086
0002c0 11 bd f7 3d 44 0b cb bd 27 07 d5 3d dd dc 0e 3e
       0.120966084 -0.09914258 0.10401755 0.1395144
0002d0 17 aa 8c 3e 17 00 a2 3e 19 0b 8b be d2 be 0a 3f
       0.27473518 0.31640694 -0.27156904 0.5419742
0002e0 e0 6a 8d be 19 01 0c be 8d 34 14 3e d5 33 fa be
       -0.27620602 -0.13672294 0.14473172 -0.4886767
0002f0 e3 7f 5b 3e 19 8c 97 3e 93 92 df 3e 71 0a 53 3e
       0.21435504 0.29599074 0.43666515 0.20609452
000300 32 ff 38 bb 70 26 c6 bd 26 eb 35 be aa 13 40 3e
       -0.002822828 -0.096753 -0.17765483 0.18757501
000310 41 d9 30 bd 98 01 ac 3e e2 59 a0 bc fd 82 ee 3e
       -0.04317594 0.33594966 -0.01957411 0.4658431
000320 0d b1 6f 3d 4c d3 38 3e fd a4 24 be 03 3c 81 be
       0.05851846 0.18049353 -0.16078563 -0.25241098
000330 97 10 c1 3e 6a b6 89 be c8 e0 1e 3e 39 60 e7 bc
       0.3770797 -0.26896983 0.15515435 -0.028244125
000340 52 45 aa 3d 87 fe d1 be 01 d8 b0 bd 81 8c 96 be
       0.08314003 -0.410145 -0.086349495 -0.2940407
000350 20 e1 64 be 17 af 4c 3e c8 0b f9 3e 71 5c f4 3e
       -0.22351503 0.19988666 0.486418 0.47726777
000360 b4 d7 1a 3d 21 96 19 3d f6 0d 8d 3e ee e9 00 3e
       0.037803367 0.03749669 0.27549714 0.12589237
000370 04 d6 b3 3d 0a 9c 04 3f 64 3e 04 3f 7e 92 cd 3e
       0.087810546 0.51800597 0.516577 0.40150827
000380 3e eb b1 be 82 24 cf be 92 8e 9a be 88 d9 10 3e
       -0.34749788 -0.4045754 -0.30186898 0.14145482
000390 f3 1a 6b be 4b 1c 9d bd 36 6f b5 3d 65 40 dd 3d
       -0.22959499 -0.07671412 0.088591024 0.10803298
0003a0 58 bf 00 be 7f de 51 be 9a 97 69 be 58 89 03 3d
       -0.12572992 -0.20495032 -0.22811738 0.032113403
0003b0 00 43 c5 3e 0b 72 b9 3e 86 03 82 bc 50 e3 6e 3e
       0.3852768 0.3621982 -0.01587082 0.233289
0003c0 86 ad b9 3d e9 2c 23 3e 8b 79 5d be b2 25 d1 be
       0.090663 0.159351 -0.21628396 -0.40849072
0003d0 20 9d 65 3e 7b c8 80 3e de c1 ac 3d ea 84 59 3e
       0.2242322 0.25152954 0.08435415 0.21242109
0003e0 fd 50 16 3d 69 08 ab bd af 57 41 be 51 0c d8 be
       0.03669833 -0.083512135 -0.18881105 -0.42196897
0003f0 f2 7e da 3e ae 49 01 be 9e 71 3c 3c 6f 78 90 3c
       0.42674977 -0.12625763 0.011501698 0.017635552

bias_ih_l0 f4 [32]
000000 b6 31 aa be cf 05 05 be a2 85 00 3e 14 3b 09 3e
       -0.3324105 -0.12990497 0.12550977 0.13401443
000010 8a df d2 3e 48 03 b9 3e 33 95 1a 3e 65 fb 8e 3e
       0.41186172 0.36135316 0.15095977 0.27926174
000020 80 25 4b bb aa 3e a9 3e 11 6f 04 be 1d 6b 25 3e
       -0.0030997694 0.3305562 -0.12932993 0.16154142
000030 fa aa 8d 3e a7 7a 0b 3c a3 d2 94 bc 36 c2 bc 3c
       0.27669507 0.008513129 -0.018166846 0.023041826
000040 46 a3 31 bd d0 57 e0 be 75 3b 25 be 86 e6 cb be
       -0.0433686 -0.43816996 -0.16135962 -0.39824313
000050 bf 44 5d bd 51 e8 9d 3e bc f8 97 3e bc 82 a9 3d
       -0.05402064 0.30841306 0.29681957 0.08276889
000060 56 77 91 bc 0a cc 7b 3e b0 5f f0 3e 86 93 40 3e
       -0.0177571 0.24589553 0.46948004 0.18806276
000070 68 fa 6e bd 9b e8 d2 bd d9 2e 1e 3e ff 08 d1 3e
       -0.058344275 -0.10298272 0.15447558 0.40827176

bias_hh_l0 f4 [32]
000000 09 cf 43 be bf 47 e1 3d 9e 86 fb 3e 3d 4e 2d 3e
       -0.19121946 0.110000126 0.49126142 0.16924377
000010 32 c2 14 be 87 1e 11 be e0 94 bd 3e 29 2b 23 3e
       -0.14527205 -0.14171802 0.37027645 0.15934433
000020 b9 18 79 3a 32 8c 1b be 94 54 c3 3e d7 93 e1 bd
       0.000950228 -0.15190199 0.38150465 -0.11014526
000030 ec bd ab be 24 75 41 3e 80 d7 e8 3d 2f ad 39 3e
       -0.33543336 0.18892342 0.11369228 0.1813247
000040 45 29 50 be b2 1f 02 3e 49 e5 1e 3e 77 86 35 be
       -0.20328243 0.12707403 0.15517153 -0.17727076
000050 1a cb a0 3e 6a 72 cb 3e eb 19 e3 3e e7 58 c2 3e
       0.31404954 0.39735729 0.4435571 0.37958452
000060 72 19 dd 3e ba 50 49 3e 2f 3a 7a 3e a8 ac 19 3e
       0.43183476 0.19659701 0.24436258 0.1500727
000070 11 57 7a 3e 23 03 92 3e d5 dd c2 3d e3 ac ab 3e
       0.24447276 0.28518018 0.09514967 0.3353034

weight_ih_l1 f4 [32, 8]
000000 00 f5 ca bd 01 2a 75 be f2 3f 4f 3d 38 73 c1 bc
       -0.09910011 -0.23941804 0.050598092 -0.02361451
000010 df 13 13 3d 71 16 0a be 2e 14 10 bd aa 0c 51 3d
       0.035907622 -0.13485123 -0.035175495 0.051037468
000020 3a 61 67 3e 72 1a ba be ca 8f 88 be c7 b7 a4 bd
       0.22595683 -0.363483 -0.26672202 -0.08042865
000030 c1 7b ec bd 91 13 2a 3d 5e d0 27 3e 7b 90 97 3e
       -0.11547042 0.041522566 0.1638808 0.29602417
000040 c7 bd a4 3e 69 b9 af bd c7 16 17 be cb ce 78 be
       0.3217604 -0.08580286 -0.14754783 -0.24297635
000050 1d 04 df bc 98 6d 47 3e 44 b7 8c bd 32 1c 4b bc
       -0.027223641 0.194754 -0.06870893 -0.012396859
000060 f7 72 96 be d8 f5 53 be fc f8 92 be c1 83 a2 be
       -0.29384586 -0.2069925 -0.28705585 -0.31741145
000070 a8 3c a4 3d 34 fd 08 3e 4a d7 99 3e 16 29 9b bb
       0.08019382 0.1337784 0.30047065 -0.0047351224
000080 a9 d7 82 be d3 6a 8a be 96 66 97 3e 07 9a 86 be
       -0.2555516 -0.27034625 0.29570454 -0.2628939
000090 4c e2 0b 3c e7 ac af 3e 85 2d 69 bd 15 5a b8 3e
       0.00853784 0.34311602 -0.056928176 0.36006227
0000a0 d7 11 16 3e ff c9 7f 3d d3 40 bb 3d 7c 36 00 3e
       0.14655243 0.062448498 0.091432236 0.12520784
0000b0 a6 29 ae 3d 79 55 0b bd 11 31 a7 bd 8a fb 0e be
       0.085040376 -0.03401706 -0.081636555 -0.13963142
0000c0 12 db 9d 3d d0 dd 07 be e3 5a 5e bd 82 4b 9c be
       0.077078 -0.13268209 -0.054285895 -0.30526358
0000d0 d6 9b 22 3d 09 5c ac bd 01 f1 03 3e 63 07 d4 3e
       0.039699398 -0.08415992 0.12884904 0.41411886
0000e0 90 ed a6 be 82 8a 8b be 2f 52 1a bd d9 42 b3 bd
       -0.3260312 -0.2725411 -0.037676033 -0.087529846
0000f0 0f bc 9b be a7 cf 02 bd 55 b8 ae 3d d6 f9 b7 bd
       -0.30416915 -0.031936314 0.08531252 -0.08983199
000100 4b 1a 2c be cd 41 91 bd d8 f7 6a 3d 95 ca 4a bd
       -0.16806905 -0.07092629 0.05736527 -0.049509604
000110 47 cf 24 be 53 af 03 3e 56 70 0c be 53 a0 dd 3c
       -0.16094695 0.1285985 -0.13714728 0.027053988
000120 ab f8 8c 3e 4a c8 ad be 5a d0 65 be c9 9e 37 3d
       0.2753347 -0.3394187 -0.22442761 0.044829164
000130 f4 af c3 3d 47 7d be 3d 55 7c 2b 3d a4 be 82 be
       0.09555045 0.093012385 0.04186662 -0.25536072
000140 94 f6 96 be e0 f6 37 3e 4b ae 27 be 71 9b 54 3d
       -0.29485 0.17965269 -0.16375081 0.051906053
000150 d9 a1 5d be 6d 22 e3 3d 60 d8 7d 3e e2 7e 5d be
       -0.21643771 0.110905506 0.24789572 -0.21630433
000160 3b a6 75 be f2 82 96 be 0c 3f 1b be 5e 36 37 3e
       -0.23989193 -0.29396778 -0.15160769 0.17891833
000170 c4 b6 9c bd 9a 8e 99 3d ca 97 3b be 37 58 53 3e
       -0.07652047 0.07497902 -0.18319622 0.2063912
000180 07 b7 a8 be 97 d4 48 be da fa c6 3d f6 49 2f be
       -0.3295214 -0.19612347 0.09715815 -0.17118058
000190 12 51 91 be 1c 02 bc 3e b0 33 a0 bc d6 8e c8 3e
       -0.28382164 0.3672036 -0.019555897 0.39171475
0001a0 09 3d 3e 3d 52 e4 2f 3d 7a c9 6c 3d d8 ca 98 3d
       0.046444926 0.042942353 0.05780933 0.074605644
0001b0 75 89 0b 3d 48 87 14 be 1e 5c b6 bd 90 17 f8 bd
       0.034066636 -0.1450473 -0.08904289 -0.12113869
0001c0 b5 34 e9 3b 6c c6 ff bd 80 2e bb 3e a5 3f c2 be
       0.007116879 -0.12489018 0.36558914 -0.37939182
0001d0 eb 9f 77 3d 0b 4a 8c 3e ad ce 37 bd 65 cf 8d 3e
       0.060455244 0.2740024 -0.044874836 0.27697292
0001e0 cd 43 16 3e 76 e4 90 bc b9 13 bb 3d e2 03 96 be
       0.14674301 -0.017687064 0.09134621 -0.29299837
0001f0 50 a4 7a be 8d ea 54 3e 32 cf d2 3d c8 d8 6e 3e
       -0.24476743 0.20792599 0.102934256 0.23324883
000200 92 95 4b 3c c8 34 45 be dc 54 e3 bd c3 14 d3 bd
       0.012425797 -0.19258416 -0.1110017 -0.10306694
000210 3b 60 94 3d c6 06 18 3e c9 bd f6 be 52 f5 ba be
       0.07244917 0.14846334 -0.4819167 -0.3651529
000220 21 ee ba 3e 80 0f 3d 3d 70 fc 60 be 4f 50 ac bd
       0.36509803 0.04615736 -0.21971297 -0.08413755
000230 70 e8 56 3e de 25 c5 3c 56 32 b3 be dd db b7 bd
       0.20987105 0.024065908 -0.3499934 -0.089774825
000240 50 4d 5e be 6d d5 dc 3d de ce 3e bd fc 5e ca be
       -0.2170918 0.10782895 -0.046584003 -0.39525592
000250 67 87 4e be d1 3d 71 3e 7b 96 8f 3e e1 9f 8a 3d
       -0.2016884 0.23558737 0.28044495 0.06768776
000260 12 17 2e 3e 0c 68 88 be 77 92 a3 3d 55 57 15 bd
       0.17000988 -0.2664188 0.0798692 -0.03646024
000270 7c 40 fd 3c 10 93 cb 3e 23 af 28 3c 02 dc ef 3e
       0.030914538 0.39760637 0.010295662 0.4684754
000280 f9 da c0 3e 65 f3 6a bc eb bb 2f be 33 83 bc bd
       0.37667063 -0.014340256 -0.17161529 -0.09204712
000290 0b a5 a3 bd f7 b7 dc be c5 cc e8 be 11 ab 59 be
       -0.07990464 -0.43109104 -0.45468727 -0.21256663
0002a0 df 1d 6c be 3d 4d 30 bb 61 cf 7d 3e 9e 96 60 be
       -0.2305827 -0.0026901506 0.2478614 -0.21932456
0002b0 cc 8b 72 3d 0e bb d2 3e 88 9b f6 bc 5a d0 02 3e
       0.059215352 0.41158336 -0.03010346 0.12774792
0002c0 df c0 86 be 6f 8d 45 be b4 6f e6 3d 60 29 e3 bd
       -0.26319024 -0.19292234 0.112517744 -0.11091876
0002d0 9f 77 54 be ed 9f b0 3e 30 81 af 3d f4 83 e0 3d
       -0.20748757 0.34497014 0.085695624 0.10962668
0002e0 00 0a c2 3e 00 4a c3 3e d1 1c 12 3e 94 b9 8d 3e
       0.37898254 0.38142395 0.14268805 0.27680647
0002f0 b1 de 6d 3e 8c 7f 76 bd b1 e1 c7 bd 9b df dd be
       0.23229481 -0.060180232 -0.09759844 -0.4333466
000300 2f ea 84 be 7c 98 30 3c 7a 9d ae 3d 91 70 e2 be
       -0.25959918 0.010778543 0.0852613 -0.44226506
000310 bc c1 8d 3e 74 a9 9a 3e 7f 86 06 be 83 55 7b 3e
       0.2768687 0.30207407 -0.13137244 0.24544339
000320 58 55 64 3e d5 ae 4c 3e 03 5e 08 be 47 16 63 be
       0.22298181 0.19988568 -0.13317113 -0.22176467
000330 e3 6d b1 be 05 3b 4f 3e 27 de 90 bd aa 24 0f 3e
       -0.3465415 0.20237358 -0.07073622 0.1397883
000340 2a e3 a9 be 9d be 2c bd 0c 48 80 3e e0 ca 80 be
       -0.33181125 -0.04217397 0.25054967 -0.2515478
000350 11 c5 e1 bd 60 f5 9f 3e 9b a7 6c 3e 63 83 71 3e
       -0.110239156 0.31241894 0.23110811 0.23585276
000360 33 7a cd be 57 bb e8 be 99 0e b3 3d f1 2a 54 3d
       -0.40132293 -0.4545543 0.08743019 0.051798765
000370 75 f0 08 3d a2 1e 99 3e 33 4d 40 be 9e ae f4 3e
       0.033432443 0.29906183 -0.18779449 0.47789472
000380 5f ee c3 3d 24 09 87 3e b6 eb 97 3d cf 26 ec be
       0.0956695 0.2637416 0.07418005 -0.4612336
000390 db 0a 4d 3e 60 6e 05 3e 87 13 ee 3a e4 12 07 3c
       0.20023672 0.13030386 0.0018163779 0.00824425
0003a0 b4 35 95 3d 93 cd da bd 7f 1c 4e be 3b ed 11 be
       0.07285634 -0.106837414 -0.20128058 -0.14250652
0003b0 f9 be b9 bb 03 4b 9d 3d d7 be fe bd 7a 18 e2 bb
       -0.0056685177 0.07680323 -0.124387436 -0.0068998905
0003c0 1e fc f1 3d b6 03 b9 be a7 85 b7 3c d5 07 3c 3e
       0.11815666 -0.36135644 0.022402598 0.18362363
0003d0 88 4f 73 be 3d 88 34 3e a6 1a 1c 3e 61 24 18 3d
       -0.23760808 0.17630096 0.1524454 0.03714407
0003e0 a3 f0 bc 3d 8d af 6e be 0e be 0f 3e e0 c2 4b 3e
       0.09225585 -0.23309155 0.14037344 0.19898558
0003f0 c6 91 5d be 2b 4b ba 3e 12 13 94 3e 0d 04 06 3d
       -0.2163764 0.36385474 0.289208 0.032718707

weight_hh_l1 f4 [32, 8]
000000 bb 26 50 be be b6 50 bd 3a 42 35 3d 28 39 ef bd
       -0.20327275 -0.050955527 0.04425261 -0.116808236
000010 e3 de 00 3d 2a 97 36 bc 24 22 c7 3c 57 3d cf 3d
       0.03146256 -0.011144439 0.024308272 0.101191215
000020 05 af 38 3c 72 a6 d6 3d b8 56 97 bd 9b 6d a3 bd
       0.011272197 0.10480966 -0.07389587 -0.0797989
000030 47 18 c1 bd 9c b9 98 bc f1 ad a7 3d be 7a 4f 3e
       -0.09428459 -0.018643193 0.081874736 0.20261666
000040 05 a4 58 bd 1d 9e b2 3e 71 57 45 3e 17 bb 4f 3e
       -0.052890796 0.34886256 0.19271637 0.20286213
000050 93 e2 ac bd e2 56 d5 bc 40 7b 92 be d6 c4 69 be
       -0.08441653 -0.026042406 -0.28609657 -0.22828993
000060 f2 40 ed 3d ad ab 75 be bd 4a 1a be b2 3f 90 3e
       0.11584653 -0.2399127 -0.15067573 0.28173596
000070 1f a0 5f bb bd a3 08 3e 2b 00 82 bd f9 af b5 3d
       -0.003412254 0.13343711 -0.06347688 0.08871455
000080 f4 7e 00 be 30 f1 7c bd ff ce 3e 3e da ee 03 be
       -0.12548429 -0.06175345 0.1863365 -0.12884083
000090 52 63 57 ba ec 77 4f bd 99 1e 61 3e 6e 1a 4a 3e
       -0.0008216399 -0.050651476 0.21984328 0.19736645
0000a0 d1 62 9b 3d f8 49 62 3e 23 52 5c be 54 d2 28 be
       0.07587207 0.2209853 -0.21515708 -0.16486484
0000b0 12 81 6d 3e e4 22 5b bc 55 b6 6a be 0e 47 cd 3d
       0.23193768 -0.013375018 -0.22921117 0.10023318
0000c0 ed 52 5c be e4 2d 94 bd 23 eb 3e be 98 a9 6a 3e
       -0.21516009 -0.072353154 -0.18644385 0.22916257
0000d0 c4 a7 81 be 56 89 55 be 74 f6 83 bd 02 d6 55 bd
       -0.25323308 -0.20853171 -0.064434916 -0.052206047
0000e0 9c 4d 82 be c3 65 78 3c 4b aa d7 bd a4 76 9a 3e
       -0.25449836 0.015160981 -0.10530528 0.3016864
0000f0 a3 b2 1c be 1e b6 f0 3d d3 85 83 3e 85 33 97 be
       -0.1530252 0.11753486 0.25688037 -0.29531494
000100 84 29 31 3e 31 a7 8d 3d d3 d0 ce bd 5e 18 11 3d
       0.17300993 0.06916655 -0.10098424 0.03542363
000110 46 b6 33 3e 2e 1c 38 bc 1c cf 3f be e9 df df 3d
       0.1755 -0.011237187 -0.1873135 0.10931379
000120 16 68 57 bd c3 82 8f 3d e9 48 48 3e 5e 77 89 3e
       -0.0525895 0.07007363 0.19559063 0.26848882
000130 74 a1 39 3e bb 9d aa 3d 7c 5b 61 3e ad a7 7d 3e
       0.18127996 0.08330866 0.22007555 0.24770994
000140 c0 63 49 3e 3c c8 07 3e 4f 90 1f 3e 8b 33 13 bd
       0.19666958 0.13259977 0.15582393 -0.035937827
000150 7f 22 15 3e 00 a5 78 3d 21 de 80 be f9 15 ed 3d
       0.1456394 0.06070423 -0.2516947 0.115764566
000160 de 2d 9a 3e ea 6a 35 be 15 e4 fd 3d 89 a8 79 be
       0.3011312 -0.17716566 0.12397019 -0.24380697
000170 96 70 8d 3e e8 50 4b be 5a 6e 95 bd c1 93 e1 3d
       0.2762496 -0.19855082 -0.072964385 0.1101451
000180 5e 2b 68 3e 7b 15 0f be ac c5 7b 3e 21 fa 9f 3e
       0.22672793 -0.13973038 0.24587125 0.3124552
000190 e4 b1 cc be 7d 02 ee 3d 48 73 49 3e 38 48 be 3e
       -0.3997947 0.11621568 0.19672883 0.37164474
0001a0 71 1f fa 3c 32 29 50 3d b7 3c d4 bd f2 41 04 bd
       0.03053257 0.050820537 -0.10363143 -0.032289453
0001b0 98 6b a5 3d d4 ab 48 bc 98 81 8a bd 8b 8a 98 3d
       0.080771625 -0.012247998 -0.06762999 0.074483
0001c0 26 37 a2 3e d5 b7 68 be 32 c0 98 3e 34 69 e3 3d
       0.316827 -0.22726376 0.29834133 0.1110405
0001d0 18 8e a2 bd 48 55 81 3b c4 0c b1 3e 3e d4 7b be
       -0.079372585 0.003946934 0.34580052 -0.24592683
0001e0 4e 43 1b be c4 d5 79 be 6b c4 30 3e 5e 7e a6 3e
       -0.15162393 -0.24397951 0.17262428 0.32518286
0001f0 9f 02 35 be 9d 21 83 3d d4 f5 05 3e e4 38 cb be
       -0.17676781 0.064028956 0.13082057 -0.39691842
000200 6b 3f 83 3e d3 79 8c be 57 d7 b4 bc ee 54 b5 be
       0.25634322 -0.27436695 -0.022075338 -0.3541636
000210 a1 15 82 bd dd d8 6b 3d 21 c6 3e 3e b3 b4 01 3d
       -0.06351782 0.057579864 0.18630268 0.03166647
000220 53 05 0d 3e ee 76 c7 3d ee 86 ce be ab ed c7 bd
       0.13771562 0.09739481 -0.40337318 -0.097621284
000230 21 eb 84 3e 7c 75 91 3e 81 4f 6d be 50 8e aa 3e
       0.2596064 0.28409946 -0.2317486 0.333117
000240 a8 3c 1a 3e 8f 1f aa 3d e9 97 8d 3e d2 8d 03 bd
       0.15062201 0.083068006 0.2765496 -0.032117672
000250 dc d9 3f bd ba 38 01 be 1b f1 40 3e ea 79 7f 3d
       -0.046838626 -0.12619296 0.18841974 0.062372126
000260 92 6d aa be c4 be 70 3e 3b e9 8d be 61 d5 3d 3e
       -0.3328672 0.23510271 -0.27717003 0.18538429
000270 77 bb 59 3d 3d b1 8a bd a8 3d b8 3d b1 b6 11 3e
       0.053157296 -0.06772087 0.08996135 0.14229847
000280 24 4e ba 3e 2d ad d0 bb 5c d6 17 3d ec 9d bc be
       0.36387742 -0.0063683004 0.037069663 -0.36839235
000290 1e e6 47 be af 31 cf bd c9 d5 ab be e0 8b 74 bd
       -0.19521376 -0.10116898 -0.33561543 -0.059703708
0002a0 1b 74 94 3e 6f 29 fb bd 29 8d 14 3e c6 6a 34 bd
       0.2899483 -0.12263762 0.14506973 -0.04404714
0002b0 d1 57 2b 3e 90 9c 21 3d aa 3f 9a 3e bb 3f 9e 3e
       0.16732718 0.03945595 0.30126697 0.30907997
0002c0 00 74 fa bd 6a 1a c4 bd d9 4f b2 3e e7 2a 1e 3e
       -0.122291565 -0.095753506 0.34826544 0.15446053
0002d0 49 6c 86 3d 91 27 0c be b6 8f ea bd 96 76 21 3b
       0.065636225 -0.13686968 -0.11453192 0.0024637333
0002e0 0f c6 dc 3d 61 39 87 3c d5 44 07 be ae 40 98 be
       0.10779964 0.016506853 -0.13209851 -0.29736847
0002f0 1e 16 b4 3e ba 92 7c 3e b0 d8 c6 be 52 fd a8 bc
       0.35173124 0.24665347 -0.38837194 -0.020628605
000300 34 d0 39 be 02 63 15 3e d1 54 7a 3e 55 5c 10 3d
       -0.1814583 0.1458855 0.24446417 0.035244305
000310 7a 1f 14 be 5f 3e e7 bb 2a bf 10 3e be 0f 53 3e
       -0.14465132 -0.0070569958 0.14135423 0.20611474
000320 19 48 95 3e 00 d8 9e be 8e 6d 15 3e db 3a 47 3e
       0.2915657 -0.3102417 0.14592573 0.19456045
000330 e7 98 4b be 93 35 2d bd c9 db 8e be 06 f4 93 3c
       -0.19882546 -0.04228742 -0.27902058 0.018060695
000340 17 f5 8c 3e a1 4f 4e 3e af 02 85 be a1 c5 ed 3d
       0.2753074 0.20147564 -0.2597861 0.1160996
000350 21 7f ab be 9c dd eb bc a1 34 83 3e 2f 61 82 be
       -0.3349543 -0.028792195 0.2562609 -0.2546477
000360 38 46 7b 3d 7d d9 6a be 44 b8 a1 3e 40 16 a3 3e
       0.061346263 -0.22934528 0.31585896 0.31852913
000370 3b 1b 0c bd ca e6 29 3c df 40 a6 3e fb 30 8d 3d
       -0.034205656 0.010369966 0.32471368 0.06894108
000380 4a ae c1 be a7 9a 60 be 2c c4 0f 3d c6 c8 d3 3c
       -0.37828285 -0.21933995 0.035099193 0.025852572
000390 bf fa e7 bd ef f5 21 3c a4 ce 82 3e d7 cb 11 be
       -0.11327123 0.009885295 0.2554828 -0.14237915
0003a0 c0 92 86 bd 4a d2 f0 3d 8c f5 dc bd 76 b0 63 3e
       -0.06570959 0.117588595 -0.10789022 0.22235283
0003b0 cc e1 e1 3c 07 77 71 3c 7a 7d 23 3d 95 c8 d8 bd
       0.027573489 0.014737851 0.039914586 -0.10585133
0003c0 c6 3a 0f 3e 6e d2 41 3e 66 f3 95 3e e1 a9 c9 bb
       0.13987264 0.18927929 0.2928726 -0.0061542843
0003d0 bd 82 ac 3e c1 e2 c3 bd 9b 03 40 3d 7b 25 8e be
       0.33693495 -0.09564734 0.04687844 -0.2776297
0003e0 0d 26 78 bd 2f c6 00 be a0 c1 5f be 11 d6 aa 3e
       -0.060583163 -0.12575601 -0.21851206 0.33366445
0003f0 18 17 58 be 36 71 c7 bb 91 a2 b3 3e 98 ad df bd
       -0.2110256 -0.006086494 0.35084966 -0.10921782

bias_ih_l1 f4 [32]
000000 41 6a fb 3d ee e0 b3 3e 51 44 03 be 97 04 7d be
       0.12276126 0.35132545 -0.1281903 -0.24708782
000010 5d 09 a8 bc 4e 2b 5a bd 71 47 16 3e 45 43 f3 bd
       -0.020512277 -0.053263955 0.1467569 -0.11878065
000020 d4 b1 e4 bd b7 ea 92 3e 81 67 90 3e 98 af 0a be
       -0.111667305 0.28694698 0.28203967 -0.13543546
000030 ff 65 07 3e fe bc 05 3d 17 fa bc bd 42 4b 24 3e
       0.13222502 0.03265094 -0.09227388 0.16044334
000040 18 25 8a be d7 d6 d3 be f8 04 34 be 65 01 1e 3e
       -0.26981425 -0.41374847 -0.1758002 0.1543022
000050 30 fe b8 be 96 5f a2 be d9 a5 e0 3e c0 e5 5a be
       -0.3613143 -0.3171355 0.43876532 -0.21376705
000060 a0 a7 42 be 38 e8 15 be 15 2a 3b 3e ab 7c 30 be
       -0.19009256 -0.14639366 0.18277772 -0.17235057
000070 ba 67 cb 3e 13 f4 45 be 6d 3b 95 3e 2e d7 b4 bc
       0.39727575 -0.19331388 0.291469 -0.022075262

bias_hh_l1 f4 [32]
000000 e9 52 31 bd 12 14 ad 3c 2a bd 8b be 46 35 37 3e
       -0.04329196 0.021127734 -0.27292758 0.17891416
000010 32 5a 89 3d 23 ab 1c be a5 75 ef bd b6 9c 9c 3d
       0.067066565 -0.15299658 -0.11692361 0.07647078
000020 bb 37 a0 bd 36 54 d1 bd a3 b2 25 3e 2b 1f 8c 3e
       -0.0782313 -0.1022114 0.16181426 0.2736753
000030 a3 c7 9b 3e 8e 8e ab bd 9a c4 c2 bb bd 8d 7f 3c
       0.30425748 -0.083767995 -0.005943847 0.015597758
000040 c9 b7 78 bd 35 0a 15 3e 30 ba b5 3e 77 7c 0e 3e
       -0.060722146 0.14554675 0.35493612 0.13914667
000050 a6 43 25 3e 3f d4 95 3c 8e 02 7e be 58 02 2f 3e
       0.16139087 0.018289683 -0.24805662 0.17090738
000060 7d 5b 94 3e 73 61 6e be 37 ac 21 bd 61 c2 58 3e
       0.2897605 -0.23279361 -0.039470877 0.211679
000070 83 7c 73 bd d9 37 2c be 21 9c 16 3e a6 2e 48 bd
       -0.059444916 -0.16818179 0.14707996 -0.048872612

weight_ih_l0 f4 [32, 22]
000000 80 88 2c be 04 af b8 be eb 9b a6 3d 8d 16 a1 3c
       -0.16848946 -0.36071026 0.08135208 0.019664073
000010 75 c6 94 3d 3a 03 9d bb 4d bd 1b 3e ac 59 b1 be
       0.07264415 -0.0047916444 0.15208931 -0.34638727
000020 19 be f0 be 78 6e 7b 3d c8 56 44 3e 19 a6 71 3e
       -0.47020033 0.061384648 0.1917373 0.23598517
000030 c3 69 74 be bd 4a e6 3d 5c 55 84 be f5 a4 98 3e
       -0.2386847 0.11244724 -0.25846374 0.29813352
000040 ed b3 16 3e 85 8d 32 be 7c 41 05 3d 28 3c 03 bb
       0.14717074 -0.17436798 0.032533154 -0.002002487
000050 65 c2 0d 3d 50 18 20 3e e4 ad 9e bd 8a 22 db be
       0.034609217 0.15634274 -0.07748011 -0.4279979
000060 0a 0a ff 3d c0 c0 0c 3f 00 9f be be 75 5d 1e 3d
       0.12453087 0.54981613 -0.37230682 0.038663346
000070 5d 1e ba 3d fc e1 bd bd f1 fd 08 be 2c 06 6d 3b
       0.090878226 -0.09271619 -0.13378121 0.0036167009
000080 a3 03 0a be 96 00 8a be a2 20 0d 3e 15 1e e1 be
       -0.1347795 -0.26953572 0.1378198 -0.43968263
000090 6b 4a 1f be ed 2e 92 be 69 3a 32 3e 39 82 81 be
       -0.15555732 -0.28551427 0.17405094 -0.25294665
0000a0 01 cd 8f bc 09 a5 96 3d 9f f4 e9 bd 3d e7 1d 3e
       -0.017553808 0.07355697 -0.11423611 0.15420242
0000b0 18 2a b4 3c 8e 64 d7 3d 09 79 c0 be 2d ec a5 3d
       0.021992728 0.10517226 -0.37592342 0.081016876
0000c0 c1 20 8a 3e 81 31 f0 bd ec 87 ee be d8 20 93 3e
       0.26978114 -0.11728192 -0.46588075 0.28735995
0000d0 ea ee be bc 86 be 0b 3f 4d 0e e7 3d 6a ae cb bb
       -0.023307282 0.5458759 0.112820245 -0.00621586
0000e0 2c e9 40 3d 44 00 bf 3e 24 2d 5c 3e 6e 32 d2 be
       0.04709737 0.3730489 0.21501595 -0.410541
0000f0 f3 fb be bd dc 87 cf bd aa 72 cb 3e 50 0a 06 3f
       -0.09325399 -0.10133335 0.3973592 0.52359486
000100 7d 23 c0 bd 36 c7 ad be 67 1f 3d 3d 1f 65 a5 be
       -0.09381769 -0.33941048 0.046172526 -0.32303712
000110 3a 73 f8 3e dd 64 d5 3e 6e 03 33 be 77 34 0b 3d
       0.4852541 0.41678515 -0.17481777 0.03398558
000120 47 45 0d be 96 af e4 bd 68 a9 71 3e 20 dc b1 bd
       -0.13795958 -0.11166303 0.2359978 -0.08684564
000130 0b 77 a7 be 88 46 ac bb 93 77 bc 3e 84 d5 fd 3c
       -0.3270801 -0.0052574314 0.36809978 0.030985601
000140 81 3e 73 be 7d 39 92 be 47 91 04 be f8 c3 d7 be
       -0.23754312 -0.28559485 -0.12946044 -0.421417
000150 57 af 62 be 19 7b 12 3e 6e d7 99 3d 82 7e 09 3e
       -0.221372 0.1430477 0.07511793 0.13427165
000160 c9 9f 47 bc 29 f7 70 be 7a 6c be 3d 5d fc 60 3e
       -0.012184092 -0.23531784 0.09298034 0.21971269
000170 78 f1 83 bd 3f bd 61 bd fe bc 75 bd e9 05 81 be
       -0.06442541 -0.05511212 -0.05999469 -0.25199822
000180 b3 99 08 3e 2d 99 d6 be 4c 5b e9 3c 7d 74 23 3e
       0.13339882 -0.4191374 0.028485917 0.15962406
000190 d2 06 ce be dc a9 de bd 5d c1 35 3e 1f 83 26 3e
       -0.40239578 -0.10872242 0.17749543 0.16260956
0001a0 eb 2e 6f be e2 cf 2d be d1 b4 11 3e 71 78 1e bd
       -0.23357742 -0.16973832 0.14229132 -0.03868908
0001b0 50 70 95 3e 6e 7b d5 bd 71 f9 5f be 26 42 d6 bb
       0.2918725 -0.10423933 -0.21872498 -0.006538647
0001c0 23 20 cb 3e f5 6f 81 3d 63 02 c6 bd 05 2c de bd
       0.39672956 0.06320182 -0.09668424 -0.1084824
0001d0 9e eb 52 3e 6f e8 78 3e 7f d5 bd be 58 ad b7 be
       0.20597693 0.24307416 -0.37076947 -0.35874438
0001e0 36 e5 1c bd 30 a9 82 3e fa 92 56 3d bf f7 0d be
       -0.03830453 0.25519705 0.05238626 -0.13864039
0001f0 70 cf 49 be fc e1 5e be e0 43 85 3e b3 72 16 3e
       -0.19708037 -0.21765894 0.26028347 0.14692192
000200 8c 22 89 be c3 57 02 3e 86 f7 35 3c b0 42 a1 be
       -0.2678417 0.12728791 0.0111063775 -0.3149619
000210 b0 6a 22 3d 50 e1 40 3e db a3 6f be a4 bc 81 be
       0.039652526 0.1883595 -0.2340235 -0.25339234
000220 75 46 54 3e 45 04 92 bc 69 a8 9d be b2 a1 21 3e
       0.20730002 -0.017824301 -0.3079255 0.15784338
000230 20 9b 24 3e a2 88 07 3e 05 dc ba 3e 42 7c b5 bd
       0.160748 0.13235715 0.36495987 -0.08861591
000240 92 ca fe 3c 79 53 7b 3c 57 93 c2 3e f2 04 b4 be
       0.031102452 0.015339726 0.38003036 -0.35160023
000250 1d d7 12 3e 3f 08 5e 3e 71 54 2a 3e 46 07 90 bd
       0.14339872 0.21682833 0.16633774 -0.07032637
000260 06 3a a2 be da 5d 48 be af dc 69 3c 45 20 c7 bc
       -0.31684893 -0.19567052 0.0142738065 -0.02430738
000270 00 c7 b2 bc a3 3a bd 3e 60 e0 92 3b 40 9f 4a 3d
       -0.021823406 0.369588 0.004482314 0.04946828
000280 95 b7 27 3d 68 45 bf 3d 66 3e 40 3e bd 5b 3b bd
       0.04094656 0.0933941 0.18773803 -0.045741785
000290 b3 28 43 be 32 4e d6 3d e3 60 d3 3e 94 97 fa 3e
       -0.19058494 0.10464133 0.41284856 0.4894377
0002a0 02 fe b2 3e 3a 2e 0b be 1f db a7 bd 77 7c 4b 3e
       0.34959418 -0.13591853 -0.08196091 0.19871698
0002b0 eb da 61 3e 77 b0 ae 3e 33 08 71 bd 88 87 15 be
       0.22056167 0.34119007 -0.05884571 -0.14602482
0002c0 5e c3 40 3d 19 6e d2 bd 71 d9 b0 be 81 86 3d be
       0.047061317 -0.10274906 -0.34540895 -0.1850834
0002d0 bc 85 b1 3d 63 52 23 bc 6e 4c 19 3d 44 00 d5 3e
       0.08668086 -0.009968373 0.037426405 0.41601765
0002e0 14 7a 1b 3e e0 50 0d 3e 85 cb 29 be b8 e4 98 be
       0.15183288 0.13800383 -0.16581543 -0.29862
0002f0 99 5d 97 3e 2f 6d 1f bc 75 d3 a6 3d c7 54 e3 be
       0.29563597 -0.009730621 0.08145801 -0.44400617
000300 bf 28 6e 3e a9 e6 80 3d 8c 3d 35 3e 2d 5e b9 3e
       0.23257731 0.06293995 0.1769926 0.36204663
000310 85 d8 cd bd 2f 96 f3 3d ae 2f ac bd 1e 8c 67 be
       -0.100510634 0.118938796 -0.08407532 -0.22612044
000320 cd 95 c9 3e 6b b9 42 3e 9f 1a 31 bb 1a 71 22 be
       0.393721 0.19016044 -0.0027023924 -0.15863457
000330 63 a6 c6 3e 98 da 87 3e 88 2c 52 3e 9e 9e dd 3d
       0.38798818 0.2653396 0.205248 0.108212695
000340 ec e4 9d 3e d8 d7 87 3e a1 52 19 bd 2f 20 df 3d
       0.30838716 0.26531863 -0.037432317 0.108948104
000350 81 ea 87 3e 49 a0 5f be 19 4a 84 bd 33 b9 44 bd
       0.265461 -0.21838488 -0.064594455 -0.048028182
000360 8d 48 32 be 0a 65 50 3d 68 66 52 bd 8f d4 94 be
       -0.17410488 0.05087761 -0.051367193 -0.2906842
000370 f2 0f b5 be 93 39 e7 bd 80 27 a2 bd e8 7f a2 3d
       -0.35363728 -0.11290278 -0.0791769 0.079345524
000380 7b a4 05 bf 94 93 04 3e ce 3c ad 3c 36 6b 25 be
       -0.522041 0.12946922 0.021147158 -0.16154179
000390 3d c6 1f 3d c0 26 38 3e 50 f8 7a 3e 35 b4 57 3e
       0.039007414 0.17983532 0.24508786 0.21064837
0003a0 ff a0 4e be 4f f9 f6 be a4 c4 7f 3e d5 4f d6 3d
       -0.20178603 -0.48237082 0.24977356 0.104644455
0003b0 f6 c0 dc bd 3d 5b 79 bd b8 05 2f be 4f 92 85 3e
       -0.10778992 -0.060878027 -0.17092025 0.26088187
0003c0 c1 dd 1d be ac 1b a8 3e bf 67 72 be 90 ae c5 be
       -0.15416624 0.32833612 -0.23672388 -0.38609743
0003d0 b7 25 08 3e 94 d0 be 3c f4 97 25 3e 71 ac 6b 3d
       0.13295637 0.023292817 0.16171247 0.0575375
0003e0 7a 0a 25 be 34 26 12 be 96 5d 88 bd b3 7c 04 be
       -0.16117278 -0.14272386 -0.06658475 -0.12938194
0003f0 a8 1c 68 be 48 f5 d6 3e 4a 6f 4a 3c 1e a4 40 3d
       -0.22667181 0.4198401 0.012355635 0.047031514

weight_hh_l0 f4 [32, 8]
000000 aa 29 fc be df 97 4c 3e 43 b4 47 be 1d 2a 09 bd
       -0.49250537 0.19979809 -0.19502358 -0.033487428
000010 6b 47 af bd a8 d1 18 3d 52 04 9d 3e e5 c0 af 3e
       -0.08558544 0.03730932 0.3066736 0.34326854
000020 fa c0 2c be fc f3 9a 3d ea 07 94 3e 78 40 77 3e
       -0.1687049 0.075660676 0.28912288 0.24145687
000030 8f a6 80 be bc a5 7a 3e ca ce 82 3e 2d 52 b4 3e
       -0.25127074 0.24477285 0.25548393 0.35218945
000040 83 23 f1 bd df 83 1e be ba 1d 62 3e 22 b7 a1 bd
       -0.117743514 -0.15479992 0.22081652 -0.07896258
000050 8b 87 d6 bd 29 73 4d be f8 0b 0f 3e 83 13 8b 3e
       -0.104750715 -0.20063461 0.1396941 0.27163324
000060 0a 2b 6e be a6 bf 96 3d 6e da 83 3e 63 65 39 3e
       -0.23258606 0.07360773 0.25752586 0.18105082
000070 bf 7f 55 3d 0c a6 e1 3e e1 74 23 3e 7c 06 71 3e
       0.05212378 0.44071996 0.15962555 0.2353763
000080 92 d6 2e be ae 21 90 3d ea cf 1a bd 70 f3 a0 bd
       -0.1707404 0.07037674 -0.03779594 -0.07858932
000090 70 18 af 3d f7 e2 45 3e 84 f1 b2 3e 63 18 04 3e
       0.08549583 0.19324861 0.34949887 0.12899928
0000a0 bc a3 a6 3d 6b 50 42 be b8 ae 91 3e 40 e1 13 be
       0.081366986 -0.1897599 0.28453612 -0.14441395
0000b0 94 09 b0 bd 66 eb f2 3d 95 ce 1c 3e 2e f4 89 3d
       -0.08595577 0.11861305 0.1531318 0.06736027
0000c0 8d 09 7d be e1 ba 77 ba f8 9f ae 3d 8b 99 a9 3d
       -0.24710675 -0.00094501494 0.08526605 0.08281239
0000d0 9c 81 29 3e 9b 19 69 be 69 70 fa bd fa 2a 21 3d
       0.16553348 -0.22763674 -0.12228472 0.039347626
0000e0 82 68 e8 3c d6 6a c9 be 3e 0d 7f 3e 97 ce 98 bd
       0.028370146 -0.39339322 0.24907395 -0.07461279
0000f0 f0 b9 60 bd 30 61 0c 3d e5 59 c8 3e 87 f3 c5 3c
       -0.054864824 0.034272373 0.39131084 0.024163974
000100 ca c3 ae 3e 93 c8 41 3e 16 42 ae bd 82 25 bf 3e
       0.3413375 0.18924169 -0.08508699 0.37333304
000110 e5 ee 8a bd 6d 1d b1 be 3d 24 03 3d 11 e4 44 be
       -0.06783847 -0.34592763 0.03201698 -0.19227625
000120 d3 00 e5 bc b3 08 85 bc c8 5f 81 bd 79 d4 46 3e
       -0.027954495 -0.0162395 -0.06317097 0.1941699
000130 ac 9d ad be d1 6a ac 3e cb 75 04 bd 4d 3d 10 be
       -0.33909357 0.33675244 -0.0323389 -0.14085884
000140 de 94 ac 3e cd ef c4 3c 79 d6 96 3e 18 0a b6 be
       0.33707327 0.024040127 0.29460505 -0.35554576
000150 31 92 84 3d 94 28 da 3e 00 a1 c2 3e 07 11 5c be
       0.06473196 0.42609084 0.38013458 -0.2149087
000160 ed c6 8c 3e f0 56 90 3e e3 2a e5 be bf e8 01 3e
       0.27495518 0.28191328 -0.44759282 0.12686442
000170 0c 8f fd 3e b3 5f 6c be 38 c7 ae be ce 1b 9e 3c
       0.495232 -0.23083381 -0.34136367 0.019300368
000180 89 bd 42 be e4 8a ee be 3f 47 53 bd 73 fa 6c bd
       -0.19017614 -0.4659034 -0.051581617 -0.057856034
000190 ea d3 e1 3d 7d aa 56 bc 0c 0e 35 be 45 28 fb bc
       0.110267475 -0.013102171 -0.1768114 -0.03065885
0001a0 6a cf 97 bb 97 d8 48 3e ac 7f 0b bf 09 a0 65 be
       -0.00463288 0.19613872 -0.54491687 -0.2242433
0001b0 64 91 f3 3e be 76 ce be 3a 5d b2 be c1 33 bb be
       0.47571862 -0.40324968 -0.3483675 -0.36562923
0001c0 ec 2f 6a 3e 69 d5 d4 bb 80 95 cc 3e da 86 e6 bd
       0.22869843 -0.006495167 0.3995781 -0.1125619
0001d0 d2 06 a0 be 72 df 3c 3e 1f a4 49 3e 38 3f 0f 3e
       -0.31255203 0.18444613 0.19691513 0.1398896
0001e0 33 f9 3a 3e 31 f5 30 3e a5 37 f9 be 58 24 e9 bd
       0.18259124 0.17281033 -0.48675266 -0.11383885
0001f0 d8 8f a5 bd bc fe 29 3e f0 52 c0 be b1 fd d1 be
       -0.08084077 0.1660108 -0.37563276 -0.41013864
000200 63 91 26 3e 38 66 e9 3e 1b 7a 79 3d 65 9d 8a be
       0.16266398 0.455858 0.060907464 -0.27073207
000210 31 0c 8f 3d 4b 83 85 3d 6b 5e 2f 3d 5c 42 86 be
       0.06984747 0.06519183 0.042814653 -0.26222503
000220 06 f3 6e 3e cb 08 87 3e ae f9 a6 be c5 32 e8 bd
       0.23334894 0.26373896 -0.32612365 -0.113378085
000230 9b 7c 28 3e 89 0c 06 bf 97 b0 65 bd 83 be b6 be
       0.16453783 -0.5236288 -0.056076612 -0.35692224
000240 1b e1 9f be 0e a0 47 bd 03 be 60 3e e8 c1 8d be
       -0.3122643 -0.048736624 0.21947484 -0.27687
000250 37 f9 3d 3e 39 ca be 3e bb 53 92 3e 7d 14 c3 3e
       0.18552099 0.3726366 0.28579506 0.3810157
000260 e1 df 12 3e c3 e2 5d be d0 6f e8 3e e2 45 de bc
       0.14343216 -0.21668534 0.45397806 -0.027132932
000270 ba a9 93 be e8 a4 51 3e 84 d6 0f be c4 4c 04 be
       -0.2884043 0.20473063 -0.14046675 -0.12919909
000280 57 f3 60 3e ea 6b 68 bd 63 5c 0c bf f8 37 b5 be
       0.21967827 -0.05674354 -0.5482847 -0.35394263
000290 54 80 e6 3c ec 5e dd be 1f 45 4f 3e 24 53 97 3c
       0.028137363 -0.43236482 0.20241211 0.018472262
0002a0 1d 63 57 be e2 6d eb 3c 6f d6 a5 be cb c0 25 bd
       -0.21033902 0.02873892 -0.32390162 -0.040467065
0002b0 d9 b2 99 3d c1 9b d4 be 92 38 e9 3d 1b 02 a3 be
       0.075048156 -0.4152508 0.11387743 -0.31837544
0002c0 8b c3 43 3e fd 5e 09 be 0b 37 8c bd 7b e8 86 3c
       0.19117562 -0.13415141 -0.06846436 0.016468277
0002d0 01 90 14 3e 0c e1 40 3e e0 a1 41 be fe ae c9 3d
       0.14508058 0.18835849 -0.18909407 0.0984783
0002e0 b9 ad 60 3e 51 af dc 3e d7 19 e4 be bd 41 6f 3d
       0.2194127 0.43102506 -0.44550964 0.058412302
0002f0 ef 80 e0 bc cd 79 e0 be f2 c3 a8 be 22 15 c8 bd
       -0.02740523 -0.43842927 -0.32961994 -0.09769656
000300 25 38 8e be d1 2b 5e be 92 db 56 bd 1f 92 fe 3d
       -0.2777721 -0.21696402 -0.052455492 0.12430214
000310 72 50 56 3c 20 bf 6c 3e 65 4a f6 3e b6 aa b4 3e
       0.013080703 0.23119783 0.48103634 0.35286492
000320 67 46 e7 be 76 f6 15 be 06 9c c0 3e e6 51 e9 be
       -0.451709 -0.14644799 0.37619036 -0.45570296
000330 34 06 6f bd 33 68 4c 3e c5 d5 ab bd eb e2 7f 3e
       -0.058355525 0.19961624 -0.08390383 0.24988906
000340 96 e5 bd 3d dc d7 96 be 67 79 62 3e 54 7a c1 be
       0.09272306 -0.29461563 0.22116624 -0.3778864
000350 55 81 01 be 08 d6 fe bd 1e 44 97 3e 8b 49 c7 3d
       -0.12646993 -0.12443167 0.29544157 0.09730824
000360 18 28 50 3e a7 c6 92 be 57 58 09 be 92 55 96 be
       0.20327795 -0.28667185 -0.13412605 -0.2936216
000370 95 74 63 be c7 fd 6e 3e f4 db 85 bc 42 48 9e 3e
       -0.22212441 0.23338996 -0.016340233 0.30914503
000380 5e c9 8e be 3b 40 dd be 85 ad c0 3d 0a 70 41 be
       -0.27888006 -0.43213066 0.09408096 -0.18890396
000390 2e f9 79 bc 7a 54 69 3e c8 cf ef 3e 7c f6 13 3e
       -0.015257163 0.22786132 0.46838212 0.14449495
0003a0 0e 00 8f bd b4 da 7c bd 23 a8 4a 3e 6d 50 25 3e
       -0.06982432 -0.06173201 0.19790702 0.16143961
0003b0 9d 8e e7 bd 79 66 f2 bc 45 15 a3 39 e8 cc 84 3e
       -0.11306498 -0.029589878 0.0003110563 0.2593758
0003c0 ee 92 6b 3e 1c 4e c1 be e8 1f ac 3d 34 33 ac be
       0.23005268 -0.37754905 0.08404523 -0.33632815
0003d0 03 f3 d5 be fc 91 9e 3e 59 94 01 bd c6 cc 59 3e
       -0.41786966 0.30970752 -0.031635616 0.21269521
0003e0 2b 90 34 be a7 5c ca be 3a b0 94 3e c0 6c b4 bd
       -0.1763312 -0.39523813 0.290407 -0.08809805
0003f0 b6 49 1e be 3d 13 e3 3e 68 62 2e 3c 9f 29 f0 3e
       -0.15457806 0.44350615 0.010643579 0.46906754

bias_ih_l0 f4 [32]
000000 49 0b 9d 3d 8a 83 c8 3e 12 e6 c1 bd 30 55 c3 3e
       0.07668168 0.39162856 -0.094677106 0.3815093
000010 38 43 4c 3e 62 35 b4 3e 66 c5 08 bd 78 dc 11 3e
       0.19947517 0.35196978 -0.03339138 0.14244258
000020 95 50 2f be 1b aa d2 3e 93 43 61 3e 8c c2 af 3e
       -0.17120583 0.41145405 0.21998434 0.34328115
000030 f1 ca ec bd 35 03 02 be c5 49 81 3e f0 a1 9c be
       -0.115621455 -0.12696536 0.25251594 -0.30592299
000040 3e 85 4d 3d 62 53 9c 3e 79 da e3 bd 62 b4 bb 3e
       0.050175898 0.30532366 -0.11125655 0.3666106
000050 a7 1d b5 be 24 80 87 be 1a 2e 15 be da d3 7b be
       -0.35374185 -0.2646495 -0.14568368 -0.24592534
000060 05 e6 44 bb 5e 81 f5 3e 0d 94 8d 3e a3 9e d9 3d
       -0.003004433 0.47950262 0.27652016 0.10625961
000070 21 43 ee 3e d8 d0 3c 3e 83 b7 26 be 7c b4 dc 3e
       0.4653559 0.18439043 -0.16280942 0.4310645

bias_hh_l0 f4 [32]
000000 14 24 6c 3e 80 09 f9 3c 29 08 c0 bd 7d 35 0b 3f
       0.23060638 0.030400038 -0.093765564 0.5437849
000010 5f 1e 13 3f 8c d6 dc 3e a5 af f8 3d ba 3b 85 3e
       0.5746822 0.43132436 0.121428765 0.2602213
000020 b5 7d 02 be 7e 25 e8 bc 74 ac a2 bd 55 43 25 be
       -0.12743266 -0.02833819 -0.07943049 -0.16138966
000030 2d db f5 bd 65 f3 84 be a4 54 32 3e 0f 9f 3d be
       -0.12004695 -0.25966945 0.174151 -0.18517707
000040 22 ed 0b be 81 a9 8c be 5e e8 56 bd af 8f 86 3d
       -0.13664678 -0.2747307 -0.052467696 0.06570374
000050 46 a9 54 be 0d 87 cb be 0d 09 0e bd e1 0b 85 bd
       -0.20767698 -0.39751473 -0.0346766 -0.06496406
000060 2f 07 7f 3e f1 58 1a 3d f0 d6 f0 bd f2 f7 71 3d
       0.24905084 0.037682477 -0.11759746 0.05907435
000070 4f 52 89 3e 63 d5 27 3e e3 1c bf 3e a3 c4 bd 3e
       0.2682061 0.16389994 0.37326726 0.37064084
